MeL-ODE_high_LR.pt (torch, 27689 bytes, 6 tensors)

net.0.weight f4 [64, 4]
0	0x3daccb36	0.08437197
1	0x3ecd99eb	0.40156493
2	0xbeae899f	-0.34089372
3	0xbdb8327b	-0.089940034
4	0xbeff11d8	-0.498183
5	0x3e0b1311	0.13581492
6	0xbed2cb0f	-0.41170546
7	0x3ea01a1b	0.31269917
8	0xbed3340a	-0.4125064
9	0x3e00a188	0.1256162
10	0xbe9dac02	-0.30795294
11	0xbe43760c	-0.19088
12	0x3e50e9d9	0.20401706
13	0x3e232d26	0.15935192
14	0xbe7b9601	-0.2456894
15	0x3df826d7	0.12116783
16	0xbe643c1a	-0.22288552
17	0x3f06d060	0.52661705
18	0xbf02c7b4	-0.5108597
19	0x3e6a54ae	0.22883865
20	0xbf02038f	-0.5078668
21	0x3c14ab5b	0.009074057
22	0x3ec9a98c	0.39387167
23	0x3e496607	0.19667827
24	0x3ed0776c	0.40716112
25	0xbe9035e7	-0.28166124
26	0x3e8b8393	0.2724882
27	0xbedcea36	-0.4314744
28	0xbda33ed3	-0.07970967
29	0x3e1e87f3	0.15481548
30	0xbc0fc944	-0.008776013
31	0xbebdc8e1	-0.3706732
32	0xbebf5970	-0.37372923
33	0x3ed42a0a	0.41438323
34	0x3e53398f	0.20627426
35	0x3e11d354	0.14240772
36	0xbeedca8c	-0.46443594
37	0x3ec31aca	0.38106376
38	0xbe16fd48	-0.14745057
39	0x3cd7e9a4	0.026356526
40	0xbd0805ce	-0.03320866
41	0x3f359df9	0.7094417
42	0x3db825fa	0.089916185
43	0x3df9e3fb	0.12201687
44	0xbe8ad507	-0.27115652
45	0x3ea1e48a	0.31619674
46	0x3db4ca43	0.08827641
47	0x3e2a1fcb	0.1661369
48	0xbed5cefc	-0.4175948
49	0xbed05063	-0.4068633
50	0x3ee6062c	0.44926584
51	0xbea5a8cc	-0.32355344
52	0xbdd672e7	-0.10471135
53	0xbe2e8e8b	-0.17046563
54	0xba994aff	-0.0011695324
55	0x3e7efaed	0.24900408
56	0xbee44be6	-0.44589156
57	0x3e7eae06	0.24871072
58	0xbdc41bd2	-0.09575619
59	0x3ea6153e	0.32438082
60	0xbeb7c97e	-0.35895914
61	0x3eac4a6a	0.33650523
62	0x3e0b371b	0.1359524
63	0xbdb5bcdc	-0.08873913
64	0x3e6b1194	0.22955924
65	0x3de15f50	0.110045075
66	0xbe74e746	-0.23916349
67	0xbe57136b	-0.21003501
68	0xbe828340	-0.2549076
69	0xbd1ca909	-0.038247142
70	0xbe5d4b43	-0.21610741
71	0x3e454e69	0.19268192
72	0x3e9a9111	0.30188802
73	0xbec6bcc0	-0.3881588
74	0xbe5f3184	-0.21796232
75	0xbdd29cfd	-0.102838494
76	0xbe5dd7f4	-0.21664411
77	0x3d81c6ee	0.06336771
78	0x3ea05a55	0.31318918
79	0xbe1dce9b	-0.15410845
80	0x3d9fe7bc	0.07807872
81	0xbeb15ef6	-0.34642762
82	0xbd34fe78	-0.044187993
83	0x3e7e9f1e	0.24865386
84	0x3e83c742	0.2573796
85	0x3e903496	0.2816512
86	0x3f03d773	0.51500624
87	0x3e50802c	0.20361394
88	0xbed7441f	-0.4204416
89	0xbcb89238	-0.02253066
90	0xbde89f4f	-0.11358511
91	0xbe712ab6	-0.23551449
92	0x3e71711e	0.23578307
93	0x3e600e3f	0.21880434
94	0x3df4200a	0.119201735
95	0x3e49cf7c	0.19708055
96	0x3e62d0c5	0.22149952
97	0xbd04a7bc	-0.032386526
98	0x3dd6d393	0.10489573
99	0x3d767ebf	0.06017947
100	0xbd9f7bba	-0.07787271
101	0x3e8dea58	0.27717853
102	0xbea5ac92	-0.32358223
103	0x3ebd8328	0.37014127
104	0xbec050c4	-0.3756162
105	0x3f1574c7	0.58381313
106	0xbe6e2fe3	-0.23260455
107	0x3e0aeb4a	0.13566318
108	0xbf125370	-0.57158566
109	0xbe88aaf6	-0.26692933
110	0xbdfa4b58	-0.12221402
111	0x3cb49b3b	0.022046676
112	0x3ee30544	0.44339955
113	0x3eba4111	0.36377767
114	0xbe555091	-0.20831515
115	0x3e41a32a	0.18909898
116	0xbe2a2cec	-0.16618699
117	0x3ea99781	0.331234
118	0xbe12a8a4	-0.14322144
119	0x3e29cbd3	0.16581659
120	0x3ed1f75e	0.4100904
121	0x3e9b454c	0.30326307
122	0xbe31a6d0	-0.1734879
123	0x3d03d2a6	0.032183312
124	0x3ed52663	0.4163085
125	0x3f0d5111	0.5520182
126	0x3e05d798	0.13070524
127	0x3eac35f8	0.33634925
128	0xbe85a8dc	-0.26105392
129	0x3db7389c	0.08946344
130	0xbd28ede4	-0.041242495
131	0x3d654617	0.055975046
132	0xbd49ab69	-0.049235735
133	0xbee7c9a9	-0.45271042
134	0xbdc96423	-0.09833553
135	0x3dcb4254	0.099247605
136	0xbe976287	-0.29567358
137	0xbe569b60	-0.20957708
138	0x3e6a397f	0.22873496
139	0x3eb281f0	0.3486476
140	0xbeddac51	-0.4329553
141	0xbea7cd09	-0.32773617
142	0x3dfce345	0.12348036
143	0x3edfecd7	0.43735382
144	0xbda88f84	-0.082304984
145	0x3e8e35c7	0.27775404
146	0x3e9f020e	0.31056255
147	0xbe7a9523	-0.24470954
148	0x3e8c3715	0.27385774
149	0xbeadf3fd	-0.3397521
150	0x3e910ec1	0.2833157
151	0x3e825f0a	0.25463134
152	0xbda920da	-0.08258219
153	0xbeabe364	-0.33571923
154	0xbea310ff	-0.31848904
155	0xbd65522d	-0.055986572
156	0xbe463579	-0.19356336
157	0xbe2165d4	-0.157615
158	0xbed0e080	-0.4079628
159	0xbe14c382	-0.14527705
160	0x3e38b084	0.18036085
161	0xbecb2470	-0.39676237
162	0x3c494385	0.012284164
163	0x3bcdfe5d	0.006286426
164	0x3f11aebb	0.5690724
165	0x3ed82593	0.42216167
166	0x3e900f4c	0.2813667
167	0x3dfe5d30	0.12420118
168	0x3df75267	0.12076264
169	0x3e9bb657	0.30412552
170	0x3eee2538	0.4651277
171	0x3eab3486	0.3343851
172	0x3ec24011	0.37939504
173	0xbd19e6c4	-0.03757359
174	0x3df70a19	0.12062473
175	0xbca9c31b	-0.020722916
176	0xbea18157	-0.3154399
177	0xbc1f6275	-0.009728064
178	0x3e7ffdad	0.24999113
179	0xbdb5f4f5	-0.088846125
180	0xbf04bd04	-0.51850915
181	0x3e8043f5	0.25051847
182	0x3e4fa2dc	0.2027697
183	0xbc99c958	-0.018772766
184	0x3e40c30a	0.18824401
185	0x3f2980ea	0.6621233
186	0x3cbd468c	0.023104928
187	0x3e408f06	0.18804559
188	0x3db254ee	0.08707605
189	0x3ef63c38	0.48092818
190	0x3cbcf8f7	0.023067934
191	0xbda6e56b	-0.08149227
192	0xbe937d50	-0.28806543
193	0xbedaa5e3	-0.42704687
194	0x3eda5166	0.42640227
195	0x3d34c5c2	0.04413391
196	0xbef10d8e	-0.47080654
197	0xbe662ccb	-0.22478025
198	0xbe8fbad5	-0.2807223
199	0xbed71c4e	-0.42013782
200	0xbea770f0	-0.32703352
201	0xbed8e508	-0.42362237
202	0x3eb25cec	0.3483652
203	0x3e04ea31	0.12979962
204	0x3e06b695	0.13155587
205	0x3f12949f	0.5725803
206	0x3e468c05	0.1938935
207	0x3e066846	0.13125715
208	0x3ed3c1ca	0.41358787
209	0xbe288c2b	-0.1645972
210	0x3e237d2e	0.15965721
211	0xbeb3808e	-0.35059017
212	0xbeca3418	-0.3949287
213	0x3d7fe945	0.062478323
214	0xbe66dafe	-0.22544476
215	0xbe596bc3	-0.21232514
216	0xbc1cc490	-0.0095683485
217	0xbebfef5a	-0.37487298
218	0xbeb38713	-0.3506399
219	0xbdb85ddb	-0.090022765
220	0xbed08fee	-0.4073481
221	0xbf0a7623	-0.5408651
222	0x3e6e2456	0.23256049
223	0xbe2de35d	-0.16981263
224	0xbd7050ad	-0.05867069
225	0x3f28ae9d	0.6589144
226	0x3d95f11d	0.07321379
227	0xbe5895f1	-0.21150948
228	0xbecc5a51	-0.39912656
229	0xbe3505ea	-0.17678037
230	0x3e9365e1	0.28788665
231	0x3e510212	0.20410946
232	0x3e425e92	0.18981388
233	0xbe2b7573	-0.16744022
234	0xbdc9a5d0	-0.09846079
235	0xbdee0d01	-0.11623574
236	0x3e8e8525	0.27835956
237	0xbe8a8f73	-0.27062568
238	0xbe235a21	-0.1595235
239	0x3e9b037d	0.302761
240	0x3e5c0160	0.214849
241	0x3ecef34a	0.4041999
242	0xbf0a8899	-0.5411468
243	0xbcb917b2	-0.022594307
244	0xbea7c5ea	-0.32768184
245	0x3dd6e6f4	0.104932696
246	0x3e9d8bdd	0.3077077
247	0xbe9187d3	-0.28423938
248	0x3d1259ed	0.03573029
249	0xbe221a2e	-0.158303
250	0xbe76358e	-0.24043867
251	0x3e78f9f3	0.24314098
252	0xbea380aa	-0.319341
253	0x3eeefdb0	0.46677923
254	0xbeeabc4b	-0.4584678
255	0xbe666878	-0.22500789

net.0.bias f4 [64]
0	0x3e39eee1	0.18157531
1	0x3e375c95	0.17906411
2	0xbdb78d45	-0.08962492
3	0x3e91465d	0.28373995
4	0x3dd6d684	0.10490134
5	0xbf2cca4f	-0.674962
6	0xbc3e244e	-0.011605335
7	0x3f19ab35	0.60026866
8	0x3f32573a	0.6966435
9	0x3e687160	0.22699499
10	0x3d30885c	0.043098792
11	0x3e153f82	0.14575008
12	0x3e17efc8	0.14837563
13	0x3f179ad7	0.5922064
14	0x3df30a6e	0.11867224
15	0x3f0a9120	0.54127693
16	0x3db0fd37	0.08642047
17	0x3d072745	0.032996435
18	0xbd680c66	-0.05665245
19	0x3ec30810	0.3809209
20	0xbe785289	-0.24250235
21	0x3e284e3b	0.16436093
22	0xbef9facf	-0.48824164
23	0x3f10fc1e	0.566347
24	0xbeff025b	-0.49806485
25	0xbf212f50	-0.6296282
26	0x3bed8bab	0.0072493157
27	0x3f15d06a	0.5852114
28	0x3eed8387	0.4638941
29	0x3f26855f	0.6504726
30	0x3ee18ac6	0.44051188
31	0xbf007606	-0.5018009
32	0x3ed45fbe	0.41479295
33	0xbe3fb378	-0.18720806
34	0xbf079ca9	-0.5297342
35	0xbed8f801	-0.42376712
36	0x3e530886	0.2060872
37	0x3ed1c22b	0.4096845
38	0xbe97e6a9	-0.29668167
39	0xbcc6063a	-0.024172891
40	0x3da97ab6	0.082753584
41	0x3d91e204	0.07123187
42	0x3d7b2efb	0.0613241
43	0xbed6dece	-0.4196686
44	0xbe95406e	-0.29150718
45	0xbe039c7f	-0.12852667
46	0xbe87dfb7	-0.26537868
47	0x3ee5c78b	0.44878802
48	0xbea4a977	-0.3216054
49	0xbeb38d32	-0.3506866
50	0x3f2cd469	0.6751161
51	0x3ef91b43	0.48653612
52	0x3f1ab5e0	0.6043377
53	0x3e7327c0	0.23745632
54	0x3ddb2b18	0.10701579
55	0xbe9b3393	-0.30312786
56	0xbed37d71	-0.41306642
57	0xbe82a8d4	-0.2551943
58	0x3e587e1e	0.2114186
59	0xbde8609f	-0.11346554
60	0xbdce47bb	-0.10072275
61	0xbea7f373	-0.32802925
62	0x3e7d8334	0.24757081
63	0x3f1095d4	0.5647862

net.2.weight f4 [64, 64]
0	0x3d273c86	0.040829204
1	0xbe1a378e	-0.15060255
2	0x3d243ea7	0.040098812
3	0x3c784fba	0.015155727
4	0x393dc9b8	0.0001809959
5	0xbdb5a66d	-0.08869634
6	0x3d12f342	0.03587652
7	0x3d5ead20	0.054364324
8	0x3d2bcb69	0.041942034
9	0xbe45d499	-0.19319381
10	0x3ea0947e	0.3136329
11	0x3dae29c9	0.08504064
12	0xbd738b4a	-0.05945901
13	0x3da1ca8f	0.07899963
14	0xbd66a099	-0.0563055
15	0xbd2ebbf6	-0.042659722
16	0xbbde1543	-0.006777437
17	0xbd61f39f	-0.055163976
18	0x3cef7b56	0.029233616
19	0x3d97329f	0.07382702
20	0xbe322337	-0.17396246
21	0x3e229c77	0.15879999
22	0xbd88e5d7	-0.066844635
23	0x3c26d594	0.010182757
24	0x3bc64ac0	0.0060513914
25	0xbcc8d57c	-0.02451586
26	0xbd744d91	-0.059644286
27	0xbd8d1409	-0.06888587
28	0x3d04612a	0.032319225
29	0xbd2c90a1	-0.042130116
30	0x3e0d2779	0.13784589
31	0xbcf87b0d	-0.030332113
32	0xbdcd6060	-0.10028148
33	0x3d0b4517	0.034001436
34	0x3bcc1f14	0.0062292907
35	0xbe212bc0	-0.15739346
36	0x3d3b64a5	0.04575028
37	0x3c57f12b	0.0131800575
38	0xbd31268c	-0.04324965
39	0x3cc1c277	0.023652298
40	0x3daa5fcd	0.08319054
41	0x3e5c709f	0.21527337
42	0x3d15bbc2	0.036556013
43	0x3cdf1ac9	0.027234452
44	0xbda76db4	-0.08175221
45	0x3dd32e9a	0.10311623
46	0x3e0acd38	0.13554847
47	0xbd89820e	-0.06714259
48	0xbd631be6	-0.055446528
49	0xbc57f26f	-0.013180359
50	0x3d4b675a	0.04965911
51	0x3e74896a	0.23880544
52	0x3d3fc7b2	0.046821304
53	0x3cbb1c0c	0.022840522
54	0x3d719ea6	0.05898919
55	0xbd8197d6	-0.063277885
56	0xba87429e	-0.0010319536
57	0xbd94f170	-0.07272613
58	0x3da130b1	0.07870615
59	0x3c2701bf	0.010193287
60	0xbda031b4	-0.0782198
61	0x3d810f09	0.06301696
62	0xbe25e0e9	-0.16199078
63	0x3d2ddac9	0.042444978
64	0x3e832096	0.256108
65	0xbd9e056f	-0.0771588
66	0x3dc78cd8	0.09743661
67	0x3d87f580	0.06638622
68	0x3d8b50f1	0.06802548
69	0xbd9f46ff	-0.07777213
70	0xbda90e48	-0.08254677
71	0x3c984758	0.018588707
72	0xbdfe4318	-0.12415141
73	0x3e30f840	0.172822
74	0xbb83ef88	-0.004026357
75	0x3d18a718	0.037268728
76	0x3b40f8bc	0.0029445132
77	0xbdc8b5f1	-0.098003276
78	0x3db4361a	0.087993816
79	0x3e489d93	0.1959136
80	0xbda750a5	-0.081696786
81	0x3daae2d3	0.083440445
82	0xbe0fd5ca	-0.14046398
83	0xbd321331	-0.043475334
84	0xbd3df212	-0.046373434
85	0xbced2089	-0.028946178
86	0x3d8df550	0.06931555
87	0x3cf26919	0.02959113
88	0x3e42784a	0.18991199
89	0xbc12d950	-0.008962944
90	0xbde7310c	-0.11288652
91	0x3dbb1110	0.09134114
92	0x3c0c2099	0.008552694
93	0xbd4fee00	-0.050764084
94	0x3e257def	0.16161321
95	0xbdae3f61	-0.08508182
96	0x3dcd7cf0	0.100335956
97	0x3b7bc328	0.0038415883
98	0xbdb66df1	-0.089076884
99	0x3db9c6bf	0.09071111
100	0x3e0d5af0	0.13804221
101	0x3d0b866e	0.03406375
102	0xbdacca73	-0.084370516
103	0xbddce404	-0.10785678
104	0x3da24041	0.07922412
105	0xbded69e7	-0.11592465
106	0x3c736253	0.014854985
107	0xbd065930	-0.0327999
108	0xbd03210b	-0.032013934
109	0xbdd4e0d2	-0.103944436
110	0xbd8ad7a7	-0.06779414
111	0x3e257bb3	0.16160469
112	0xbd911a68	-0.07085115
113	0xbbe6f0e8	-0.007047761
114	0xbdf8b619	-0.12144107
115	0x3c7289a1	0.014803321
116	0xbd5a22f7	-0.053256
117	0x39b9a98e	0.00035412278
118	0x3db86aa2	0.090047136
119	0xbc749c18	-0.014929794
120	0x3d920732	0.07130279
121	0xbd61034b	-0.05493478
122	0x3d126a2a	0.035745777
123	0x3dc95065	0.09829787
124	0xbcdc0056	-0.026855629
125	0xbd4702a6	-0.04858651
126	0xbc5fe632	-0.013665723
127	0xbd3f3dec	-0.046689913
128	0x3dd33920	0.1031363
129	0xbd48a902	-0.048989303
130	0xbded3310	-0.11582005
131	0xbdd71e43	-0.10503819
132	0xbdd67427	-0.10471373
133	0x3dda88fd	0.1067066
134	0xbcd7bcc5	-0.02633513
135	0xbd18bf0f	-0.037291583
136	0xbd0e5016	-0.034744345
137	0x3d2fb962	0.042901404
138	0x3c992d43	0.01869834
139	0x3c64f981	0.013975502
140	0x3db7db6f	0.089774005
141	0xbbe22367	-0.006901193
142	0x3d2e7b98	0.042598337
143	0xbda93542	-0.08262111
144	0x3d9e8d9f	0.07741856
145	0x3d3aacd4	0.045574978
146	0xbda376be	-0.07981633
147	0xbca36091	-0.019943507
148	0x3e01f8ae	0.1269252
149	0xbc399639	-0.01132732
150	0xbd16bfaf	-0.036803897
151	0xbdf919b4	-0.121631056
152	0x3e6ec5b4	0.23317605
153	0xbde5a470	-0.112130046
154	0xbe23e068	-0.16003573
155	0xbd415f56	-0.04721006
156	0x3dfe570a	0.12418945
157	0xbe8f908b	-0.28039965
158	0x3d45d6c1	0.04830051
159	0x3d3318a2	0.043724664
160	0xbe09aca5	-0.13444765
161	0x3e0c6334	0.13709718
162	0xbbe0c043	-0.006858857
163	0xbd980f3b	-0.0742478
164	0xbe23f804	-0.16012579
165	0xbccb7093	-0.024833953
166	0x3b05af29	0.0020398593
167	0x3dc5de26	0.09661512
168	0x3e05f013	0.13079862
169	0x3ae2456f	0.0017263124
170	0x3d88d3f3	0.06681051
171	0x3de5afbb	0.112151586
172	0x3d2bc0d8	0.041931957
173	0xbd7add43	-0.061246168
174	0xbd66142d	-0.056171585
175	0x3bdd838b	0.006760066
176	0x3d42b944	0.047539964
177	0x3d1812bf	0.037127253
178	0xbc71b808	-0.014753349
179	0x3c9cc3f7	0.019136412
180	0xbd60cb9d	-0.05488168
181	0x3caefc15	0.021360436
182	0x3d987f4f	0.07446157
183	0xbdbd6b78	-0.09249014
184	0x3e389189	0.18024267
185	0x3dc9fa20	0.09862161
186	0xbd332bdd	-0.043743003
187	0x3d24ac6e	0.040203504
188	0xbd4254eb	-0.047444265
189	0xbddcf3f9	-0.107887216
190	0x3db8058a	0.089854315
191	0xbd90bbcc	-0.070670694
192	0x3e8f84ce	0.2803101
193	0x3d09a8df	0.033608314
194	0x3d8d1d07	0.06890302
195	0xbd511fa5	-0.05105557
196	0x3df4103a	0.119171575
197	0x3dbd39c5	0.09239534
198	0xbda855c4	-0.082194835
199	0xbb5d09f4	-0.0033727856
200	0x3c87f3b3	0.016595697
201	0x3e0ecdf8	0.13945758
202	0xbe2dfad6	-0.16990218
203	0x3d8124e8	0.063058674
204	0xbcd7d5a3	-0.026346987
205	0x3d8545c2	0.06507446
206	0x3da86280	0.082219124
207	0x3e07ecf6	0.13273987
208	0x3e10c9e3	0.14139514
209	0x3c830190	0.015991956
210	0xbdf5ac14	-0.11995712
211	0xbc5b87fd	-0.013399121
212	0xbc352206	-0.011055475
213	0xbe14cab2	-0.14530447
214	0xbd95594b	-0.07292422
215	0x3d5dd3aa	0.054156937
216	0xbe7173b6	-0.23579296
217	0xbd81cf29	-0.06338341
218	0xbd222e8e	-0.03959518
219	0x3e506877	0.2035235
220	0xbcfbb1cf	-0.030724434
221	0x3c9e6f36	0.019340139
222	0xbd4427a6	-0.047889374
223	0xbbbd9692	-0.0057857716
224	0x3c76d025	0.015064274
225	0xbc09b202	-0.008404257
226	0x3d9b098e	0.07570182
227	0xbdbda908	-0.09260756
228	0x3e06fac5	0.13181598
229	0x3d4e927f	0.05043268
230	0x3d1e54e2	0.03865517
231	0x3da17b92	0.07884897
232	0xbdfdbfd5	-0.12390105
233	0xbdc8fd19	-0.098138995
234	0xbd40a40f	-0.04703146
235	0xbd190d86	-0.037366413
236	0xbdc8f7e5	-0.09812907
237	0xbc914ddd	-0.017737323
238	0xbd6a7edf	-0.0572499
239	0x3eb15764	0.34636986
240	0xbdd4936c	-0.10379681
241	0xbde57b1d	-0.112051226
242	0x3e00ce91	0.12578799
243	0xbd80c3f3	-0.06287374
244	0xbd10c7de	-0.03534686
245	0x3d306703	0.04306699
246	0x3d9abc9c	0.07555506
247	0x3d5aabf3	0.05338664
248	0x3d18d11e	0.037308805
249	0xbda96f70	-0.08273208
250	0xbda7a188	-0.081851065
251	0xbcc3ade0	-0.023886621
252	0x3dd4357b	0.10361763
253	0x3cb7b815	0.022426644
254	0xbd801298	-0.062535465
255	0x3e1fe621	0.15615131

net.2.bias f4 [64]
0	0x3e243aa8	0.16038
1	0x3e0e4b34	0.13895875
2	0xbe500022	-0.2031255
3	0x3e24e6dd	0.16103692
4	0x3ec8248e	0.3909039
5	0x3e690be7	0.22758447
6	0x3d50c334	0.05096741
7	0xbd90d1a1	-0.070712335
8	0x3e3ed090	0.18634248
9	0x3e3f5627	0.18685208
10	0x3e086e01	0.13323213
11	0xbcc4faf7	-0.02404545
12	0xbdcb2e16	-0.099208996
13	0x3e1f0847	0.15530501
14	0x3dcfb4dc	0.10141918
15	0x3e412a27	0.18863736
16	0x3d76596b	0.06014387
17	0x3d858233	0.06518974
18	0xbde68c20	-0.112571955
19	0x3cf76a65	0.0302021
20	0x3e0d1f2c	0.13781422
21	0x3dd2e74d	0.102980234
22	0xbcdb193d	-0.026745433
23	0x3ccd4e9d	0.0250619
24	0xbda9896c	-0.08278164
25	0x3e34afe9	0.1764523
26	0x3c77a431	0.01511483
27	0xbdfd22be	-0.12360142
28	0x3dcc0e4e	0.09963666
29	0x3e0746af	0.13210557
30	0x3dec19dd	0.115283705
31	0x3d4483e0	0.04797733
32	0x3e32857e	0.17433736
33	0x3e878a14	0.26472533
34	0x3ebe43d8	0.37161136
35	0xbe00fce8	-0.12596476
36	0x3dbcce46	0.09219031
37	0x3caefd12	0.021360908
38	0x3e9d1956	0.30683392
39	0x3df809b3	0.12111225
40	0xbe731ed8	-0.23742235
41	0x3e82d6cf	0.2555451
42	0x3ce64780	0.028110266
43	0x3d15d59e	0.036580674
44	0x3e741d97	0.23839413
45	0xbe3f9c71	-0.18712021
46	0xbd8c86ef	-0.06861674
47	0x3e950f56	0.29113263
48	0xbc861c6e	-0.016370978
49	0x3dcdc1df	0.100467436
50	0x3dc406c1	0.09571601
51	0x3d779d27	0.060452607
52	0x3e777af8	0.24168003
53	0xbc890d49	-0.016729968
54	0xbd95a0d7	-0.073060684
55	0x3df14cee	0.11782251
56	0xbdbc53d6	-0.09195678
57	0x3e0679e6	0.13132438
58	0x3e06e794	0.13174278
59	0xbcaa4fe0	-0.02079004
60	0xbdb85cfb	-0.090021096
61	0x3dac744d	0.0842062
62	0xbdd32c69	-0.10311205
63	0x3e7b8d86	0.24565706

net.4.weight f4 [25, 64]
0	0x3d9cc5c9	0.07654912
1	0xbdb769d0	-0.08955729
2	0x3ce9ac22	0.028524462
3	0xbd88c583	-0.06678297
4	0xbd56fe1c	-0.05248843
5	0x3ddf052c	0.10889658
6	0xbd25b77a	-0.04045818
7	0x3cada6c7	0.02119769
8	0x3c86acdd	0.01643985
9	0x3df80dc9	0.12112004
10	0x3d857ef3	0.06518354
11	0x3dde4e84	0.108548194
12	0x3d71e22c	0.059053585
13	0xbc7b9675	-0.015355696
14	0x3c9e172c	0.019298159
15	0x3dcb5769	0.099287815
16	0xbd8c69f7	-0.06856149
17	0xbdd43bfe	-0.10363005
18	0xbda4167a	-0.080120996
19	0x3daca4fa	0.08429904
20	0x3cd03776	0.02541707
21	0x3d90c1a5	0.07068185
22	0x3dc845ee	0.09778963
23	0x3a9a7266	0.0011783361
24	0xbe04fd6d	-0.129873
25	0xbd96f227	-0.07370406
26	0xbde3e81c	-0.11128256
27	0x3c7ad16c	0.015308719
28	0x3dc3b336	0.09555666
29	0xbd55af1f	-0.05216896
30	0xbd282999	-0.041055296
31	0xbd49def8	-0.049284905
32	0x3a84152a	0.0010077108
33	0xbd360eff	-0.044447895
34	0x3d82cf04	0.06387141
35	0xbbb97d5c	-0.005660696
36	0xbdbd4a59	-0.09242696
37	0xbd209012	-0.039199896
38	0x3d38b1c7	0.045091417
39	0xbde35daa	-0.111018494
40	0x3ab3aa1a	0.001370731
41	0xbd435223	-0.047685754
42	0x3c9a4d82	0.018835787
43	0xbbb8ecfc	-0.005643485
44	0x3b00b6b0	0.001964014
45	0xbdaca9d0	-0.08430827
46	0xbd9b697e	-0.075884804
47	0x3ce3de22	0.027815882
48	0x3d8480e2	0.06469895
49	0x3d78c47a	0.06073425
50	0xbdc04075	-0.09387294
51	0x3dfe4968	0.12416345
52	0xbc072c8f	-0.00825037
53	0x3d4e18d7	0.050316658
54	0xbdc29e97	-0.09502905
55	0x3dd4c6ca	0.103894785
56	0x3daf7670	0.08567512
57	0x3d92ad47	0.07161956
58	0x3b9bd627	0.0047557536
59	0xbdcc057e	-0.09961985
60	0x3d1b8b97	0.03797492
61	0xbe0099df	-0.12558697
62	0x3c83f158	0.016106293
63	0xbc179b8d	-0.009253395
64	0xbca54313	-0.020173585
65	0x3ddfad6c	0.109217495
66	0xbe8a66cc	-0.27031553
67	0xbd9cff69	-0.07665903
68	0xbd8fc373	-0.07019701
69	0x3dd4a019	0.10382099
70	0xbe225642	-0.15853217
71	0xbb4e4b23	-0.003147789
72	0x3dcc7df3	0.099849604
73	0x3dac39a3	0.08409431
74	0xbda42a9f	-0.08015942
75	0x3d9c6af8	0.0763759
76	0xbde5ce68	-0.112210095
77	0x3b21dd67	0.0024698616
78	0x3d966353	0.07343163
79	0xbcf9dbbe	-0.030500289
80	0x3db3e621	0.08784128
81	0x3ca2762f	0.019831745
82	0x3dbf506d	0.09341512
83	0x3d9a6740	0.075392246
84	0xbb1c326f	-0.0023833772
85	0xbccde171	-0.025131913
86	0xbd1b0869	-0.037849817
87	0x3d82929f	0.06375622
88	0xbd1aae4b	-0.037763875
89	0xbd7646db	-0.060126167
90	0xbcca2237	-0.024674518
91	0x3d10f572	0.035390325
92	0x3d6ba958	0.057534546
93	0x3e1a138c	0.15046519
94	0xbdb80c3c	-0.089867085
95	0xbd71107c	-0.05885361
96	0xbdd467f0	-0.10371387
97	0xbd982086	-0.07428078
98	0xbd5ae60d	-0.05344205
99	0xbe0961a2	-0.1341615
100	0x3d2fd1a5	0.042924542
101	0xbd487ece	-0.048949055
102	0xbc20833f	-0.0097969165
103	0xbe47f57b	-0.19527237
104	0x3cddb2a4	0.027062722
105	0xbd1d42f1	-0.03839392
106	0xbda22825	-0.07917813
107	0x3ca004ed	0.019533599
108	0x3e5e61dd	0.2171702
109	0x3d3fb03c	0.04679893
110	0x3c999726	0.018748831
111	0xbc16f83c	-0.009214457
112	0xbdde56a0	-0.10856366
113	0xbe1f781d	-0.15573163
114	0xbd751581	-0.05983496
115	0xbc5737d7	-0.013135872
116	0xbd9921b9	-0.07477135
117	0x3d3503b1	0.044192974
118	0x3d2abc3a	0.041683413
119	0x3b911e9b	0.0044286973
120	0x3ad2ad2d	0.0016073339
121	0x3b9486e4	0.004532682
122	0x3d1a2195	0.037629683
123	0x39090000	0.00013065338
124	0xbe3af635	-0.18257983
125	0xbd59acc5	-0.05314328
126	0x3c8a694b	0.01689591
127	0x3dca41d2	0.098758355
128	0x3c8db4bc	0.017298095
129	0x3d5566c5	0.05209996
130	0xbdee63e7	-0.116401486
131	0x3c9e06ae	0.019290294
132	0x3d157a9d	0.036493886
133	0xbd7b4754	-0.06134732
134	0x3cbfb322	0.023400847
135	0x3d92d9d5	0.071704544
136	0xbd1781f1	-0.036989156
137	0x3d85912f	0.06521832
138	0xbe0f2ad5	-0.13981183
139	0x3d9b6e34	0.07589379
140	0xbb9f5d00	-0.0048633814
141	0xbd1fef22	-0.039046414
142	0xbd9c069d	-0.07618449
143	0x3e14f899	0.14547957
144	0xbc7fd6e0	-0.015615195
145	0x3d74a1f2	0.059724756
146	0xbc660199	-0.014038467
147	0x3cb3f62b	0.021967968
148	0xbcde1b27	-0.027112557
149	0xbd8a5adf	-0.067556135
150	0x3b1d34b9	0.0023987724
151	0xbc50c807	-0.012743003
152	0x3db99915	0.09062401
153	0x3dd13b2c	0.10216364
154	0xbd078273	-0.03308339
155	0xbdc14e3d	-0.09438751
156	0x3d30d00c	0.04316716
157	0xbd4c1713	-0.049826693
158	0xbcb197fe	-0.02167892
159	0x3ddaf9b4	0.10692158
160	0xbda17873	-0.07884302
161	0x3da74954	0.08168283
162	0x3e479393	0.19489889
163	0xbc9dd3b5	-0.019265989
164	0xbafa9558	-0.0019117994
165	0x3db4200b	0.08795174
166	0xbd02a0a5	-0.031891484
167	0x3d1dc83f	0.038521048
168	0xbd8a48f2	-0.067521945
169	0xbd3a6d91	-0.045514647
170	0x3d79b037	0.060959067
171	0xbc3f2189	-0.01166571
172	0x3d858258	0.06519002
173	0x3d9d4958	0.07680005
174	0xbd8d10ee	-0.06887995
175	0xbcd83ce2	-0.026396219
176	0xbe0ebc66	-0.13939056
177	0x3da371d5	0.07980696
178	0x3ca8ae51	0.020590933
179	0x3d4b7281	0.049669746
180	0xbd788892	-0.06067712
181	0x3c146ec2	0.00905961
182	0x3d0811b3	0.033220004
183	0x3d998e17	0.074978046
184	0xbd8191a8	-0.0632661
185	0x3d46872b	0.04846875
186	0xbd962919	-0.073320575
187	0x3d4fad0c	0.05070214
188	0xbb1a8255	-0.002357622
189	0x3c43b411	0.011944787
190	0xbc135663	-0.008992764
191	0x3d6d2fae	0.0579068
192	0x3d48d08c	0.04902701
193	0x3d248517	0.040165987
194	0xbd135907	-0.035973575
195	0x3da6aba3	0.08138206
196	0x3cd90862	0.026493255
197	0x3dab9151	0.08377326
198	0x3d4ba571	0.049718324
199	0x3ddebfc5	0.10876421
200	0x3db26bf7	0.08711999
201	0xbd423b07	-0.047419574
202	0xbcf59343	-0.029977446
203	0x3d25d18b	0.04048304
204	0xbd7d910c	-0.061905906
205	0xbb4b9eb9	-0.0031069948
206	0x3d3cb699	0.046072576
207	0x3d03aca5	0.03214707
208	0xbdbadd02	-0.09124185
209	0x3ce133ab	0.027490458
210	0x3cd18a7b	0.025578728
211	0x3cd31ba3	0.025770014
212	0xbd3297e9	-0.043601904
213	0x3d00d838	0.031456202
214	0xbdf44aba	-0.119283155
215	0xbd15455a	-0.036443092
216	0x3c4ea099	0.012611532
217	0xbd7a1601	-0.06105614
218	0x3c4991ad	0.012302798
219	0xbd17bc10	-0.037044585
220	0xbde5ed74	-0.11226931
221	0x3d6a33fc	0.057178482
222	0xbdbe063c	-0.09278533
223	0x3d9d7d14	0.076898724
224	0x3d90196f	0.07036101
225	0xbd7f8aea	-0.06238834
226	0xbbae5546	-0.005320224
227	0x3d8d00db	0.06884929
228	0x3cbfa795	0.023395339
229	0x3c8ebc46	0.01742376
230	0xbe00da0c	-0.12583178
231	0xbda10730	-0.07862699
232	0xbe272ef7	-0.1632651
233	0xbcf8626a	-0.030320365
234	0x3d8f80d5	0.07006995
235	0xbe145085	-0.14483841
236	0x3be04cf7	0.0068451124
237	0x3df890e7	0.12137013
238	0xbe1ae281	-0.15125467
239	0x3d55f237	0.052232947
240	0x3d8fe597	0.07026213
241	0x3c84770c	0.016170047
242	0x3d829a26	0.06377058
243	0xbc76682c	-0.015039485
244	0x3cb089ba	0.021550048
245	0x3e0f0c82	0.13969615
246	0x3de8377f	0.1133871
247	0x3d8f68d2	0.07002415
248	0x3db6e62c	0.089306206
249	0xbe0ed22c	-0.13947362
250	0x3de4929f	0.11160778
251	0xbdf62eb2	-0.12020625
252	0xbd71a8c7	-0.05899885
253	0x3d8f1820	0.06987023
254	0x3d723b22	0.059138425
255	0x3cbf9314	0.023385562

net.4.bias f4 [25]
0	0x3de1af89	0.11019809
1	0xbda1d948	-0.07902771
2	0x3e594c13	0.21220426
3	0xbd938036	-0.07202189
4	0x3d0f271e	0.034949414
5	0x3dfadecc	0.122495264
6	0x3e09cbf3	0.13456707
7	0x3de20f32	0.110380545
8	0x3d0674c8	0.032826215
9	0x3d577a5f	0.052606937
10	0xbc2b6ba6	-0.010462677
11	0xbd656873	-0.056007814
12	0x3e10f26d	0.14154978
13	0xbca4029e	-0.02002078
14	0x3d6552a1	0.055987004
15	0x3db055ad	0.08610091
16	0x3e4b28d7	0.19839798
17	0x3ed29d42	0.41135603
18	0xbdd86d41	-0.105677135
19	0x3ea41999	0.3205078
20	0x3e7f478e	0.2492964
21	0x3dbf72d6	0.09348075
22	0xbc59051d	-0.013245848
23	0x3c3c71bb	0.011501725
24	0x3c8b29ef	0.016987769
