MeL-ODE_large_sample.pt (torch, 27749 bytes, 6 tensors)

net.0.weight f4 [64, 4]
000000 42 d0 3e be 25 f8 ed bd 01 14 af 3e a0 c1 8d 3d
       -0.18634132 -0.116195954 0.3419495 0.06921697
000010 e5 3f b4 3e 7a b4 99 bd 52 82 dc bd 53 35 d1 bd
       0.35204998 -0.07505126 -0.10767044 -0.10215249
000020 3f 5b 3d 3e 8e e2 cb 3e 53 5f 2c be fc 2b 94 3e
       0.18491839 0.39821285 -0.16833238 0.28939807
000030 41 27 a4 3e a2 10 a1 be 56 c1 60 be 0b 1e f7 be
       0.32061198 -0.31458002 -0.21948752 -0.48265108
000040 48 da df be 0d cc 82 3e 9e 78 d0 3e fa f1 19 3e
       -0.43721223 0.25546303 0.40717024 0.15033713
000050 0a 4f b8 3e 64 da 1e 3f 62 28 35 bd 20 50 42 be
       0.35997802 0.6205199 -0.044227965 -0.18975878
000060 d7 f8 d9 3e 89 31 ed 3e 6d e9 80 be 4c 0b ed be
       0.42572662 0.46326855 -0.2517809 -0.4629768
000070 69 18 75 be 80 b3 56 be 7e 68 57 bd c3 80 b5 3b
       -0.23935093 -0.20966911 -0.052589886 0.0055390312
000080 70 ea 3b 3e c7 88 0b b9 e3 85 33 3e a4 77 c7 3e
       0.1835115 -0.00013307027 0.17531542 0.38958466
000090 c7 fa 80 be 1b 47 d6 be 5f ba ca 3e 63 97 88 be
       -0.25191328 -0.41851124 0.39595315 -0.26678
0000a0 1f e8 c1 be c1 0b 95 bd bc 24 db be 48 33 c5 be
       -0.37872407 -0.072776325 -0.42801464 -0.38515687
0000b0 70 3e b4 be 9e 78 0e bf b1 88 9e bd d8 22 da bd
       -0.35203886 -0.556528 -0.077409156 -0.10651177
0000c0 da b1 54 3d 0f 5b 3c 3e 2c 2b 18 be 13 af 89 3e
       0.051927425 0.18394111 -0.14860219 0.26891384
0000d0 c6 d1 05 3f 3d 69 33 3d cd 0d 22 be 15 be 83 be
       0.52273214 0.043801535 -0.15825577 -0.2573096
0000e0 2c ba 11 be ad 76 9c 3e 9c a9 40 3e b9 a8 9d 3e
       -0.14231175 0.30559292 0.18814701 0.30792788
0000f0 e3 de 66 3e 08 fa 22 bd 59 25 0b bd 29 6b cb 3e
       0.22545962 -0.03978923 -0.033971164 0.39730194
000100 72 12 c5 3c 04 8b a9 3c 98 f2 be be 70 7e 96 3e
       0.024056647 0.02069617 -0.3729446 0.2939334
000110 f0 b7 95 be 15 32 bd 3e b4 7f cb 3e 29 d1 da 3e
       -0.29241896 0.36952272 0.39745867 0.42737702
000120 5e 7f 0a bf 72 63 33 3e 08 7c d1 3e 4d 36 a6 3e
       -0.54100597 0.17518404 0.4091494 0.32463303
000130 82 cc c4 be ce fc c2 be 05 32 06 bd 90 e7 88 be
       -0.38437277 -0.380835 -0.032762546 -0.26739168
000140 e7 b5 e4 be b8 13 11 3e bf c0 21 be 04 6c 7e bd
       -0.4467003 0.14167678 -0.15796183 -0.06211473
000150 a0 01 4d be 4b 59 f2 3e 17 15 93 3e d0 90 cd be
       -0.20020151 0.4733375 0.28727028 -0.40149546
000160 a0 0b b7 3c 28 e6 fa 3e 4c af 11 bd eb 4c 9b 3e
       0.02234441 0.4900372 -0.035567567 0.3033212
000170 83 a8 c9 3d b1 f6 8e bc 92 1b 24 be 36 a7 51 bd
       0.09846594 -0.017451616 -0.16026142 -0.051184855
000180 b9 55 de be 84 a8 e2 3e 1d ca ae be c1 70 b8 3e
       -0.43424776 0.44269192 -0.34138575 0.36023524
000190 91 7b e0 bd a3 c9 0b 3f 6c 6e 94 be 0b b3 e6 be
       -0.109610684 0.5460455 -0.28990495 -0.45058474
0001a0 ad 0d af 3d 5e 28 18 be ac df 15 3d 0e 7e f3 bd
       0.0854753 -0.14859149 0.036590263 -0.118892774
0001b0 ec 8e e6 bd a6 7e 16 be 49 10 47 3e 9b 52 c2 be
       -0.11257729 -0.1469675 0.19439806 -0.37953648
0001c0 54 40 2d 3e d3 6e f8 be 11 a9 05 be c7 08 1b 3e
       0.1691907 -0.48522052 -0.13052775 0.15140067
0001d0 0f 5a 2d be 8d 13 59 3f 37 08 1e 3d b1 04 8b 3d
       -0.16928886 0.8479546 0.038582053 0.06788004
0001e0 cc 76 39 3e cd 51 e8 3e ba ba 99 3e 8d 7b 2c 3e
       0.18111724 0.4537491 0.30025274 0.16844006
0001f0 3e 72 87 be 25 b2 0f bf fe 64 9f 3e 1e 49 cf be
       -0.26454347 -0.561312 0.31131738 -0.4048547
000200 0e 6c 3b be a3 9b c4 be 36 b0 85 3e cb 84 4d 3d
       -0.18302938 -0.3839999 0.26111 0.05017547
000210 76 0d 58 3e 59 0f f4 3e 06 fe 67 be 98 9a e3 3e
       0.21098885 0.4766796 -0.22655496 0.44453883
000220 fc ed 27 be c0 d5 ce 3e 9a 42 5a 3c e0 0f a4 bd
       -0.16399378 0.40397453 0.013321543 -0.080108404
000230 f7 1c 26 be 68 8d 2a be af ed 74 be e8 97 70 be
       -0.16221987 -0.16655505 -0.23918794 -0.23495448
000240 e2 fe 55 be b7 75 04 be e7 26 33 be a9 63 53 bd
       -0.20898011 -0.1293553 -0.17495309 -0.051608715
000250 82 e6 1f bd d5 d4 8c 3d 71 a5 30 be 2e 09 ce 3e
       -0.03903819 0.06876532 -0.17250611 0.4024138
000260 98 d4 9f 3d dd 0f b4 be e9 e6 97 bd 8a f1 fc 3e
       0.07804221 -0.35168353 -0.074170895 0.4940303
000270 35 70 80 3e ac 88 c9 be e4 d6 02 be d4 c4 8e be
       0.25085607 -0.39362085 -0.12777287 -0.27884543
000280 ed ee a2 be 33 b1 52 3e 15 8a e5 3c e7 59 98 be
       -0.3182291 0.20575409 0.028019944 -0.2975609
000290 2f 9a d8 3e 7f 72 d1 be e6 26 5d 3e 8a 1a 8a be
       0.42305133 -0.40907666 0.2159687 -0.26973373
0002a0 73 ad 28 3e c0 d7 b2 be 9b 73 25 3e 38 9a a7 3e
       0.16472416 -0.3493023 0.16157381 0.32734847
0002b0 90 55 c8 be f5 59 ad be 4b aa 97 bc ec 9a c5 3e
       -0.3912778 -0.33857694 -0.01851382 0.3859476
0002c0 eb 4e 07 bf 74 c1 05 3f 16 d1 01 3e a4 7f f6 3e
       -0.52854794 0.5224831 0.12677416 0.48144257
0002d0 2a d4 e4 3e 9d f8 22 3f 1a 82 63 3d e3 f1 ec 3d
       0.44693118 0.63660604 0.055543996 0.11569574
0002e0 b5 ca c0 be c9 31 8b 3d e3 2d 68 3e 46 30 bb be
       -0.37654653 0.06796605 0.22673754 -0.36560267
0002f0 b7 f0 a1 3e c7 9e d2 3e 2c a6 1a be bb 27 13 3e
       0.31628963 0.41136762 -0.15102452 0.14370625
000300 d0 10 c3 3e 8f e0 f5 be 35 85 41 be 5b b6 0b be
       0.38098764 -0.48022887 -0.1889847 -0.13643782
000310 ab 57 a3 be 3e 68 c4 be 70 47 96 be 01 e2 1e bd
       -0.31902823 -0.3836078 -0.29351377 -0.038789753
000320 82 24 51 3e 1b 5f 36 3e c3 78 66 3e d0 96 89 be
       0.20424083 0.17809717 0.22507004 -0.26872873
000330 48 d6 c1 be 96 23 8a be ea 2c b3 bd 1d 81 63 be
       -0.37858796 -0.26980275 -0.08748801 -0.22217222
000340 d5 2a 01 bf 6b e3 a9 3d c0 b0 fb 3d 0c ea a7 bd
       -0.5045598 0.0829533 0.12289572 -0.08198938
000350 0b fa a3 3c 57 ff da be 93 bb be 3e 4b e7 9d 3b
       0.02001669 -0.42772934 0.37252483 0.004818832
000360 b8 1f 00 3f 21 b8 d8 3e 0e 28 3a 3d 8a 37 bb 3e
       0.500484 0.4232798 0.045448355 0.3656581
000370 9a fa d0 3e 38 59 b0 3e e9 a4 a4 be 92 5f e8 be
       0.40816194 0.34443069 -0.32157066 -0.45385414
000380 3a 47 40 3e d9 1b 19 3e 03 b3 b4 3e 79 61 b6 3d
       0.18777171 0.1495203 0.35292825 0.0890531
000390 df c7 cf be d8 d3 86 be 28 21 b8 3d c2 06 89 be
       -0.40582177 -0.263335 0.08990699 -0.26762968
0003a0 92 b1 fa be e4 61 1a 3f 0c 2b 19 3e 28 c0 23 3e
       -0.489636 0.6030562 0.14957827 0.1599127
0003b0 0c 3a 0f bf 0d 11 6b bd d0 46 30 3e 97 85 ef 3e
       -0.5594795 -0.057389308 0.17214513 0.46781608
0003c0 c0 95 e5 bd 22 52 d6 be 46 03 66 3e cd 73 a0 3e
       -0.11210203 -0.41859537 0.22462186 0.3133835
0003d0 92 e0 9a bd b3 80 00 bf 63 27 63 be 99 de 57 3e
       -0.07562365 -0.5019638 -0.22182994 0.21081008
0003e0 a5 2c b0 be cd c1 ea be 07 0f d0 bd 17 70 99 3e
       -0.3440906 -0.45850983 -0.10159116 0.2996833
0003f0 1e 97 8a be 65 dc 08 3f f4 2f a1 be 6e f2 a3 bd
       -0.27068418 0.53461295 -0.31481898 -0.08005224

net.0.bias f4 [64]
000000 9e 2c d4 be d4 2b 8a 3e 4a a2 70 3e 36 0e 16 bf
       -0.4144029 0.26986563 0.23499408 -0.58615434
000010 fd 17 3f 3e ee fa 8b be c5 23 0c 3e 68 2f cf be
       0.18661495 -0.27339882 0.1368552 -0.40465856
000020 a7 5b 05 bf 34 fc 82 3e 8d 10 9d be f2 72 b3 be
       -0.52092975 0.2558304 -0.3067669 -0.35048634
000030 6e 08 84 bd 86 b1 bb 3e 31 d8 d5 3d 0c 19 bb 3e
       -0.0644692 0.36658877 0.10441626 0.36542547
000040 85 07 70 be 21 ea 1a 3e c5 f1 b1 3d fb d4 1a 3f
       -0.23440368 0.15128376 0.08688692 0.6048123
000050 2f 89 c1 be e1 6e e3 3e f1 ba cc be 2f 33 88 be
       -0.37799975 0.4442053 -0.39986375 -0.2660155
000060 06 f5 8d bd ea 83 9f 3e 9a 92 11 bf c0 ab 82 3e
       -0.069315 0.3115533 -0.5686432 0.2552166
000070 ba e7 83 be dc 2a a4 3e 8f 0a 0b 3f bd 02 b9 be
       -0.2576273 0.3206395 0.54312986 -0.36134902
000080 99 c5 cc be b5 12 d2 be bc 37 b9 3e 0c 97 d3 3e
       -0.39994505 -0.41029897 0.36175334 0.41326177
000090 f5 b1 b3 3e 90 58 30 3e 2d cc 27 3e 5e 64 96 3e
       0.35096708 0.17221284 0.1638648 0.2937345
0000a0 21 36 40 be e1 55 0a 3e 02 98 22 3c 09 89 b8 be
       -0.18770649 0.13509323 0.009923937 -0.3604205
0000b0 22 1b a3 3e df 3d 04 3e e6 57 f5 bb c0 1c 34 3f
       0.31856638 0.12914227 -0.007487285 0.7035637
0000c0 c9 b9 bc be d3 5c 48 3f 0e 79 b4 3e 7c 1e 38 be
       -0.36860493 0.7826664 0.35248607 -0.17980379
0000d0 33 b7 80 3e 76 77 22 3f f2 94 c1 3e 5f 89 1b 3f
       0.2513977 0.6346353 0.3780895 0.60756487
0000e0 52 37 17 3f fd ff ac be ca 72 ef 3e bf 2c a9 3d
       0.5906879 -0.33789054 0.46767265 0.08260488
0000f0 cc 7a e1 be b1 52 ea 3d 6b 56 79 bd 8c 58 1e 3e
       -0.44039 0.114415534 -0.06087343 0.15463465

net.2.weight f4 [64, 64]
000000 ca f4 61 bd 13 07 ac 3b 98 9b a8 3d 28 17 bf 3d
       -0.05516509 0.0052498668 0.08232802 0.093305886
000010 f1 24 b1 3d 64 b1 19 be c0 c3 c3 bd 08 cc 2e be
       0.08649624 -0.15009075 -0.09558821 -0.17070019
000020 ff af 74 bd ff a7 38 3d 87 ba d5 3d 59 da dc bb
       -0.059738155 0.04508209 0.10435968 -0.0067398963
000030 74 44 ef 3d 74 30 c7 bd cb a2 12 3c 43 32 8c 3d
       0.11682978 -0.097260386 0.008949946 0.06845524
000040 d2 29 4b 3c 40 14 85 bd ca a6 e1 bd ab cb c4 bd
       0.012400107 -0.06498003 -0.110181406 -0.09609159
000050 45 39 a8 bd f7 73 9f bc 35 27 a6 bd a0 c7 d6 bc
       -0.08214048 -0.019464476 -0.08112947 -0.026218235
000060 26 14 8b 3c 90 a9 ad bd a8 51 69 3e 7b 2b 88 3c
       0.016977381 -0.08479607 0.22785056 0.016622296
000070 6f f3 93 bd 35 cc 6e 3e 97 74 b8 3d 0d 15 03 3e
       -0.07224166 0.23320086 0.09006613 0.12800999
000080 7e ab 32 bd 43 69 81 3d 66 29 f7 bd 03 0a 1f bd
       -0.04362058 0.06318905 -0.12068443 -0.038827907
000090 72 d0 ab 3c d6 8a cc bd 57 66 3d 3c d7 7a 03 3e
       0.020973418 -0.09987418 0.011560044 0.12839828
0000a0 ca 4f aa bb 96 fc 6c bc c1 b4 12 be 0e 40 0e 3d
       -0.0051975 -0.014464518 -0.14326765 0.034729056
0000b0 70 5b 7e 3d 5e 1a 03 3d 9c ad 09 3e 28 ec 6a 3d
       0.06209892 0.032007568 0.13445133 0.057354122
0000c0 bd d2 95 bb dc 1b bf 3d 91 4d 2f 3d 40 3f 77 bc
       -0.004572241 0.09331486 0.042798582 -0.015090764
0000d0 0c 09 98 3d 0e 2c c7 bd 14 d5 8b bd d2 51 94 3d
       0.074236006 -0.097252 -0.06827751 0.072421685
0000e0 18 21 d8 bd 4d 10 1e 3d 70 8c 3c 3e a2 bc 7e 3b
       -0.10553187 0.038589764 0.18412948 0.0038869758
0000f0 05 ab 9d bb fe e3 91 bd 3f f8 2e bd e6 78 84 bd
       -0.004811647 -0.07123564 -0.042717215 -0.06468372
000100 b7 d6 24 3e 82 71 d6 bc 3d 8e a0 3d 3f 09 01 bd
       0.16097532 -0.026177172 0.0783963 -0.03150296
000110 eb e4 30 3c 78 6e 95 3c 61 a1 b0 3b 5b eb b9 3d
       0.010796766 0.018241152 0.0053903316 0.090780936
000120 29 e9 b2 bd 4b 0b 16 bd 8f e0 04 3d 41 45 cf 3c
       -0.08735878 -0.036631864 0.03244072 0.025301578
000130 dd 9a 03 3e d1 7a aa bb c0 52 85 3d 73 fd 7e bd
       0.12852044 -0.005202629 0.06509924 -0.062253427
000140 68 14 0a 3e 7f d0 de 3d b0 5e 2f 3e 44 a8 93 3d
       0.13484347 0.10879611 0.17125964 0.072098285
000150 a2 bd 14 be 63 bd e8 3d 0b 17 54 3e a5 78 cd 3d
       -0.14525464 0.11364248 0.20711915 0.10032777
000160 a6 4e 2e 3d d4 56 d1 3d 2f 8c 81 bd 6d 26 02 3e
       0.042555474 0.10221639 -0.06325566 0.12709971
000170 80 cc 27 bc f1 e0 3f 3f 84 9d 09 3e d4 13 84 3d
       -0.010241628 0.7495261 0.13438994 0.064490944
000180 b9 51 1a 3e 46 25 81 bc 84 96 91 3d af 35 98 3d
       0.15070237 -0.015764844 0.07108787 0.07432114
000190 3a 97 28 3d c0 87 54 3d 1e fc ef bc 38 66 58 3c
       0.041159846 0.051887274 -0.029295024 0.013207965
0001a0 ad 2c 6f bd f2 aa d9 3d 0a 1a 4e 3b fe 35 00 bd
       -0.058392216 0.10628308 0.0031448626 -0.03130149
0001b0 e3 4e 06 3e 37 f5 3e 3d bb 35 fc 3d 0e a0 dc bd
       0.1311603 0.046620574 0.12314936 -0.107727155
0001c0 06 6d 68 3d 34 22 41 bd b8 54 e4 3d 44 d0 d2 bd
       0.056744598 -0.04715176 0.11148971 -0.1029363
0001d0 d8 6e 19 3c c3 4c b8 3d 9d b6 2b 3d 89 90 d0 bd
       0.009364806 0.08999016 0.0419222 -0.10183818
0001e0 ce 7e 46 bd e3 70 cf ba 02 b8 f0 3d 33 3f e4 3d
       -0.048460774 -0.001582649 0.11753847 0.11144867
0001f0 bb b1 89 bd 79 fe 95 bc b9 c4 e8 bd f4 9f ae bd
       -0.067233525 -0.018309819 -0.11365647 -0.085266024
000200 b9 5c b4 3d 2d 90 c6 3d 18 72 b1 3d 3e 8f 91 bd
       0.08806748 0.09695468 0.0866434 -0.071073994
000210 4a 84 9f bd 07 b8 29 bb 25 c1 ba 3d 26 f3 d8 3d
       -0.07788904 -0.0025897042 0.09118871 0.10593252
000220 2d b0 15 3d 8d fc 2f 3d 47 4f e7 3d 01 21 02 3c
       0.036544967 0.04296546 0.11294418 0.007942439
000230 f7 69 81 3d 1e 9e 5d 3d 86 84 e8 bc f6 9e 94 3c
       0.06319039 0.05410587 -0.028383505 0.018142205
000240 f2 d8 76 bc 9b 9e e7 bc 9a cf 94 bd 48 52 a8 3c
       -0.015066372 -0.028273871 -0.07266159 0.020547047
000250 86 18 26 be 97 40 b8 3d bb 8a 7f bd dc ae 81 bd
       -0.16220292 0.089966945 -0.062388163 -0.0633218
000260 09 f7 49 3c 85 0a 15 bb a7 45 07 be 2d 20 ab bd
       0.012326964 -0.0022741866 -0.13210164 -0.083557464
000270 64 dc 9b 3d 1e dd 07 be 5d e5 b1 3d 52 bc 1d 3d
       0.076103956 -0.13267943 0.08686326 0.038509674
000280 e3 5b 89 bb 5a 1d 9e bd 7f 3e ff 3d c5 aa 2d bd
       -0.004191862 -0.07720442 0.12463092 -0.042399187
000290 02 17 8f bc d6 e4 65 3b 81 c6 ac 3d 76 51 d5 bc
       -0.017467026 0.0035079024 0.08436299 -0.02603982
0002a0 9a 80 ee bd 48 5e 80 3d da 87 1f bd 79 7c 47 3d
       -0.116456226 0.06267983 -0.038947918 0.04870269
0002b0 5d 91 a1 bd f2 5b 47 3d 88 10 fc bc 46 10 89 bc
       -0.07889054 0.04867167 -0.030769601 -0.016731393
0002c0 99 77 7f bd 76 c7 c6 3c ff 51 0b be 1f 1b 7e 3d
       -0.062369917 0.024265032 -0.13605498 0.062037583
0002d0 6c 93 b1 3d c4 26 d9 3d 07 5f e8 bd 6e e8 0e bd
       0.086706966 0.10603097 -0.1134625 -0.03488963
0002e0 d3 da 6a 3d 2e d8 b1 bd 8c 3f 9a bc 7e ad 0c bc
       0.057337593 -0.08683811 -0.01882913 -0.008586286
0002f0 49 49 a1 bd 06 15 b9 3c 50 33 00 3e bc ba e9 3c
       -0.07875306 0.022593033 0.12519574 0.028531425
000300 8f 46 d7 bd 97 51 7d 3c 61 eb 9e bd 96 d8 36 bd
       -0.10511505 0.015461347 -0.07759739 -0.044640146
000310 07 ca b7 3c 99 b5 d4 3c 86 e2 24 3e ee 01 b8 3d
       0.022435201 0.025965499 0.16102037 0.08984743
000320 d8 2d 8e bd 5e 47 57 bd 10 2c eb 3d 9b d1 03 be
       -0.06942338 -0.052558295 0.11483014 -0.12872927
000330 e0 5f 9d 3d c6 ad 56 bd 98 98 a0 3d aa 78 d8 bd
       0.07684302 -0.052411817 0.07841605 -0.1056989
000340 02 db 53 bd e5 42 a9 bc 99 9e 8c 3b 2d 71 17 3d
       -0.051722534 -0.02066178 0.0042913673 0.036973167
000350 78 40 a0 3c 3a fb 88 3d 47 2c 68 bd 34 bd 10 bc
       0.019561991 0.06688543 -0.05668285 -0.008834172
000360 b1 56 0e 3e 93 fd eb 3d 79 58 70 bd 20 7c f2 bc
       0.13900258 0.11522975 -0.058678124 -0.029600203
000370 47 e6 ec bd 22 ac 8f 3e a8 eb a5 3c 22 5a 85 bd
       -0.115673594 0.28061014 0.020253971 -0.06511332
000380 50 be 3f bd 24 fa 85 3c b0 d7 54 bd bb c0 95 3d
       -0.046812356 0.016354628 -0.051963508 0.07312151
000390 99 ab 9a bc 8c f8 bb bd c0 1f b9 bd 04 64 e9 3d
       -0.018880652 -0.09178266 -0.09039259 0.113960296
0003a0 08 db c0 bd cd 25 8c 3d 8e 92 17 3c c4 e6 f3 bd
       -0.09416777 0.068431474 0.00925125 -0.119092494
0003b0 45 c9 00 3e 3c eb aa 3c 63 92 b8 bd de d9 a9 3d
       0.12576778 0.020864122 -0.09012296 0.08293508
0003c0 41 7a fd bc 20 02 4e 3c db 4f 0b 3d 56 e4 99 3d
       -0.030942084 0.012573749 0.034011703 0.07514255
0003d0 da e0 8d 3c ce d0 12 3e 2a e9 98 3d d0 b2 ac bc
       0.017319132 0.14337465 0.074663475 -0.021081358
0003e0 5d 59 ce bc a4 b1 8c bd 4b 99 48 3e 6c 4e 06 3d
       -0.025189096 -0.0686982 0.19589727 0.032789633
0003f0 27 9b 0a be 27 74 41 3d 0b 66 81 3d 46 f3 26 3d
       -0.13535748 0.047229912 0.06318291 0.040759347

net.2.bias f4 [64]
000000 48 0f ef 3d c0 1c 8c bd 41 8c 47 3e 8c 36 6c 3e
       0.116728365 -0.06841421 0.19487096 0.23067683
000010 83 23 62 bc 30 db a5 bd ff 18 a6 3d db dd 09 be
       -0.013802412 -0.08098447 0.081102364 -0.13463537
000020 fa ba e8 3c 24 39 8b 3e 76 ba 0f 3e 2a 85 8e 3e
       0.02840947 0.27192032 0.14035973 0.2783597
000030 51 6d 75 3d 67 25 39 3e 9d 5b d0 3d 48 e1 81 3d
       0.059918705 0.18080674 0.10173724 0.06341797
000040 40 ec b3 3d 1d 60 6e 3e f6 7b d6 3d 14 5a cb 3c
       0.087852955 0.23278852 0.104728624 0.024823226
000050 ba 9d c0 bd 1c 18 84 3d 8f 5e 9c 3c 53 cd 5e 3b
       -0.09405084 0.06449911 0.019088058 0.0033996894
000060 20 0e 75 3c a8 c0 4c 3e bc 59 05 3e 22 e4 06 3e
       0.014956981 0.19995368 0.13022512 0.13172963
000070 df e7 67 3d 29 42 ee 3d cf d6 e5 bc de fb 88 3d
       0.056617614 0.11633713 -0.02805653 0.06688665
000080 22 76 06 3e 71 fb 9a 3d 1f 35 a2 3d 50 f9 5e 3d
       0.13131002 0.0756749 0.07920288 0.05443698
000090 b9 5b 04 bd 1d 23 82 bd 89 bb 14 bd 28 e5 4d 3e
       -0.032314036 -0.063543536 -0.03631166 0.20106947
0000a0 f6 86 21 3e 37 41 21 bc 58 b7 00 3e 6f bf 1a 3c
       0.1577414 -0.009842209 0.1256994 0.009445055
0000b0 2c b2 69 3d c0 29 05 be 07 34 6c 3d 1d b1 4c 3d
       0.057054684 -0.13004208 0.057666805 0.049973596
0000c0 ee ff 3f bc d7 ad 12 3e e7 4e 3f 3e ff 1f bc 3d
       -0.011718733 0.14324127 0.18682443 0.0918579
0000d0 e3 d5 96 bb eb 91 4c 3e 06 7b ca bd 8f 52 41 3e
       -0.004603134 0.19977538 -0.09886746 0.1887915
0000e0 b5 40 29 3e 4f 97 8e bd c2 9a e7 3d ad db 8b 3d
       0.1652859 -0.069624536 0.113088146 0.06829009
0000f0 d6 4c e9 bd fe e4 0b 3d 3f 87 81 bd 22 45 19 3e
       -0.113916084 0.03415393 -0.06324624 0.14967778

net.4.weight f4 [25, 64]
000000 f7 51 ee 3b c2 53 06 3d 45 90 d4 3c 09 9d bc 3b
       0.0072729546 0.03279472 0.0259477 0.0057560247
000010 06 5d bb bc fd 4b db 3d bc 89 8c bd b1 c1 d7 3d
       -0.022871505 0.10707853 -0.06862208 0.105349906
000020 ae 07 c7 3b 4d 1b d3 ba f4 c0 24 bd a2 37 2e 3c
       0.0060739135 -0.0016106159 -0.040223077 0.010633381
000030 85 21 8e 3d 23 5d 44 bd 4c f9 24 3d a1 8b c8 3d
       0.06939987 -0.047940385 0.04027681 0.09792257
000040 6c 5e fd bd c8 5a 17 3d e1 34 d2 bd bc 88 d2 bc
       -0.12371525 0.03695181 -0.10263992 -0.025699966
000050 9a 4c 31 3d f5 16 b0 3c c7 08 cf bc ba 82 a6 bd
       0.043285944 0.021495322 -0.02527274 -0.08130403
000060 a5 53 e4 bd 0c a8 a7 bc d7 8f d2 bd 66 ea 69 bd
       -0.111487664 -0.020465873 -0.102813415 -0.057108305
000070 08 77 c8 bd 6b 87 9f 3d 66 ba 20 3d 17 31 22 3d
       -0.097883284 0.07789501 0.039240263 0.039597597
000080 70 9c 23 3b b6 53 9f 3d 39 45 f6 bd 62 a1 96 3d
       0.002496507 0.077796385 -0.12024922 0.07355
000090 9a 3e da bd ec cf a3 bd b9 8e ce bd 1b aa b3 bb
       -0.106564716 -0.07998642 -0.10085816 -0.0054829246
0000a0 c5 3d 9e bd 2e 48 40 3c 78 91 24 bd be ea 4e 3d
       -0.07726625 0.011735959 -0.040177792 0.050516836
0000b0 42 7f 90 bd 38 40 9e 3d 75 65 36 bb 4c a1 80 bd
       -0.070555225 0.077270925 -0.002783147 -0.06280765
0000c0 9b 3e 27 bc 7e 1c 07 3e 43 29 07 3d c9 b7 c3 3d
       -0.010207797 0.13194463 0.032998335 0.095565386
0000d0 b0 7a e4 bc 11 ab 93 ba 44 65 b7 bd 5a 34 77 bd
       -0.027890533 -0.0011266192 -0.08954862 -0.06035266
0000e0 93 59 d0 bd a8 f7 9c bd 0e e2 67 3d ce 14 22 be
       -0.10173335 -0.07664424 0.056612067 -0.15828249
0000f0 e8 6f e2 3d 62 72 17 bd bd be 08 bd ca c9 0b bd
       0.11056501 -0.03697432 -0.033385027 -0.034127988
000100 30 4c 03 be 7a 9f 26 3d c2 b9 1f be 6b 5e 25 3d
       -0.12822032 0.040679432 -0.15598205 0.040373247
000110 c4 41 d3 bd 05 71 6a 3c c0 8e 10 3d 8d 07 94 3c
       -0.10315278 0.0143091725 0.035292387 0.018070007
000120 bd 94 78 bd b6 ae 43 bd 98 1d 96 3c 53 12 4e be
       -0.060688723 -0.04777404 0.018324658 -0.20124178
000130 20 13 9e bb ce 3f 3c 3c b6 6b 9f bd fa 0b ea 3d
       -0.004824057 0.011489822 -0.07784216 0.114280656
000140 2c 5a ed 3d 4e 88 07 bd 3b 8a 74 3c ce d1 45 bd
       0.115894645 -0.033088975 0.014925535 -0.04829579
000150 46 5f 1e be 09 14 34 3d 9b ac b1 3d f1 b3 d1 3b
       -0.15466031 0.04396442 0.086755 0.0063996245
000160 da e3 8a 3d 57 d2 f4 3d 62 6c b3 3d e0 3f 49 3c
       0.067817405 0.11954182 0.08760907 0.012283295
000170 13 6b 41 bd ae 34 b1 bd 4f 8b 13 bd 9f 85 08 bd
       -0.047221255 -0.08652626 -0.036021527 -0.033330556
000180 20 b2 be 3d c6 d3 9f bc b5 26 e1 3d ee d8 fc bd
       0.093113184 -0.019510161 0.10993711 -0.123460636
000190 ea ec 4d bc ee 46 27 be 07 5c d6 bd 99 3f 7d 3d
       -0.012568692 -0.16335651 -0.104667716 0.06182823
0001a0 b9 4e 68 bd 5c 89 1c be c7 c8 3a bd e7 06 78 bc
       -0.0567157 -0.15286773 -0.045601632 -0.015138364
0001b0 ad c0 ca 3d 61 b3 33 bd a7 42 ae bb 9e 3d 38 be
       0.09900031 -0.04387224 -0.005318004 -0.17992255
0001c0 74 64 c7 bb 74 a3 b6 bd ce ab 14 be 0c a5 97 bc
       -0.006084973 -0.08917895 -0.14518663 -0.018511318
0001d0 d2 5c bc bc b9 91 eb 3d 64 fc f7 3d 86 5c c1 3d
       -0.022993479 0.11502404 0.121086866 0.094414756
0001e0 00 bc 9a 3c f3 04 6d be b2 18 9d bd 29 4f e3 3c
       0.018888474 -0.23146419 -0.07670726 0.027747707
0001f0 b6 81 99 bd ac 1c 39 3d a4 64 f0 3d f5 55 01 3d
       -0.074954435 0.04519336 0.11737946 0.031576116
000200 63 f1 cc bd 9b 39 00 be 68 6b d0 3d 9c 94 b1 3d
       -0.10006978 -0.12521975 0.10176736 0.08670923
000210 1c e9 14 bd 54 50 b5 bd 44 f8 2b 3d 80 57 ab bc
       -0.036355123 -0.08853212 0.04198481 -0.020915747
000220 b4 a3 e2 bd b0 07 c2 3c 00 f1 8f bd 17 ab 63 bd
       -0.1106638 0.023685306 -0.07028389 -0.055583086
000230 91 6b b0 3d 2a b4 8b bd 27 b1 c6 bd ef 46 d1 3d
       0.08614267 -0.06821473 -0.09701758 0.10218608
000240 db 16 bb 3d 36 ab 15 3d fc ee e6 3d 1f d3 14 bd
       0.09135219 0.036540233 0.112760514 -0.036334153
000250 db b4 4c 3d fd 89 0e bd a0 2d 85 bd 9d 20 84 3d
       0.049977165 -0.034799565 -0.06502843 0.06451533
000260 fe 78 37 3d 99 50 c0 bd 58 d3 ea bc 04 b5 12 3d
       0.04479312 -0.09390373 -0.02866523 0.03581716
000270 ef 62 98 bd 42 83 cb 3d 0a 8d b1 bb 94 e5 04 3d
       -0.07440745 0.09937145 -0.0054184245 0.032445505
000280 dd a5 05 3d ea 27 ba 3b 34 d1 a5 3d 10 eb db bd
       0.032628883 0.0056810277 0.08096543 -0.10738194
000290 78 d4 f0 bc 7c 70 a4 bc 9d 37 0a 3d 61 73 d8 3d
       -0.029398188 -0.020073168 0.033744443 0.10568882
0002a0 dc 4f 55 bd 34 d7 b3 3b 77 86 d4 bd 52 d4 c4 bd
       -0.052078113 0.0054883007 -0.1037721 -0.096108094
0002b0 69 23 87 bd 8e 7d 4f bd a8 2a a9 bd 93 44 a5 bc
       -0.06598551 -0.050656848 -0.08260089 -0.0201743
0002c0 08 78 c7 bd d6 52 20 3d e1 6d c4 3d a6 85 da bd
       -0.09739691 0.0391415 0.0959127 -0.10670023
0002d0 79 23 00 be 23 59 99 3d 78 13 b6 bd 9a 95 22 3d
       -0.12513532 0.074877046 -0.08890432 0.039693452
0002e0 51 a1 e9 3d 58 27 8c 3d 14 23 5e bd 81 fc b7 3d
       0.11407722 0.06843442 -0.05423267 0.08983708
0002f0 94 6a 83 bd 14 9a 91 3d c3 80 fe bd 36 2d 9d 3d
       -0.064168125 0.07109466 -0.12426903 0.07674639
000300 ee bd 30 bd b6 e8 7e bd 47 0a f6 3d 75 c8 6c 3d
       -0.04314988 -0.06223365 0.12013679 0.05780836
000310 04 84 ad bd 1b 9b ec bd 27 15 00 3e 28 45 12 bd
       -0.084724456 -0.115530215 0.12508069 -0.035710484
000320 3f 14 06 bd 92 73 33 3e d4 24 4b bd ed b5 02 3e
       -0.032734152 0.17524555 -0.04959567 0.12764712
000330 39 de 90 3d 9d c6 54 3d 00 fa 9d 3d 04 23 af bd
       0.070736356 0.051947225 0.07713699 -0.085516006
000340 17 3b 60 bd 24 3e 6b 3c 23 e5 cc 3d 16 35 3a 3d
       -0.054743852 0.014358077 0.10004642 0.045460783
000350 83 b5 27 3c 01 63 d7 3d 3d b7 5e bd c1 b7 5a bd
       0.010236147 0.1051693 -0.05437397 -0.053397898
000360 95 03 f9 3c 66 60 e3 3d 20 81 f5 3d f3 99 e4 3d
       0.030397216 0.11102371 0.11987519 0.11162176
000370 4a 71 26 3d 3c eb 7c 3c 6d d1 9e bd ee 77 ef bd
       0.040635385 0.015436944 -0.077547885 -0.11692797
000380 18 7a 6d bd c3 23 07 bd 48 23 78 bd f8 67 8e bd
       -0.057977766 -0.03299309 -0.06058052 -0.06953424
000390 2a 3f f2 bc 63 87 6a 3d f4 7e e0 bd 52 00 0a bd
       -0.029571135 0.05725802 -0.109617144 -0.03369171
0003a0 af f1 e0 bd 2b 9e 43 3c 2e b1 a8 3d e6 8b e6 bc
       -0.109835975 0.011939566 0.08236919 -0.02814288
0003b0 f5 4f 96 3d 42 1b 86 bd d9 c3 83 bd dc a2 a5 bd
       0.07339469 -0.06548168 -0.06433839 -0.080877036
0003c0 1e f9 a8 3c 4d 9a 0d 3d 8b ce 64 3d 2e 9c dd 3a
       0.0206266 0.03457098 0.055861037 0.0016907507
0003d0 0a 62 c7 3d d0 b7 61 bd 5e af bb bd 3b 85 1e 3e
       0.09735496 -0.055106938 -0.09164308 0.15480511
0003e0 ae 67 ff 3d 27 11 1f be 5a de a9 bd de 32 99 bd
       0.12470947 -0.15533887 -0.08294363 -0.07480405
0003f0 94 a1 05 bd 76 49 94 bd 19 71 d9 bd d3 4c 22 3b
       -0.032624796 -0.07240574 -0.10617275 0.002476503

net.4.bias f4 [25]
000000 7c cc 36 bd d8 0d bc 3c cf 87 e5 3d aa 72 59 3e
       -0.044628605 0.02295582 0.11207544 0.21235147
000010 da 58 ba 3d d1 d3 03 3d e7 6a 03 be d2 8a 02 3e
       0.09098978 0.032184426 -0.12833749 0.12748268
000020 5a c7 e6 3d 37 59 47 3d 53 7e aa bd 5b 81 24 3d
       0.11268492 0.048669066 -0.08324876 0.040162425
000030 f2 f2 cf bd e3 5f 1c 3d 12 86 6c 3d d9 4f 30 3e
       -0.1015376 0.038177382 0.057745047 0.1721796
000040 bc 26 94 3b 15 36 a8 3e 61 bb 9e bd 3d 86 a8 3d
       0.004521219 0.3285376 -0.077505834 0.08228729
000050 6b f9 a5 bd 76 f3 97 bc 7a 87 2b 3d a4 b9 45 bb
       -0.08104213 -0.018548708 0.041877247 -0.0030170465
000060 43 4e 03 3b
       0.0020035661
