MeL-ODE_larger_NN.pt (torch, 97229 bytes, 6 tensors)

net.0.weight f4 [128, 4]
0.05155449 -0.38816205 0.03765215 0.25035098 -0.22504415 -0.3378836 -0.17571409 0.09518469
0.511591 -0.29171076 -0.2891536 -0.48505875 -0.0058396617 -0.17821707 -0.24976327 -0.23504247
-0.052694403 0.34829503 -0.27802172 -0.47590113 -0.3199805 0.06665564 0.26321268 -0.26904947
0.43608695 0.21947765 0.16000658 -0.1034355 0.49700415 -0.02769081 0.19267397 0.09175844
0.45675135 -0.21261838 -0.25592825 -0.39312917 -0.09230072 -0.40242007 -0.029348325 0.14278385
0.03169442 0.41926554 -0.28121406 -0.24532549 -0.018191922 0.12988861 0.44941086 -0.2430656
-0.28318778 -0.36965486 -0.25213978 -0.020019548 -0.05330148 -0.49103668 0.24378508 0.10359717
-0.13133492 0.11913362 -0.42611068 -0.19143678 -0.032857466 -0.32707226 0.104299724 -0.10357791
0.29240993 -0.16646321 0.3942522 -0.21609527 -0.1437405 0.08171024 0.16275464 -0.13096724
0.4476431 -0.36492306 0.0856491 -0.43870944 -0.06109129 -0.49783704 -0.10957225 0.36870852
-0.40010366 -0.276288 -0.030109651 0.48230827 0.22105813 -0.034285717 -0.23053999 -0.14742164
-0.17759445 0.23393022 -0.1152116 -0.22400182 -0.368809 0.3915504 0.33703732 -0.2478531
-0.34432003 0.3436358 0.23086524 -0.22147551 -0.4702862 0.18009326 0.35922635 0.23360533
-0.12850474 -0.42629474 -0.44997498 -0.31792665 -0.11817636 0.42641443 0.46917593 -0.44846204
-0.18266498 -0.3198528 0.29539847 -0.1571214 -0.033761974 0.102123395 0.4486142 -0.2128068
-0.41012713 -0.017809559 -0.26486018 0.4731113 0.026899863 -0.35930383 -0.1899407 0.4055282
0.025010329 -0.30103883 0.28123647 -0.2584759 -0.26266348 0.35280606 -0.21573232 0.44410405
-0.28542754 -0.1301903 -0.33722258 0.4468315 0.12751399 -0.4393335 0.48355174 -0.24415947
0.015055395 0.24178831 -0.19860369 0.06340484 -0.08340136 0.48048827 -0.43824854 0.31862184
0.052220915 -0.27889982 -0.08797904 -0.47489423 0.37853584 -0.2545567 0.20113409 -0.1290915
-0.38121256 -0.31238994 -0.30617803 -0.23881075 -0.2127017 -0.06597491 -0.26596352 0.3802955
-0.3434441 0.45859078 0.61437136 -0.4644701 0.15937231 -0.020560099 0.37799528 -0.2687283
0.38885772 0.23045816 -0.045238584 -0.03949629 0.2549068 -0.2881158 0.47848433 0.11435954
0.33839855 -0.0489595 -0.4531993 0.095579386 -0.24741653 -0.21618807 -0.4661711 0.14764945
0.11518808 0.18939136 0.22112997 0.4192397 0.17028363 -0.21530104 0.059415426 -0.32021156
0.36664954 -0.4328392 0.31431916 0.36246863 0.41645464 -0.36725643 -0.38445997 -0.38951743
-0.12439441 -0.34061745 0.30736235 0.33158025 0.2898945 -0.43714392 -0.43204784 0.059275422
-0.0032713138 0.20749082 0.34058183 -0.32733214 0.03521642 0.39641818 -0.46441108 0.27841687
0.32207173 -0.25346267 0.11598921 0.121587254 0.28175175 -0.480067 -0.19843565 -0.4858223
-0.14413749 0.17223951 -0.41890636 0.007937752 -0.07440784 0.49990487 -0.35684994 0.3742403
0.107754804 0.47361818 -0.5041623 -0.33499464 -0.4361664 -0.37840608 -0.16480626 0.40920678
-0.1159191 -0.25257808 0.16860001 -0.3172695 -0.49585858 0.2337722 0.11211939 0.12094268
00000000: cd2a 533d 2dbd c6be 2439 1a3d 012e 803e
00000010: f971 66be 14ff acbe 65ee 33be 31f0 c23d
00000020: a1f7 023f 1d5b 95be f10b 94be 9f59 f8be
00000030: a25a bfbb 897e 36be f1c1 7fbe f9ae 70be
00000040: 16d6 57bd ba53 b23e dd58 8ebe 50a9 f3be
00000050: 7cd4 a3be c182 883d d0c3 863e dac0 89be
00000060: ca46 df3e c0be 603e c4d8 233e fed5 d3bd
00000070: 5477 fe3e d6d7 e2bc 534c 453e d9eb bb3d
00000080: 50db e93e a2b8 59be 0709 83be 3a48 c9be
00000090: 2908 bdbd 010a cebe e66b f0bc ee35 123e
000000a0: 02d2 013d f9a9 d63e 4afb 8fbe 9b36 7bbe
000000b0: 3a07 95bc 8501 053e 2e19 e63e 30e6 78be
000000c0: fdfd 90be 6743 bdbe 7718 81be 0900 a4bc
000000d0: a752 5abd 2969 fbbe cca2 793e c12a d43d
000000e0: a97c 06be 54fc f33d 2e2b dabe 0108 44be
000000f0: 8d95 06bd 0476 a7be 189b d53d a820 d4bd
00000100: c1b6 953e 5575 2abe 6ddb c93e 1448 5dbe
00000110: b630 13be b357 a73d 27a9 263e 471c 06be
00000120: 7a31 e53e 32d7 babe cc68 af3d 869e e0be
00000130: dc3a 7abd 7fe4 febe 6a67 e0bd 5dc7 bc3e
00000140: 63da ccbe 9f75 8dbe 84a8 f6bc 1cf1 f63e
00000150: 105d 623e 2e6f 0cbd ad12 6cbe b3f5 16be
00000160: 52db 35be 678b 6f3e 0ff4 ebbd bc60 65be
00000170: 89d4 bcbe 4b79 c83e 2890 ac3e 34cd 7dbe
00000180: b74a b0be 08f1 af3e f067 6c3e 7aca 62be
00000190: 5ac9 f0be 5e6a 383e 84ec b73e 3c36 6f3e
000001a0: bf96 03be 4e43 dabe 1f63 e6be 48c7 a2be
000001b0: 7306 f2bd fe52 da3e d437 f03e d19c e5be
000001c0: 870c 3bbe bfc3 a3be 783e 973e 6fe4 20be
000001d0: ff49 0abd 1226 d13d c3b0 e53e 07ea 59be
000001e0: 2ffc d1be 5ae5 91bc c19b 87be a53b f23e
000001f0: 1a5d dc3c acf6 b7be d17f 42be 64a1 cf3e
00000200: 76e2 cc3c c321 9abe 3afe 8f3e f456 84be
00000210: d47b 86be ffa2 b43e efe8 5cbe 9b61 e33e
00000220: 8f23 92be 9b50 05be 70a8 acbe 19c7 e43e
00000230: 0793 023e 52f0 e0be 1894 f73e f104 7abe
00000240: e7aa 763c 5b97 773e c45e 4bbe 66da 813d
00000250: 55ce aabd 8f02 f63e 1d62 e0be 6722 a33e
00000260: 99e5 553d f5cb 8ebe 5b2e b4bd 5625 f3be
00000270: 73cf c13e 4155 82be 18f6 4d3e 9030 04be
00000280: 4b2e c3be 93f1 9fbe 5ec3 9cbe ce8a 74be
00000290: 79ce 59be db1d 87bd 5f2c 88be 17b6 c23e
000002a0: e8d7 afbe 69cc ea3e 7147 1d3f 06cf edbe
000002b0: 7f32 233e a76d a8bc 9988 c13e c196 89be
000002c0: 5c18 c73e 39fd 6b3e 184c 39bd ddc6 21bd
000002d0: 2583 823e ea83 93be e6fb f43e 5635 ea3d
000002e0: 9342 ad3e c289 48bd bd09 e8be 20bf c33d
000002f0: c25a 7dbe 6860 5dbe faad eebe 6b31 173e
00000300: bae7 eb3d cfef 413e e56f 623e 96a6 d63e
00000310: d55e 2e3e e077 5cbe 975d 733d c5f2 a3be
00000320: 7db9 bb3e 1a9d ddbe 71ee a03e 7d95 b93e
00000330: 8b39 d53e 0909 bcbe f0d7 c4be d46e c7be
00000340: 7fc2 febd 6965 aebe 995e 9d3e e3c4 a93e
00000350: 0d6d 943e 54d1 dfbe 6035 ddbe c9ca 723d
00000360: 8a63 56bb 7978 543e be60 ae3e 1498 a7be
00000370: 183f 103d 53f7 ca3e 4ac7 edbe a88c 8e3e
00000380: 96e6 a43e dcc5 81be c08b ed3d bd02 f93d
00000390: c441 903e 58cb f5be b732 4bbe b3bd f8be
000003a0: c798 13be 8e5f 303e e57a d6be 580d 023c
000003b0: 2363 98bd 88f3 ff3e 09b5 b6be 6d9c bf3e
000003c0: 8dae dc3d 157e f23e c810 01bf 6b84 abbe
000003d0: 3451 dfbe 71be c1be f9c2 28be 8d83 d13e
000003e0: fe66 edbd ea51 81be 7ba5 2c3e 2671 a2be
000003f0: 2de1 fdbe fb61 6f3e da9e e53d ccb0 f73d

net.0.bias f4 [128]
-0.29561377 0.17912738 -0.46484923 -0.021391805 -0.13973452 0.46292588 -0.18623221 0.45524687
0.28579313 0.15845875 0.35042432 0.39470237 -0.15743855 -0.023978792 0.5178459 0.11659811
0.47997752 0.40250224 0.11573361 0.26698688 0.21610147 -0.21843858 0.4299306 -0.05804648
0.33105054 -0.2746409 0.529069 0.12569253 0.04030065 0.1816738 -0.50303996 0.28496575
0.296435 0.10331028 0.41914734 -0.3209981 0.52480257 0.46451366 0.35512954 -0.33106315
0.33062655 0.08780433 -0.23350532 0.34745246 0.46613264 0.015329322 0.27465382 0.47121814
0.06868248 0.4362394 -0.19865485 0.5111177 0.20187484 -0.44210735 0.08419071 -0.1276424
0.28764907 -0.15524529 0.35977286 0.45035657 0.09720527 0.23121674 -0.43282172 0.30604857
0.38937357 0.12005599 0.3765269 0.16299029 -0.2735192 0.34594283 -0.29186738 -0.45105842
0.38199365 0.51863056 -0.01173295 -0.25271595 -0.09684354 0.19617374 0.20399721 0.114367396
-0.37107512 -0.017778996 -0.53048307 0.3560184 0.4992664 -0.27342704 -0.022261648 0.3173955
0.17320763 0.26663953 -0.37294206 0.2737328 -0.19255145 -0.35774645 -0.3517044 0.41570255
0.0689201 0.016615944 0.024873873 0.1224089 0.010521137 -0.4049645 -0.3810406 -0.2893808
-0.36864144 0.20399372 0.31386948 0.05778691 0.15165131 0.43545952 0.09609124 -0.38982028
-0.06742413 0.41422075 0.24846081 -0.48751768 0.41705033 0.12947528 0.025783997 -0.053233888
0.15452495 -0.27740797 0.10080969 0.24718426 0.6183954 -0.49514106 -0.08925147 -0.17610246
00000000: b05a 97be 2b6d 373e b800 eebe de3d afbc
00000010: 9116 0fbe 9f04 ed3e a8b3 3ebe 1e16 e93e
00000020: 7a53 923e 0343 223e d16a b33e 6e16 ca3e
00000030: 9237 21be 2c6f c4bc 8d91 043f fdca ee3d
00000040: 9dbf f53e c614 ce3e be05 ed3d 81b2 883e
00000050: b449 5d3e 5dae 5fbe dd1f dc3e 25c2 6dbd
00000060: 757f a93e bb9d 8cbe 1171 073f 8bb5 003e
00000070: 4b12 253d b208 3a3e 3ac7 00bf 08e7 913e
00000080: 54c6 973e 5794 d33d 7b9a d63e dd59 a4be
00000090: 7659 063f bcd4 ed3e 8ad3 b53e 1c81 a9be
000000a0: e247 a93e c2d2 b33d 051c 6fbe 4ae5 b13e
000000b0: f0a8 ee3e d627 7b3c 6d9f 8c3e 8143 f13e
000000c0: 66a9 8c3d c55a df3e 2d6c 4bbe 9cd8 023f
000000d0: 47b8 4e3e e55b e2be 2e6c ac3d b0b4 02be
000000e0: bd46 933e 9ff8 1ebe 2634 b83e 2395 e63e
000000f0: 8e13 c73d 15c4 6c3e cf9a ddbe 66b2 9c3e
00000100: f95b c73e eadf f53d 22c8 c03e ede6 263e
00000110: b50a 8cbe 6b1f b13e a46f 95be 21f1 e6be
00000120: ac94 c33e f9c4 043f 8f3b 40bc fc63 81be
00000130: e855 c6bd c5e1 483e a5e4 503e 7439 ea3d
00000140: 8ffd bdbe 42a5 91bc bdcd 07bf 0b48 b63e
00000150: d89f ff3e a1fe 8bbe 0f5e b6bc aa81 a23e
00000160: 575d 313e fa84 883e 43f2 bebe b526 8c3e
00000170: 352c 45be 8b2a b7be 9912 b4be f7d6 d43e
00000180: fb25 8d3d 291e 883c 4bc4 cb3c 84b1 fa3d
00000190: d960 2c3c 8257 cfbe c117 c3be b829 94be
000001a0: 92be bcbe bbe3 503e 80b3 a03e f8b1 6c3d
000001b0: 7b4a 1b3e 8df4 de3e 7ccb c43d 8696 c7be
000001c0: aa15 8abd be14 d43e 836c 7e3e eb9b f9be
000001d0: 9f87 d53e 2b95 043e f638 d33c c70b 5abd
000001e0: ca3b 1e3e 6b08 8ebe 5075 ce3d df1d 7d3e
000001f0: 294f 1e3f 2183 fdbe 7ac9 b6bd 3454 34be

net.2.weight f4 [128, 128]
-0.0388494 -0.0053131143 -0.011123771 -0.059202325 -0.0038957137 -0.11354159 -0.028193496 0.07500339
-0.04290166 0.058949847 0.016417066 -0.055673767 0.0059310654 0.06790621 0.06973644 0.020599457
-0.033344686 0.0044411626 -0.047178708 0.014322607 -0.03645129 -0.13274342 -0.064957716 -0.052384727
-0.025183644 0.06507779 0.13367502 -0.083810985 0.020821441 -0.09530759 -0.084439166 -0.025520647
-0.04075879 0.038019568 -0.029097315 0.006836595 -0.021999605 0.01964816 -0.10600593 0.06241654
0.04347628 -0.026840774 -0.0031618322 -0.05537366 0.0065658325 0.102504425 0.078782104 -0.06594352
0.09944623 0.029867342 0.02008125 -0.010780239 0.068827115 -0.045399968 -0.07817532 -0.040411588
-0.054957785 0.031064358 0.08260388 0.086187534 -0.07039282 0.0018169987 -0.09460156 0.057478268
0.0068950704 0.07460798 -0.043756444 -0.1737811 -0.052480496 -0.043619897 -0.08329071 -0.065225184
-0.17305183 0.039682608 0.052236825 -0.07242586 0.019384459 0.06381423 -0.017714527 -0.070961356
-0.10621733 -0.072222 -0.054244835 -0.00739373 -0.047668412 -0.10014882 -0.0932137 0.054875363
0.05193579 -0.22248681 0.10303712 -0.04284594 0.02812848 0.05639609 -0.08168255 0.06958614
-0.054948866 -0.069509216 -0.1668037 -0.018059319 -0.025605625 -0.018744802 -0.06124472 -0.053324845
0.05203986 -0.05799924 0.022154672 -0.13625684 0.07668505 0.0137381 -0.0035042947 0.07316974
0.02047579 0.013772227 -0.054934584 0.0062660673 -0.0061617377 -0.005841435 -0.1045624 -0.03230829
0.08994097 -0.047755204 -0.0025261175 -0.07328841 0.13962872 0.05202049 0.061778635 -0.044743937
-0.00744596 -0.061118245 0.0010123872 -0.07995149 -0.049047317 0.016347615 0.05741434 -0.042341083
0.048382364 0.03688755 -0.025334882 -0.049549483 0.012900392 -0.032579917 -0.040594585 -0.006480506
0.07555005 -0.022156019 -4.742576e-05 0.033955816 0.0766779 -0.009739453 0.025378363 -0.013300529
0.004689747 0.06040493 -0.004131734 0.06445686 -0.07351787 -0.047290687 -0.01047442 -0.07358129
0.050172202 -0.08999931 -0.09126481 0.03723057 0.04531594 -0.018571684 0.06628056 -0.083200574
0.035600577 0.0028513002 0.007825305 0.010336733 0.096837945 -0.008027056 0.03897715 -0.010574709
0.024099596 0.0032280076 0.019215504 -0.013090751 0.044418436 0.02714058 0.02760185 -0.070302255
-0.04689078 -0.074753016 -0.0008738114 0.071748 -0.057012428 -0.05316464 -0.088928014 -0.053807236
-0.044892054 -0.00875012 -0.020671887 0.0321089 0.014366042 0.0039615235 -0.06401896 -0.07799026
0.058313478 0.08099532 -0.014040159 -0.03263253 0.017084956 0.07980722 0.0018057548 0.051722873
-0.111219086 -0.03340519 -0.0450996 0.024315966 0.045300797 0.027291644 -0.08307697 0.006575401
0.04447835 0.023995258 0.0052735535 0.045662336 0.005983528 0.06741481 0.028966239 0.04802132
0.04158674 0.06398137 0.06350405 -0.08916638 0.06901524 -0.02351807 0.0011795966 -0.031546813
-0.08532109 0.067310065 -0.014068722 -0.09073792 0.034638174 0.015437879 -0.010135472 0.021918554
-0.07999817 0.06683624 -0.058171913 -0.047803298 0.050176274 -0.06499578 0.09904133 -0.025383944
0.022725813 0.07013169 -0.055848863 0.028749105 0.08046958 0.023263754 -0.0124560315 0.076865256
00000000: 8c20 1fbd a219 aebb 7a40 36bc 237e 72bd
00000010: 3b4f 7fbb 7e88 e8bd 0cf6 e6bc 619b 993d
00000020: a7b9 2fbd 6575 713d 157d 863c 2d0a 64bd
00000030: 6259 c23b 6912 8b3d fbd1 8e3d 31c0 a83c
00000040: 7094 08bd 2c87 913b 763e 41bd 5ea9 6a3c
00000050: f34d 15bd e4ed 07be 8d08 85bd 5e91 56bd
00000060: ee4d cebc 8147 853d 1be2 083e 18a5 abbd
00000070: ba91 aa3c a030 c3bd 71ee acbd ad10 d1bc
00000080: b0f2 26bd 68ba 1b3d 7e5d eebc 8405 e03b
00000090: 8438 b4bc 2ef5 a03c a319 d9bd 7ca8 7f3d
000000a0: 2f14 323d 2fe1 dbbc be36 4fbb 7ecf 62bd
000000b0: 3226 d73b d7ed d13d 8358 a13d 650d 87bd
000000c0: 77aa cb3d 5bac f43c 6f81 a43c 999f 30bc
000000d0: 3bf5 8c3d 51f5 39bd 621a a0bd 9f86 25bd
000000e0: 6a1b 61bd ae7a fe3c 392c a93d 1783 b03d
000000f0: 1c2a 90bd 5c28 ee3a 76be c1bd 556e 6b3d
00000100: 0bf0 e13b 12cc 983d f539 33bd acf3 31be
00000110: caf5 56bd c7aa 32bd 5294 aabd c894 85bd
00000120: 8034 31be 3b8a 223d 48f6 553d 0254 94bd
00000130: 28cc 9e3c 09b1 823d 0e1e 91bc 3054 91bd
00000140: 7988 d9bd 21e9 93bd d52f 5ebd 1a47 f2bb
00000150: f43f 43bd d31a cdbd d3e6 bebd fdc4 603d
00000160: 9fba 543d 95d3 63be 2005 d33d 397f 2fbd
00000170: b36d e63c 96ff 663d 2e49 a7bd 2e83 8e3d
00000180: 1012 61bd d95a 8ebd 97ce 2abe 23f1 93bc
00000190: e3c2 d1bc b38e 99bc bedb 7abd 276b 5abd
000001a0: c027 553d 9c90 6dbd b77d b53c ea86 0bbe
000001b0: 0d0d 9d3d c515 613c 4fa8 65bb 04da 953d
000001c0: d8bc a73c e8a4 613c 1603 61bd 9553 cd3b
000001d0: 67e8 c9bb 8269 bfbb d024 d6bd b355 04bd
000001e0: f932 b83d f69a 43bd 388d 25bb 3c18 96bd
000001f0: d5fa 0e3e 7013 553d 980b 7d3d 6b45 37bd
00000200: 3dfd f3bb 2057 7abd 14b2 843a 9bbd a3bd
00000210: d7e5 48bd 6feb 853c 4d2b 6b3d d86d 2dbd
00000220: 962c 463d 6617 173d 198b cfbc 66f4 4abd
00000230: 2a5c 533c 8572 05bd 8246 26bd 6d5a d4bb
00000240: fcb9 9a3d 8a80 b5bc 06eb 46b8 4115 0b3d
00000250: 4e09 9d3d 3a92 1fbc 49e6 cf3c 76ea 59bc
00000260: 73ac 993b 296b 773d 7f63 87bb f501 843d
00000270: 8990 96bd e1b3 41bd e79c 2bbc cab1 96bd
00000280: 5e81 4d3d 8f51 b8bd 0be9 babd 157f 183d
00000290: 359d 393d a523 98bc 1abe 873d 1065 aabd
000002a0: e9d1 113d e1dc 3a3b b535 003c 675b 293c
000002b0: f952 c63d ea83 03bc 81a6 1f3d 8b41 2dbc
000002c0: 846c c53c fb8c 533b d569 9d3c 977a 56bc
000002d0: 1bf0 353d ec55 de3c 461d e23c a1fa 8fbd
000002e0: 8c10 40bd 1c18 99bd 7e10 65ba 9ef0 923d
000002f0: dd85 69bd 2ac3 59bd e41f b6bd fa64 5cbd
00000300: bbe0 37bd aa5c 0fbc 1758 a9bc 9f84 033d
00000310: 8c5f 6b3c abcf 813b 5f1c 83bd 5cb9 9fbd
00000320: 1dda 6e3d e0e0 a53d b208 66bc b0a9 05bd
00000330: c0f5 8b3c f871 a33d 14af ec3a 5ddb 533d
00000340: d5c6 e3bd e1d3 08bd 5cba 38bd 4732 c73c
00000350: 548d 393d ba92 df3c 4224 aabd 7676 d73b
00000360: ee2e 363d b491 c43c c6cd ac3b 6e08 3b3d
00000370: 7911 c43b c710 8a3d 9b4a ed3c 01b2 443d
00000380: dc56 2a3d aa08 833d 690e 823d dd9c b6bd
00000390: dd57 8d3d f8a8 c0bc b29c 9a3a 3b37 01bd
000003a0: d3bc aebd dcd9 893d 7f80 66bc cdd4 b9bd
000003b0: c2e0 0d3d 28ef 7c3c 400f 26bc 8a8e b33c
000003c0: 15d6 a3bd 70e1 883d ac45 6ebd 64cd 43bd
000003d0: a385 4d3d 821c 85bd 2ed6 ca3d fdf1 cfbc
000003e0: 7c2b ba3c 34a1 8f3d c7c1 64bd 3e83 eb3c
000003f0: 3ccd a43d a193 be3c 6214 4cbc 886b 9d3d

net.2.bias f4 [128]
0.12708183 -0.049534228 -0.0496757 -0.058944594 -0.0006352107 0.0054352675 -0.06228916 -0.062421754
-0.08544405 -0.045719024 -0.074052 0.14356405 -0.022235056 0.076793775 -0.029990021 0.070134886
0.081393674 -0.0051272344 -0.021668235 -0.04515585 0.09383437 0.063126154 -0.05040649 -0.06627826
0.050858177 -0.042854853 -0.02527554 -0.01350108 0.056307003 -0.060282502 -0.049242485 0.05046965
-0.015931929 -0.08883882 -0.07261012 0.06603199 0.0589715 0.03561464 0.07618653 0.0062152576
-0.012228016 -0.062151033 -0.003813143 0.048922613 0.07718875 0.09657428 0.04786339 -0.043257274
0.06440675 -0.10912251 0.044201657 0.086899966 0.0471601 -0.07018578 0.03281345 0.014305842
0.050941236 0.08573916 0.051549144 0.030719453 0.08335627 0.025787981 0.024058014 -0.03860004
-0.044240784 -0.02956032 0.11412785 -0.032819208 0.05067336 0.051987205 -0.011070642 0.08495095
0.038393375 -0.025472939 0.12056442 0.08350181 0.067004 0.06798439 -0.05744853 0.013404747
-0.024292253 -0.067591384 0.06899114 -0.018619698 0.021213768 0.008142006 0.02799319 0.014667077
0.04096722 -0.057521377 0.08851163 0.045762654 -0.012094129 -0.017498612 -0.06543621 0.140737
-0.017911656 -0.043193724 0.13026294 -0.06405166 0.013334579 0.05356189 0.12968576 0.07294132
0.025060706 -0.06924573 0.06918662 -0.08928694 -0.024594285 0.01709082 -0.0050866907 0.056930996
-0.0781798 0.026315333 0.0087302355 0.07632357 0.01323828 0.045167666 -0.012506908 0.07364063
-0.05170103 0.022423686 0.01967818 0.026847638 -0.018362978 0.11594235 0.040361613 0.047628507
00000000: bd21 023e 67e4 4abd bf78 4bbd e36f 71bd
00000010: 4584 26ba 541a b23b eb22 7fbd f4ad 7fbd
00000020: 4afd aebd df43 3bbd 93a8 97bd 7402 133e
00000030: 4b26 b6bc 0e46 9d3d a2ad f5bc e1a2 8f3d
00000040: bab1 a63d 5c02 a8bb 9581 b1bc 57f5 38bd
00000050: 3c2c c03d 4948 813d 0977 4ebd e5bc 87bd
00000060: aa50 503d 9288 2fbd a60e cfbc a233 5dbc
00000070: 2ca2 663d c9ea 76bd 7db2 49bd 44b9 4e3d
00000080: ad83 82bc 21f1 b5bd 9db4 94bd c83b 873d
00000090: 198c 713d a8e0 113d af07 9c3d 5ca9 cb3b
000000a0: 0458 48bc 1592 7ebd ece5 79bb 1463 483d
000000b0: 2315 9e3d bcc8 c53d 670c 443d 8a2e 31bd
000000c0: b0e7 833d 9f7b dfbd cc0c 353d 9cf8 b13d
000000d0: f32a 413d 90bd 8fbd 6567 063d 0d63 6a3c
000000e0: c2a7 503d 0398 af3d 3225 533d 5da7 fb3c
000000f0: b1b6 aa3d 5141 d33c 5015 c53c 131b 1ebd
00000100: d335 35bd 7c28 f2bc ddbb e93d 6f6d 06bd
00000110: de8e 4f3d 89f0 543d a361 35bc c4fa ad3d
00000120: 5f42 1d3d a0ac d0bc 7bea f63d ff02 ab3d
00000130: 6539 893d 663b 8b3d 264f 6bbd 959f 5b3c
00000140: 8c00 c7bc 5a6d 8abd 3a4b 8d3d 5688 98bc
00000150: 7fc8 ad3c 0c66 053c f951 e53c 2e4e 703c
00000160: 3ecd 273d 899b 6bbd 9645 b53d 9f71 3b3d
00000170: 7426 46bc 4059 8fbc 6b03 86bd 5c1d 103e
00000180: 77bb 92bc e7eb 30bd a663 053e 842d 83bd
00000190: 4779 5a3c b663 5b3d 58cc 043e 4262 953d
000001a0: 1c4c cd3c b5d0 8dbd b7b1 8d3d 12dc b6bd
000001b0: f479 c9bc 0c02 8c3c 41ae a6bb 7a30 693d
000001c0: bb1c a0bd 4193 d73c 4309 0f3c 884f 9c3d
000001d0: 5fe5 583c bb01 393d c6e9 4cbc e6d0 963d
000001e0: 76c4 53bd e1b1 b73c 2234 a13c 94ef db3c
000001f0: f56d 96bc 2f73 ed3d 3852 253d 1c16 433d

net.4.weight f4 [49, 128]
0.050830565 -0.04505804 0.007644309 -0.025847474 -0.016052624 0.033125345 0.045895945 0.019862607
0.012927279 -0.0015384257 -0.05058211 -0.032550123 0.060169194 -0.039618663 -0.054087255 0.06413511
0.0013363335 0.1040293 -0.03548633 0.044076614 -0.051942874 0.021598788 -0.041973215 -0.04822066
-0.001169307 0.049763896 -0.07760257 -0.074342385 0.02769854 -0.07404904 -0.025674295 -0.06949714
0.0855449 -0.052280083 -0.03617157 -0.040412705 0.031819403 0.049835056 -0.008507938 0.051513843
-0.06619432 0.06374644 -0.07900486 0.05360644 -0.076937385 0.08163359 -0.07457664 -0.09828249
0.12590992 -0.092563055 0.040830217 -0.04039716 0.023726443 -0.08145217 -0.04136197 0.061546434
-0.003300327 -0.12882115 -0.052451674 -0.049496144 -0.020403817 0.06557733 -0.012865133 0.07166507
0.029701745 -0.048060354 -0.055432852 0.03534811 -0.033662483 0.07719761 0.019964995 -0.09160373
0.020437345 0.020681357 -0.022802986 -0.07567512 -0.044368785 0.0951067 -0.03544692 -0.031817324
-0.0402339 -0.0041210186 0.05554888 -0.08280097 -0.024833862 -0.0056696166 -0.051059235 -0.0020889
-0.07665706 -0.037335485 -0.051431358 0.09153654 -0.0058281384 -0.05074649 -0.019052688 0.0072962176
-0.13712355 0.071612425 -0.015586078 -0.018683914 0.0210398 0.0392004 0.04398428 -0.016332885
-0.02765572 -0.058518272 -0.007523264 -0.032740697 0.0043636602 0.07645428 0.02775947 0.008260358
-0.028557343 0.0027822175 -0.033016838 -0.14008796 0.10499323 0.056826092 -0.034978677 -0.047975037
0.030626891 -0.004857735 0.010715617 -0.02719085 0.043003045 -0.02977069 -0.03820513 0.012427382
0.07078953 0.060505997 -0.135521 0.06958271 0.00064415636 0.02169238 -0.029716361 -0.03681527
0.013638392 0.059258677 0.003536062 -0.086585924 -0.06572861 0.035007667 0.019786462 0.016731033
0.06938789 -0.09813194 0.039627537 0.07098997 -0.045486104 -0.03815718 -0.041462917 0.08091456
-0.09055438 -0.047670204 -0.073160246 -0.06414783 0.029453345 -0.100019544 -0.015995448 0.0827646
0.036907297 0.029893925 0.03251208 0.004925086 -0.06878166 0.07194772 -0.079501726 -0.0144969
0.102608345 0.028591346 -0.003818815 0.06089609 0.06833979 -0.010874705 0.020404344 -0.009614295
0.082038805 -0.03416675 -0.099000946 0.0049704993 -0.0043627364 -0.047507267 0.06092476 -0.023001036
-0.07172887 -0.04251501 0.0057744104 0.02492254 -0.075606234 0.002071494 -0.0044805347 -0.053598545
0.09024937 -0.10240871 0.06369463 -0.058352683 0.0460968 0.015456714 -0.012953304 0.08341181
0.016469736 -0.047046125 0.053481054 0.027015023 -0.0910196 0.1014449 0.04109363 0.007975328
0.079762466 0.033187866 -0.040537994 0.09803969 -0.0024411865 0.07136884 0.05906511 0.002814049
-0.024100557 -0.050484728 -0.020287935 0.088255756 -0.096359335 -0.035376024 -0.008371673 -0.04074235
0.040358875 -0.044228658 -0.029269168 -0.0365891 -0.03256845 -0.021048455 0.03014466 -0.05916355
0.013826557 -0.019950468 0.014559377 0.034842733 0.14319777 -0.033556197 -0.07557268 -0.07777499
-0.033983428 -0.09572133 -0.005503583 -0.10878649 0.08162399 -0.07924798 0.11963488 0.07400822
-0.030888071 -0.04383554 0.058544297 -0.009677799 0.13584457 -0.0074154474 -0.05617797 0.044796873
00000000: b633 503d c88e 38bd 1d7d fa3b 15be d3bc
00000010: cb80 83bc 71ae 073d 63fd 3b3d e8b6 a23c
00000020: f0cc 533c 00a5 c9ba 302f 4fbd 4753 05bd
00000030: f973 763d 2e47 22bd 998a 5dbd 4559 833d
00000040: e927 af3a 500d d53d 1d5a 11bd ae89 343d
00000050: 0dc2 54bd f1ef b03c 1bec 2bbd 0783 45bd
00000060: 6f43 99ba 3ad5 4b3d 19ee 9ebd d240 98bd
00000070: 0ce8 e23c 06a7 97bd e652 d2bc 8454 8ebd
00000080: 2a32 af3d a423 56bd a428 14bd cb87 25bd
00000090: 1055 023d d81f 4c3d e164 0bbc 2e00 533d
000000a0: e390 87bd 7e8d 823d 4dcd a1bd 6d92 5b3d
000000b0: 5991 9dbd 832f a73d a3bb 98bd 5548 c9bd
000000c0: 88ee 003e b391 bdbd 963d 273d 7e77 25bd
000000d0: f55d c23c 65d0 a6bd 2b6b 29bd 1d18 7c3d
000000e0: 4d4a 58bb b1e9 03be 91d7 56bd 78bc 4abd
000000f0: e825 a7bc 684d 863d 47c8 52bc 23c5 923d
00000100: 1351 f33c efda 44bd 8f0d 63bd 2ec9 103d
00000110: ace1 09bd c819 9e3d a18d a33c bd9a bbbd
00000120: 386c a73c f36b a93c 54cd babc 8ffb 9abd
00000130: 0bbc 35bd 4dc7 c23d ca30 11bd e252 02bd
00000140: 4dcc 24bd 9c09 87bb 3987 633d 8e93 a9bd
00000150: 6270 cbbc 31c8 b9bb 7d23 51bd ede5 08bb
00000160: 60fe 9cbd 18ed 18bd b0a9 52bd 8277 bb3d
00000170: f8f9 bebb 8ddb 4fbd 6214 9cbc 1c15 ef3b
00000180: 1e6a 0cbe 89a9 923d c05c 7fbc 020f 99bc
00000190: a95b ac3c 9990 203d dc28 343d 8bcc 85bc
000001a0: 408e e2bc dbb0 6fbd b685 f6bb 1c1b 06bd
000001b0: 09fd 8e3b 1094 9c3d d467 e33c 7456 073c
000001c0: 17f1 e9bc dd55 363b aa3c 07bd 3873 0fbe
000001d0: b106 d73d 7ac2 683d cd45 0fbd 7981 44bd
000001e0: 3fe5 fa3c a22d 9fbb 8e90 2f3c 58bf debc
000001f0: f623 303d a9e1 f3bc fb7c 1cbd 389c 4b3c
00000200: 1afa 903d 23d5 773d 04c6 0abe 6181 8e3d
00000210: 9adc 283a 38b4 b13c ba6f f3bc 9ccb 16bd
00000220: 9073 5f3c 3ab9 723d 47bd 673b f653 b1bd
00000230: b99c 86bd 3364 0f3d 3817 a23c 850f 893c
00000240: 3d1b 8e3d 66f9 c8bd 7c50 223d 3063 913d
00000250: a34f 3abd b44a 1cbd 05d5 29bd 88b6 a53d
00000260: 9374 b9bd d541 43bd 0ad5 95bd f05f 83bd
00000270: 2448 f13c 0cd7 ccbd e308 83bc 7d80 a93d
00000280: 1b2c 173d 1be4 f43c 632b 053d 9e62 a13b
00000290: 66dd 8cbd 5459 933d cdd1 a2bd 6884 6dbc
000002a0: 5324 d23d 6638 ea3c 1645 7abb 2e6e 793d
000002b0: bbf5 8b3d d22b 32bc 0327 a73c 4785 1dbc
000002c0: f603 a83d 6ff2 0bbd 02c1 cabd 92df a23b
000002d0: 49f5 8ebb fb96 42bd 3e8c 793d ab6c bcbc
000002e0: 96e6 92bd 3824 2ebd 4437 bd3b 5b2a cc3c
000002f0: 71d7 9abd e7c1 073b 73d1 92bb 268a 5bbd
00000300: a9d4 b83d a8bb d1bd 5572 823d 3903 6fbd
00000310: 00d0 3c3d 283e 7d3c 183a 54bc d0d3 aa3d
00000320: 8aeb 863c 70b3 40bd f30e 5b3d 9c4e dd3c
00000330: 7c68 babd 58c2 cf3d cb51 283d f3aa 023c
00000340: 815a a33d 00f0 073d 2b0b 26bd 08c9 c83d
00000350: 50fc 1fbb d429 923d 42ee 713d e86b 383b
00000360: 886e c5bc 13c9 4ebd e232 a6bc 6fbf b43d
00000370: 0b58 c5bd 73e6 10bd 5729 09bc 73e1 26bd
00000380: 594f 253d 1c29 35bd e5c5 efbc 74de 15bd
00000390: 7f66 05bd cf6d acbc eff1 f63c 7b55 72bd
000003a0: c988 623c 2a6f a3bc 748a 6e3c 41b7 0e3d
000003b0: 70a2 123e 3972 09bd d9c5 9abd 7e48 9fbd
000003c0: 3532 0bbd 8b09 c4bd 6657 b4bb 74cb debd
000003d0: 7a2a a73d c44c a2bd 2203 f53d 9f91 973d
000003e0: fb08 fdbc e58c 33bd 25cc 6f3d a28f 1ebc
000003f0: d71a 0b3e 48fd f2bb df1a 66bd ed7c 373d

net.4.bias f4 [49]
0.012219013 -0.04992545 -0.06678157 0.05917225 0.022427248 0.09457568 0.044819847 -0.013750907
-0.07332754 0.052789874 0.0073836455 0.08517594 0.09289311 -0.07185969 -0.06844681 0.017330226
-0.0644222 -0.055688724 0.022635406 0.031027362 0.06400596 0.022389594 -0.0072104987 0.013435671
0.08488775 -0.0762346 0.012357144 -0.006549664 0.023542445 -0.07202446 0.09742914 -0.017258486
0.066014044 0.1191869 0.053150695 -0.027763726 -0.041243907 -0.015573375 -0.113842435 -0.0025703548
0.03804961 0.080825344 -0.03356503 -0.032812826 0.10477697 0.056519598 -0.021994257 0.007386395
0.039936505
00000000: 4132 483c a17e 4cbd c7c4 88bd 9a5e 723d
00000010: 59b9 b73c e5b0 c13d 0495 373d 7c4b 61bc
00000020: c02c 96bd 323a 583d 82f2 f13b b970 ae3d
00000030: be3e be3d 2c2b 93bd d72d 8cbd 1ef8 8d3c
00000040: c9ef 83bd dc19 64bd e36d b93c 182d fe3c
00000050: 8f15 833d 626a b73c 0c46 ecbb 4a21 5c3c
00000060: a1d9 ad3d e320 9cbd 9e75 4a3c 909e d6bb
00000070: 16dc c03c 8f81 93bd ee88 c73d ab61 8dbc
00000080: 5f32 873d 4318 f43d 8bb4 593d c170 e3bc
00000090: 5fef 28bd 7827 7fbc 3926 e9bd 6673 28bb
000000a0: e8d9 1b3d c287 a53d 7c7b 09bd be66 06bd
000000b0: 4f95 d63d 1881 673d 4d2d b4bc 9209 f23b
000000c0: 7694 233d
