MeL-ODE_base.pt (torch, 27665 bytes, 6 tensors)

net.0.weight f4 [64, 4]
000000 eb bf 92 be 03 2a dd be b3 6b 63 3d bd 41 08 3e
       -0.28662047 -0.43196115 0.05552263 0.13306327
000010 ae ad af be 68 d4 e3 3e 8d d9 4f be 59 cf c7 3e
       -0.34312195 0.4449799 -0.20297833 0.3902538
000020 4e 5b fd 3e aa 8e 86 3e 20 bd d2 be 61 01 4a be
       0.49483722 0.2628072 -0.41159916 -0.19727089
000030 b7 4e 31 be e2 be c8 3c bc 07 a1 be c4 2b 54 be
       -0.17315184 0.024505083 -0.31451213 -0.2071982
000040 1e f5 9a 3e d4 0e f5 3d 83 51 04 3e 92 05 3c bd
       0.30265135 0.11965719 0.12921719 -0.04590375
000050 41 c8 b1 be 29 58 d8 bd a2 bc ae bd da 8a 9d 3e
       -0.34723094 -0.1056369 -0.085320726 0.30769998
000060 27 47 d7 be 21 7d 90 be 66 08 b9 3e 86 9c 1b 3e
       -0.42046472 -0.28220466 0.3613922 0.15196428
000070 75 2a 29 3e 42 4f f3 3e 38 7d ac bd 37 ab 31 be
       0.16520102 0.47521406 -0.08422321 -0.1735047
000080 14 ab bb be 7c c6 b0 be 2e 5f 03 bf 75 c4 8b bb
       -0.3665396 -0.34526432 -0.5131711 -0.004265363
000090 ee d0 b6 3e 80 3f 00 3e cd ca ae 3e 92 7a db 3e
       0.35706276 0.12524223 0.341391 0.4286695
0000a0 f0 4d 6a be bc 00 7f b9 49 c6 48 3e d2 e2 a8 3c
       -0.22881293 -0.00024318969 0.1960689 0.020615969
0000b0 01 7c 4b be 6e 29 9d bc 37 2e 7e bc d3 bf 25 be
       -0.19871522 -0.019184794 -0.015513948 -0.16186456
0000c0 88 15 49 be 30 0d 9e 3d 51 96 f9 3e 1e 24 b4 be
       -0.1963712 0.07717359 0.48747495 -0.35183805
0000d0 d9 bc fb be 15 60 b5 be 69 56 57 3e 53 57 e7 3e
       -0.49167517 -0.35424867 0.21029057 0.4518381
0000e0 9e bd 73 be c0 6b f4 be f7 e5 84 be fe f8 47 bd
       -0.23802802 -0.47738457 -0.259567 -0.04882144
0000f0 c4 d1 38 be ca f9 b9 3e 45 e1 c7 be 1a 5c 94 3e
       -0.18048769 0.36323386 -0.39039055 0.28976518
000100 d0 0b ac 3d 7c d3 a1 be cb 1f 64 be 87 b3 e4 3c
       0.084006906 -0.31606662 -0.22277753 0.027917637
000110 9f 44 b9 3d 9c be 6d 3e 0f 2e 67 be df 88 a4 3e
       0.090462916 0.23217243 -0.22576164 0.32135674
000120 b5 e8 aa 3e 29 cf 5b be 26 79 be 3e 3c 44 ba 3e
       0.33380666 -0.21465744 0.37201804 0.36380184
000130 d3 70 7a 3d f4 df ad be 6b 2d b0 bd 96 da c4 3e
       0.061142754 -0.33959925 -0.08602413 0.38448018
000140 a5 c1 b7 3e 52 6f ac 3e 28 fa eb 3e b3 81 c9 3e
       0.35889927 0.3367868 0.46089292 0.39356765
000150 1b b1 b6 3d e6 42 c8 be 9a 5a 26 3e ea 56 d8 3e
       0.08920499 -0.3911354 0.16245499 0.4225381
000160 72 d8 89 3e 03 40 78 be 07 e9 c3 3d 80 24 f6 3e
       0.26922947 -0.24243169 0.09565931 0.48074722
000170 6f 32 e5 bc 06 83 32 be 4c 6e 66 3e d8 59 e3 bd
       -0.02797815 -0.17432794 0.22503012 -0.11101121
000180 8c 2f 1e 3e 4d f4 e9 be 2a 7a 97 3d 1f f2 eb 3e
       0.15447825 -0.456942 0.07396348 0.4608316
000190 82 15 cc be f9 8c 44 3e 65 b3 a2 be 6e c5 a5 3e
       -0.3986016 0.19194402 -0.31777492 0.3237719
0001a0 5b fa 1b 3e d8 36 f7 bd 5d 0c af be c8 d2 9a be
       0.15232222 -0.120710075 -0.3418912 -0.30238938
0001b0 e0 f7 dc 3e d4 9f d4 3e 30 07 db 3e dc 13 59 bd
       0.43157864 0.4152819 0.4277892 -0.052997455
0001c0 fd dc ba be 59 26 34 be 00 0e a6 be 0a 4f 59 be
       -0.36496726 -0.17592753 -0.32432556 -0.21221557
0001d0 60 a7 9d be 8b e4 83 be c3 68 da 3e c2 0c da 3e
       -0.3079176 -0.25760302 0.42658052 0.42587858
0001e0 54 31 02 bf 51 a0 f0 3d a2 e1 57 3e 8d c7 4a be
       -0.5085652 0.11749328 0.21082166 -0.19802685
0001f0 a2 07 b2 be ba 8b d7 be c3 7f ef be 5d f0 0e 3e
       -0.34771448 -0.4209879 -0.46777162 0.13958879
000200 85 ae f3 be 19 5a 2e be 42 26 bb be 95 fd 18 be
       -0.47594085 -0.17026557 -0.36552626 -0.14940484
000210 26 48 49 be 0f 11 10 be 24 ea 89 3e 6a af c6 be
       -0.19656429 -0.14069007 0.26936448 -0.38805705
000220 ee 58 f9 3d 72 4a bd be db d1 99 3e d8 42 80 be
       0.12175165 -0.3697086 0.3004292 -0.25050998
000230 70 3c b0 3e 76 aa eb 3e e5 55 e3 3b ba 9a fe be
       0.3442111 0.4602849 0.0069377297 -0.49727422
000240 0b 67 49 be 43 43 10 bd db d8 3e be 91 c5 f2 be
       -0.19668214 -0.035220396 -0.18637411 -0.47416356
000250 bc ac 54 bd c0 c3 cd be 5e 1a 6e be 68 c6 b5 be
       -0.051922545 -0.40188408 -0.23252246 -0.35502934
000260 0a 59 f7 3d e5 1d 44 3e ca 07 d9 3e 50 a9 b2 bd
       0.1207753 0.19152029 0.42388755 -0.087237
000270 fc 43 fc 3e e5 48 8e 3e ed a1 a9 3d 38 5d fa 3e
       0.49270618 0.2778999 0.08282838 0.48899245
000280 39 ec 93 3e 79 0e b5 3d 69 a0 d2 3e c3 06 a1 3e
       0.2889116 0.08840651 0.41138008 0.3145047
000290 40 5a b6 bd 77 2b ba bd e3 88 1f bd 14 53 c0 3e
       -0.089039326 -0.090903215 -0.038948905 0.37563384
0002a0 d7 39 b2 3e 2e 42 38 be a8 67 3c 3e 59 64 85 3e
       0.34809753 -0.17993996 0.18398917 0.26053122
0002b0 3b 41 01 3f 50 01 e9 3e eb 64 c9 3e 3a a5 22 3d
       0.5049016 0.45508814 0.39334807 0.039708354
0002c0 24 eb c9 3e 21 df a6 be 26 f1 8a 3e 3c 47 a5 be
       0.3943721 -0.3259211 0.27137107 -0.3228091
0002d0 b6 75 5a 3e d7 82 52 bd f1 ef 65 3e 45 17 b5 3d
       0.21333966 -0.05139431 0.22454812 0.08842329
0002e0 53 71 d0 3d 62 6a 7e 3e 5e 6e 9b bd 51 79 5a be
       0.10177865 0.2484527 -0.0758941 -0.21335341
0002f0 08 fb d6 3e 2d 88 29 be 8a fb e5 bd dc 40 05 bb
       0.41988397 -0.16555853 -0.11229618 -0.0020332849
000300 b5 de 98 3e a9 6c 0f be ce 10 27 be 91 0d 27 3e
       0.29857412 -0.14006294 -0.16315004 0.16313769
000310 ee 97 3b be 9d b1 d9 be ab 60 66 bd f0 72 02 3e
       -0.18319675 -0.4251832 -0.056244534 0.12739158
000320 4e 2a dd 3e 53 b1 fe 3e cf 9c 92 3d 06 d1 7e 3e
       0.43196338 0.49744663 0.07158815 0.24884424
000330 76 d5 06 be 2c 8b f0 be 35 c1 36 3c 29 49 9e be
       -0.13167366 -0.4698118 0.011154463 -0.30915192
000340 cd 07 47 be 3e a5 fd 3e 25 25 7c 3e 05 43 23 3e
       -0.1943657 0.49540132 0.24623545 0.15943535
000350 3a 0e 32 bc d0 91 e3 3d 59 ed 69 3d be 73 dd 3e
       -0.01086765 0.11111796 0.057111118 0.43252367
000360 4f 7e f2 3e 23 12 65 be 92 bc 60 be 1f c0 cd be
       0.4736199 -0.223702 -0.21946934 -0.4018564
000370 bf 5d 77 be a5 08 81 bc 0d 6e a8 3e dd 5b ac 3d
       -0.24156855 -0.015751192 0.32896462 0.08415959
000380 82 62 64 be 1d 87 88 3d b7 c4 30 3d ea 06 b2 3e
       -0.22303203 0.06666396 0.043156352 0.347709
000390 36 b9 3c be d8 c3 3b be 2a 79 05 be e2 af fb be
       -0.18430027 -0.18336427 -0.13034502 -0.49157625
0003a0 43 fe a1 be 0f 88 b9 be 35 47 d5 be 73 e5 e5 be
       -0.316393 -0.36236617 -0.4165589 -0.44901618
0003b0 17 55 18 3e 78 51 37 bd 8a 33 24 be 17 38 10 be
       0.14876209 -0.04475543 -0.16035286 -0.14083897
0003c0 47 7d 47 3e f6 e7 ea 3e 0d b7 81 be 71 3a 96 be
       0.19481383 0.45880097 -0.2533497 -0.29341462
0003d0 7a 18 e8 bd 85 35 00 3f 2f 3f b5 be c1 30 59 3e
       -0.113327935 0.50081664 -0.35399768 0.21210004
0003e0 80 da e9 3e 8c ce 0a be 1a 49 9c bd 9c cb a2 3e
       0.45674515 -0.13555354 -0.076311305 0.31795967
0003f0 d0 1c b1 3e d2 1a 2d be 53 a5 b4 be 9b d1 76 3d
       0.34592295 -0.16904762 -0.35282382 0.06025849

net.0.bias f4 [64]
000000 7f c6 e8 be c4 49 9e 3e 07 7c 82 3e 07 28 33 be
       -0.4546394 0.30915654 0.2548525 -0.17495738
000010 47 70 36 3e d0 eb df bd 87 81 4a 3e 9b ca 7d 3d
       0.17816268 -0.109336495 0.19775973 0.061960798
000020 eb e9 86 3e 7d f3 b6 3d 48 6a 59 bd 11 31 a7 be
       0.2635034 0.089331605 -0.053079873 -0.32654622
000030 8d d0 fb 3e 2c c1 d3 3e fd ae a4 bd 5f 0b c3 bd
       0.4918255 0.41358316 -0.08041189 -0.09523653
000040 0b 57 1c 3f ae 82 cd be 84 60 11 be a1 7c d1 3e
       0.6107032 -0.40138763 -0.14196974 0.40915397
000050 91 8f 08 3f 27 62 b1 3d ad da 05 bf a9 a9 82 3e
       0.53344065 0.08661299 -0.522868 0.25520065
000060 ea b4 13 3f e0 8b c1 3e f2 cf c1 bd 92 cf 7b bd
       0.5769793 0.3780203 -0.094634905 -0.06147725
000070 11 f0 93 3e 76 8d 81 be e0 c0 14 3e b1 2a a0 3d
       0.28894094 -0.2530324 0.14526701 0.07820643
000080 f5 af 99 3e fe 4a 1e be 42 94 03 bf 48 d4 b4 3e
       0.30017057 -0.15458295 -0.513981 0.35318208
000090 51 1d f4 3c 8f 7c 6a 3d f5 82 00 3e 58 2b 8f be
       0.029799135 0.057247695 0.12549956 -0.27962756
0000a0 ff 6c a3 bd ab 78 4d be 06 44 93 3e 1c 21 34 be
       -0.07979774 -0.20065562 0.28762835 -0.17590755
0000b0 4a e3 e5 3d c8 44 82 3c 7e 79 84 3e 6d 6a b9 3e
       0.112249926 0.015901938 0.2587394 0.3621401
0000c0 b8 23 47 be 31 1c 71 3e 06 52 08 3f e1 bb 95 be
       -0.1944722 0.2354591 0.5325016 -0.29244903
0000d0 31 23 be be e1 c0 da 3e 68 29 02 bf 31 6c 08 3f
       -0.37136224 0.4272528 -0.5084443 0.53290087
0000e0 85 90 77 bd c7 f4 11 bf 61 52 a1 3e 7a 64 c7 3e
       -0.06044056 -0.57014126 0.31508163 0.38943845
0000f0 87 ea c3 be 12 44 51 3d 07 47 bf 3c db 14 bf 3e
       -0.38264868 0.051090308 0.023349298 0.373206

net.2.weight f4 [64, 64]
000000 62 a2 21 be f5 a6 3c bd 24 e9 72 3d 30 7f 0a 3e
       -0.157846 -0.04605766 0.05930437 0.1352508
000010 cd 32 22 3e fe ff bf bc f0 b7 a8 3c 03 3d 3b 3e
       0.15839691 -0.023437496 0.02059552 0.18284993
000020 21 8e 59 3d b6 c5 02 bd a2 6d 29 bd 82 38 f0 bc
       0.05311406 -0.031926833 -0.04136432 -0.02932382
000030 1d 23 1b 3b 38 48 70 bd e5 02 f6 bd 23 2c c6 bc
       0.0023672052 -0.058662623 -0.12012271 -0.024190968
000040 02 d6 cb bc 3a f2 21 be e4 f8 ae 3d dd c2 d0 3d
       -0.02488232 -0.15815058 0.08543566 0.10193417
000050 be 32 d6 3c fb 3d 86 3c f9 bc e4 bd 6b bf 8f 3d
       0.026147243 0.016386976 -0.11168856 0.07018932
000060 c4 38 70 3d 11 3b 3e bc 05 45 56 3d 1c 96 9b bb
       0.058647886 -0.011610762 0.052311916 -0.004748119
000070 c5 f4 b6 bd 80 7c bd bb 87 2c 95 3c 39 e8 9e bd
       -0.08933405 -0.005782664 0.018209709 -0.07759137
000080 9d 7f a9 bd 0a f3 45 bd fe f1 3e bd b9 b4 2b 3e
       -0.082762934 -0.048327483 -0.0466175 0.16768159
000090 5b cf 89 bd 0a e6 00 bd 91 16 5a bd f2 ad fb bd
       -0.06729003 -0.031469382 -0.053244177 -0.12289037
0000a0 50 67 84 3c 85 d2 6e bb c6 c5 da bd 2b 28 23 3e
       0.016162544 -0.0036441397 -0.106822535 0.15933292
0000b0 05 99 a0 3c 7d 0a 0a be 99 62 e1 3d e7 0b 5c 3c
       0.019604215 -0.13480563 0.11005134 0.013430572
0000c0 ec 4f 0a 3c 0a c9 58 3d 8e 5d 1c 3e 2e 12 de 3d
       0.008441906 0.0529261 0.15270063 0.10843311
0000d0 44 6a 51 bd a5 0f 06 3c 72 7d f8 3c 83 fe bd bd
       -0.051126733 0.008182441 0.030333254 -0.0927706
0000e0 9b 75 22 bd c2 26 b7 3d 98 ea fe 3d 8e a6 e8 3d
       -0.03966294 0.08942939 0.12447089 0.11359893
0000f0 86 1d ac 3c 9e fd a9 bd 80 d7 b8 bb d7 35 e7 3d
       0.021010172 -0.08300327 -0.005640924 0.11289566
000100 70 f2 2e bd dc de 05 3d 3d eb 04 3d e8 b7 d3 bc
       -0.042711675 0.03268324 0.032450903 -0.02584453
000110 57 96 00 be 50 fc ed 3c 25 80 f8 bd a0 4a 88 bd
       -0.1255735 0.029050976 -0.12133817 -0.066548586
000120 c2 13 c6 3d 19 87 e8 3c 7c be 96 3d 9e 6c 84 bd
       0.09671737 0.028384732 0.07360551 -0.064660296
000130 ac ed 0c 3d 72 40 c9 3d e0 a6 69 3d c8 0c ec bd
       0.03440635 0.09826745 0.05704391 -0.11525875
000140 a2 a6 cc bd 40 12 f8 3d 7a bc dc bd c0 06 90 3d
       -0.0999272 0.12112856 -0.107781366 0.070325375
000150 3e 4f cb bd a0 51 c6 bd 5c 20 b7 bd ff 2a e0 3d
       -0.099272236 -0.096835375 -0.08941719 0.10945701
000160 18 83 f0 bc 46 72 d6 bd bb 54 33 3d ff 2d 9b 3d
       -0.029359385 -0.10471015 0.043781977 0.075771324
000170 f4 af 79 bd cc 73 29 3d bc 12 a2 3d 48 7c 49 bd
       -0.060958818 0.041370198 0.079137295 -0.04919079
000180 34 e3 1b 3d 77 35 06 bd 51 fa 0e 3d a3 e7 b2 bd
       0.038058475 -0.03276583 0.03490669 -0.087355874
000190 02 f3 79 bc a4 f6 b9 bd 0c a6 ba bd 00 83 cf 3a
       -0.0152556915 -0.09080246 -0.09113702 0.0015831888
0001a0 c6 cc d9 3d e4 78 ca bd d2 e8 8a 3d ed 47 30 3c
       0.106347606 -0.09886339 0.06782688 0.010759336
0001b0 a1 c1 bc 3d c0 c7 d7 3d f0 72 ec 3c ec 4b a8 3d
       0.09216619 0.10536146 0.0288634 0.08217606
0001c0 32 7f b7 3d ac 53 f5 bd 64 07 af 3d b4 26 00 be
       0.089598075 -0.1197885 0.085463315 -0.12514764
0001d0 20 d1 3c 3c 40 d6 27 bb 19 d7 9c ba 0f 14 0b bd
       0.011524469 -0.002560988 -0.001196596 -0.033954676
0001e0 a0 b9 6e bd aa 6e 6b bd 0a 7f c5 3c cd d9 01 3a
       -0.058282495 -0.057478584 0.024108429 0.00049534143
0001f0 96 0f f3 bd d2 2b f2 3d 0f a0 ba bd e7 e1 09 bd
       -0.11868207 0.11824764 -0.0911256 -0.033662703
000200 10 af f8 bc 1c c0 a6 3d d4 5e 27 bd 90 1e 30 3c
       -0.030356914 0.08142111 -0.04086192 0.010749474
000210 20 4f dd bd de c7 8a 3d 0c e9 4c 3d f4 81 76 bd
       -0.108061075 0.06776403 0.05002694 -0.060182527
000220 3e a2 c1 bd 4c a8 6d bd 00 4d a2 3b ac 09 88 3d
       -0.09454773 -0.05802183 0.004953027 0.0664247
000230 a8 51 ed bd 62 70 fa bd 00 bb 86 3c 90 9a 38 3d
       -0.1158784 -0.122284666 0.01644659 0.045069277
000240 52 fe a6 bd 60 5e f8 bc 20 97 2a bc f8 55 4d bd
       -0.081539765 -0.030318439 -0.010412008 -0.050130814
000250 80 10 78 3d d8 54 4f bd 08 1a 06 3d 30 7f 50 3d
       0.06056261 -0.050618023 0.03273967 0.050902545
000260 30 d8 53 3c bc bc 8f 3d 3c 09 12 3d 04 f6 ad 3d
       0.012929961 0.0701842 0.035653338 0.084941894
000270 10 e3 51 3d 54 48 f7 bd 1c 1d 01 3d ea 3f ba bd
       0.051241934 -0.12074342 0.0315219 -0.09094222
000280 38 65 13 bd c8 5e bc bd 3a 0f 9c 3d 7c c5 7f bd
       -0.0359852 -0.091977656 0.07620092 -0.062444195
000290 90 bb 9e 3d 64 f8 c7 bd ec 6c fc bd cc fb fe bd
       0.077506185 -0.097641736 -0.12325463 -0.1245037
0002a0 4c e8 4e 3d 28 56 db bc 24 6b 2a 3d a4 4b f2 bd
       0.050514504 -0.026774481 0.041606084 -0.118308336
0002b0 a0 09 13 3c 20 ff 7d 3c 18 0a 01 3d 60 03 85 3d
       0.008974463 0.015502721 0.031503767 0.06494784
0002c0 38 ce 82 3c aa 95 9d bd 44 ac 88 bd 44 9e 2c bd
       0.015967473 -0.07694562 -0.06673482 -0.04214312
0002d0 88 e1 fe 3c 3e 97 8e 3d b4 23 06 3d 38 3d c3 3d
       0.031113401 0.06962441 0.032748893 0.09533161
0002e0 10 42 6c 3c 80 da 63 bb 54 fb 48 bd bc ae 76 3d
       0.014420047 -0.0034767687 -0.04906781 0.060225233
0002f0 30 d1 55 3d 66 4c 93 bd dc 6a e6 3d dc 2a 3b bd
       0.05220145 -0.07192306 0.112508506 -0.04569517
000300 6e e1 a3 bd b2 ed cd 3a 28 26 20 3d d0 9a bd bd
       -0.08001982 0.0015711098 0.03909889 -0.09258044
000310 90 cc 3c 3d e4 e1 90 bd 62 c3 d5 bc 14 32 56 bd
       0.046093524 -0.07074335 -0.026094142 -0.052293852
000320 bc 17 d2 3d 87 02 d5 bd 4a 3c f2 3c b0 87 ae 3c
       0.10258433 -0.10400873 0.029569764 0.021304935
000330 49 35 aa bd 37 94 11 3d 85 db 23 bd 6f 7c cd bd
       -0.083109446 0.03554174 -0.040004272 -0.100334994
000340 1e af 0f 3e 65 a7 a4 3d f7 22 c2 3d 81 79 24 3a
       0.14031646 0.080397405 0.09479325 0.0006274209
000350 c5 35 fb bd 69 94 0f 3e 91 30 5d 3d 07 61 ac bd
       -0.12266115 0.14021458 0.054001395 -0.08416944
000360 e0 f3 15 3e cc 33 96 3d 1b e3 5f bd 3a f0 ed bd
       0.14643812 0.07334098 -0.054659944 -0.11618085
000370 fb 54 13 3d a1 58 e8 3b 31 4b a3 bc af 3d 04 3e
       0.035969716 0.0070906435 -0.019933315 0.12914155
000380 05 72 98 3d 0b 29 08 bd 57 01 77 bc 17 0e 1f be
       0.074436225 -0.033242267 -0.015076003 -0.15532719
000390 b4 3a 7c 3d c2 5f 85 3c fa 48 d5 3c a5 a9 04 bd
       0.06157942 0.016281012 0.026035774 -0.032388348
0003a0 28 c6 d1 3d 72 8b 79 3d 25 5a a9 bd 82 5a c9 3c
       0.102428734 0.060924 -0.08269147 0.02457929
0003b0 97 8b d8 3d fc 94 74 3d e6 e5 5b be 02 27 ea 3c
       0.105735 0.059712395 -0.21474418 0.028583053
0003c0 d0 d9 19 bd e5 04 15 3e af 72 b1 3d fd 9e 94 bd
       -0.037561238 0.14552648 0.08664452 -0.07256887
0003d0 87 4a be bc fd b5 a4 bd 2d 8b 8b bd a3 eb 59 3b
       -0.023228897 -0.08042524 -0.06813655 0.0033252023
0003e0 d6 29 93 3c 3b 5a 1d 3d c4 ed a1 bd e4 39 c7 bd
       0.017964285 0.03841613 -0.07906678 -0.09727839
0003f0 57 8a bb 3d 73 40 f2 bc 1b 01 d0 3b 98 17 9d bc
       0.091572456 -0.029571747 0.006347788 -0.01917629

net.2.bias f4 [64]
000000 1f 78 86 3c 1c aa 80 bd 58 af 9b 3c 4f bc 0b be
       0.0164147 -0.06282446 0.019004509 -0.13646053
000010 af 3c e3 bd ce 6f 3c 3d 3c 63 69 3d 6c 8d a3 3d
       -0.11095559 0.046005063 0.056979403 0.079859585
000020 9c c7 b9 bd 4f 2c ab bc 7b ac e3 3d 18 99 13 3e
       -0.090712756 -0.020895151 0.111168824 0.1441387
000030 f5 c5 25 3d 7e 45 8d bd f9 0a 2d 3e 44 a7 b0 3d
       0.04047199 -0.0689802 0.16898717 0.086256534
000040 a4 53 1f 3e 11 96 3f 3e d7 bb 0a 3e cd 6c 3e 3e
       0.1555925 0.1870959 0.13548218 0.18596192
000050 ff 28 db bc 67 0f 16 be 04 97 e6 3d 82 77 ee 3d
       -0.026752947 -0.14654313 0.11259273 0.11643888
000060 df 79 19 bd f2 b9 46 3e 62 de ec bd 19 30 c8 bd
       -0.03746974 0.1940687 -0.11565854 -0.09774799
000070 84 c5 db bd b2 9b 77 3c 4e bb 09 3e 61 3b a7 bc
       -0.107310325 0.015112804 0.13450357 -0.020414056
000080 e0 f3 c7 bc cc 19 f2 3d e3 36 22 bd 85 d8 33 3e
       -0.02440828 0.118213266 -0.039603125 0.17563064
000090 7f 32 74 3e 1a d3 32 bd 15 fd a5 3d 21 58 0d 3e
       0.23847388 -0.043658353 0.08104912 0.1380315
0000a0 8c f3 82 3d 1e fe a4 3d 09 fb 37 bd 4d 26 0c 3e
       0.06394109 0.080562815 -0.04491714 0.13686486
0000b0 b7 09 41 3d 4f c0 94 3d 7f 4f 43 bd 60 54 1d 3e
       0.047128405 0.072632425 -0.047683235 0.15364218
0000c0 38 3f 13 3e d9 cf d7 bd d2 9f 48 3e 25 1c cb bb
       0.14379585 -0.10537691 0.19592217 -0.0061984234
0000d0 78 65 00 be a7 6b 6d 3e 8b ab d1 3d 39 c2 b9 3d
       -0.12538707 0.23185597 0.10237797 0.09070248
0000e0 26 1b 5b bd 1e 1f 06 3e 43 2f 22 3e 64 1b 11 3e
       -0.053492688 0.13097808 0.15838341 0.14170605
0000f0 36 9c 14 3d a6 1e ca bc 42 3b 6f 3e 25 71 d6 3d
       0.036281787 -0.024672817 0.23362449 0.10470799

net.4.weight f4 [25, 64]
000000 74 b6 e2 3d 55 88 e9 bc 28 de 49 3d 7e 0b aa bc
       0.110699564 -0.028507391 0.04928413 -0.020757433
000010 e2 3d 32 bd e1 93 bd bc a3 b5 cc bd 66 96 65 bd
       -0.043516047 -0.023141803 -0.09995582 -0.056051634
000020 f8 ba 9d bd 27 fe d6 bd 6d 8e f0 bd 6c 9b 02 bc
       -0.07701677 -0.104976945 -0.117459156 -0.007971626
000030 63 95 00 3d 31 41 e3 bd 2c 51 ce 3b 8d 80 68 bd
       0.031392466 -0.11096419 0.0062962975 -0.05676322
000040 40 5c a0 bd 8f 6f 10 3e 37 aa 85 3c 5d 60 80 bb
       -0.07830095 0.14105056 0.016316516 -0.0039177374
000050 b4 d7 70 bd 22 6f 9c 38 57 61 a3 3d 6f 1a a3 3d
       -0.05879946 7.45936e-05 0.079775505 0.07964026
000060 b3 cd 3e bc fd cd 54 bd 68 f3 db bd 7d 95 7d 3d
       -0.011645722 -0.05195426 -0.107397854 0.06191014
000070 0e fc c3 3d 14 29 c9 3d 62 00 6e 3d 0b da af bd
       0.0956956 0.09822288 0.058105834 -0.0858651
000080 18 7e e8 3d f6 9b a0 3d 79 44 01 bd 26 1e 88 3d
       0.113521755 0.07842247 -0.03155944 0.06646375
000090 70 d2 37 bc 16 13 95 3d fa 7d 1a bd b1 22 01 3e
       -0.011219606 0.07279031 -0.037717797 0.1261089
0000a0 3d db c8 bd 94 11 93 3d 5d 66 72 3d 8e a7 8e 3d
       -0.098074414 0.07181087 0.059179652 0.06965552
0000b0 db fc f8 bd 86 f4 33 3d bb cd e4 bd 26 76 69 3c
       -0.12157603 0.043934368 -0.111720525 0.01424936
0000c0 4b 5f 21 3d a1 47 87 bc 18 ea 6d 3d ff 5e 58 3c
       0.03939752 -0.016513648 0.058084577 0.013206243
0000d0 cd 53 f2 3c 69 27 6c 3d a0 fa f7 bc 8e 81 e7 bc
       0.029580975 0.057654772 -0.030270875 -0.028260019
0000e0 98 a6 cc bd ab ed 04 3e d9 e3 8d bd 9e 50 a3 3d
       -0.09992713 0.12981288 -0.06928224 0.07974361
0000f0 03 d1 10 ba 00 93 0c 3e 31 a5 48 3b 54 7f 14 bd
       -0.0005524309 0.13727951 0.003061604 -0.036254242
000100 25 ca ac 3d 95 7d 57 3d 50 3e e6 bc 04 a0 3f be
       0.084369935 0.05261 -0.028105885 -0.18713385
000110 77 38 aa 3d 22 cc 2c bd 61 76 87 3d 41 bb 96 3d
       0.08311551 -0.042186864 0.06614376 0.073599346
000120 4a d8 8d 3d 86 7b 06 bd 79 95 ca bd bb f7 a6 bd
       0.069260195 -0.032832645 -0.09891791 -0.081527196
000130 76 99 3b bd e6 1c f2 3c b7 59 0d 3e e0 9d 36 3e
       -0.04580065 0.029554795 0.13803755 0.17833662
000140 d3 3c b0 bd 9c 3c bf 3c d7 79 d5 bb b2 54 bb 3c
       -0.08605351 0.02334433 -0.0065147686 0.022867534
000150 9b 35 d7 bd ff 31 8f bd 90 2b 84 3c 39 d0 1d bd
       -0.10508271 -0.06991958 0.016134053 -0.038528655
000160 bb 4c 80 3e 1b 15 db 3c d7 cc d8 bc 52 a9 9c bd
       0.2505854 0.026743462 -0.026464863 -0.07649483
000170 f7 d1 da bd 7d 04 e1 bd cc 19 16 3e 49 8d 3b bc
       -0.10684579 -0.10987184 0.14658278 -0.011447259
000180 e0 3b 03 3c 09 13 11 3e e9 21 c9 bd 8c f9 b3 bc
       0.008009881 0.14167418 -0.09820921 -0.02196958
000190 c6 77 00 3e 41 73 f9 3d 9a 0f ad 3d b6 48 11 3e
       0.1254569 0.12180186 0.084502414 0.14187893
0001a0 ad c8 f0 3d f3 6a 1f be a0 aa 16 bc 6b a8 ed bd
       0.11757026 -0.15568142 -0.009195954 -0.11604389
0001b0 14 b5 b5 bd 58 e1 12 3e 25 ea a3 3c e9 51 9e 3d
       -0.088724285 0.14343774 0.02000911 0.07730467
0001c0 6e e8 72 3e 2d ce 06 3d 3f 0b 89 3d d5 00 4a be
       0.23721477 0.03291147 0.06691598 -0.1972688
0001d0 cc 6c 7e 3d f5 03 e4 3c 7b 58 8e 3d 25 9d e0 3c
       0.062115476 0.027833918 0.0695047 0.027418682
0001e0 05 ef 82 bd 6f ed 94 3d de cc fd 3c 38 ac e5 bc
       -0.063932456 0.07271849 0.030981477 -0.028036222
0001f0 9f 34 28 bd 89 16 a7 bd 6e 8d 01 bd b9 88 05 3c
       -0.04106581 -0.08158595 -0.03162902 0.008150273
000200 b1 89 a6 bd db 59 9f bd 34 ab db bd 7c 3f a5 bd
       -0.08131731 -0.077808104 -0.10726014 -0.08068749
000210 91 a1 87 bd 1b b7 7b 3d f2 50 ea 3a 2f c6 03 bd
       -0.06622613 0.06145392 0.0017876907 -0.032171424
000220 5d 6e 8d 3d af c2 f8 bc dc ec 91 bc ce 58 fb 3c
       0.06905816 -0.03036627 -0.017813139 0.030681994
000230 0b f2 7c 3d 87 1a a1 bc 5b 16 95 bc f0 ae 47 3e
       0.061754268 -0.01966597 -0.018199136 0.19500327
000240 5c ef 73 bd e4 46 65 bd 78 78 ce 3c bd 75 b8 3c
       -0.059554443 -0.05597581 0.025203928 0.02251708
000250 5f 3c 97 3d cf 09 b2 3c 67 bd ca 3d fb ec ec bd
       0.07384562 0.021733193 0.09899407 -0.11568638
000260 73 62 ec 3d 3d 05 e7 bd 90 13 c8 bc 9a 7f 97 bd
       0.11542215 -0.11280296 -0.02442339 -0.07397385
000270 b5 9c cb bc 98 6a 79 bd 9a 0c 61 3e 5e cf 36 3b
       -0.024854997 -0.06089267 0.21977463 0.0027894597
000280 78 d3 88 bc 0a 30 39 3e 9c bd 91 bc 05 21 d3 3d
       -0.016702399 0.18084732 -0.017790608 0.10309032
000290 63 37 7b 3c 4b f8 4c 3d 7e 55 b0 3d b1 c3 8c bd
       0.015333029 0.050041478 0.08610056 -0.06873263
0002a0 02 9b cd 3d fe e2 44 bd 47 ff 57 bd 2a 89 02 3d
       0.10039331 -0.04806804 -0.052733686 0.03186909
0002b0 ca a2 54 bd 84 b5 4b bd 02 bc 9f bd 00 3a 1f 3e
       -0.05191306 -0.049733654 -0.077995315 0.15549469
0002c0 3c 2b a1 bd 6d 75 de 3d 78 14 a8 3b 48 de 97 bd
       -0.078695744 0.10862241 0.005129393 -0.07415444
0002d0 3d 09 90 3d 1d f5 aa 3d dd b0 b7 bd e6 e4 d9 bd
       0.07033012 0.08347533 -0.08969281 -0.10639362
0002e0 3c db d6 3d 69 2b 06 3d 3e d4 f2 bc 0b 97 5d bd
       0.104910344 0.032756243 -0.02964222 -0.054099124
0002f0 fa 44 90 bd 41 9b 23 bd 4f 34 8f 3d f2 a4 a8 bd
       -0.07044406 -0.039942984 0.06992399 -0.08234586
000300 39 91 7c bd 30 cb 8c bd f6 c8 e3 3d 04 17 94 bd
       -0.061661933 -0.068746924 0.11122315 -0.072309524
000310 bf a7 f7 bc 83 36 04 be a5 fa b0 3c fc 3b 27 3d
       -0.030231355 -0.1291142 0.021603892 0.04082869
000320 00 db 41 ba 68 10 85 bc 2c 18 f3 3d 28 d8 cc 3d
       -0.0007394999 -0.016243175 0.11869845 0.10002166
000330 e5 13 f4 3d 5b cb ae bd f7 35 a6 bd c3 52 d8 bd
       0.11917857 -0.08534881 -0.08115762 -0.105626605
000340 4c 69 07 3e eb 39 cd bd 9d de 7a bc bb 0e 91 bd
       0.13223761 -0.100208126 -0.015311864 -0.07082888
000350 ee 69 8b 3d e1 a5 94 3c cb 5b 1c bd c1 2e 1f 3b
       0.06807314 0.018145503 -0.038173478 0.0024289342
000360 75 58 f9 3d cc ed d7 3d 8b de b9 be 41 a8 6a 3d
       0.12175075 0.10543403 -0.363026 0.057289366
000370 8d 59 37 bd 13 0f be bd fb 36 8f be 03 7b 9b 3d
       -0.044763137 -0.09280219 -0.27971634 0.07591822
000380 80 ff 00 3c de 9d b4 bd 8d d0 e7 3d d0 9b 4a 3b
       0.007873416 -0.08819173 0.11319075 0.0030915625
000390 b3 24 05 3d 6d 44 00 3d 19 64 2c bd e3 31 a0 bd
       0.032505702 0.031315256 -0.042087648 -0.07822015
0003a0 c3 b7 4b bd 87 d8 f6 bb 02 f5 20 bc 0f 54 0c 3c
       -0.049735796 -0.0075331363 -0.009824039 0.008564963
0003b0 ab ea 30 bd a0 55 8b bd 3f 46 0c 3e ff d9 b5 ba
       -0.043192547 -0.06803441 0.13698672 -0.0013874172
0003c0 09 dd 9e 3c e3 00 31 3c d2 86 3a bd e3 a3 18 3d
       0.019392507 0.010803434 -0.04553873 0.03726567
0003d0 79 5b d5 bd cc 37 d8 3c 2d 05 7b bd c1 70 0a bd
       -0.10417838 0.026393794 -0.061284233 -0.033798937
0003e0 d5 80 d8 bb 3d f0 21 3c f8 57 ce 3d d8 8b 78 bb
       -0.006607155 0.009883937 0.100753725 -0.003792515
0003f0 89 70 50 3d 1f f3 b2 bd 3b 1e 12 be c8 d2 25 bd
       0.050888572 -0.08737778 -0.14269345 -0.04048422

net.4.bias f4 [25]
000000 ad ad 9a bc d6 79 d3 3c a8 81 0c bd f1 68 65 3d
       -0.018881643 0.025814932 -0.034303337 0.056008283
000010 24 e8 20 3d 74 19 4e 3d ce 2a f8 3d 4d 2b d2 3c
       0.039283887 0.050317243 0.12117539 0.025655413
000020 4d 3d d0 3d 85 54 7c bc a6 63 48 3d c1 06 d5 3c
       0.10167942 -0.01540101 0.048923157 0.026004197
000030 a2 2a a6 3d 1b fa 81 bd b8 33 c3 3d 4f 88 22 3c
       0.081136 -0.06346532 0.09531349 0.009920194
000040 07 5a 11 3e f9 0e 3f 3e 9d 5c f6 3d 6c 75 e7 3d
       0.14194499 0.18658055 0.12029383 0.11301693
000050 0e b9 73 bd cf e9 ae 3d fc e2 cb bb 26 1d 79 3d
       -0.059502654 0.08540689 -0.006222127 0.060818814
000060 8e 36 6e bd
       -0.058157496
