MeL-ODE_low_LR_high_epoch.pt (torch, 97389 bytes, 6 tensors)

net.0.weight f4 [128, 4]
000000 17 a4 11 3e eb c6 da 3e b8 24 d8 bd 68 97 de 3e
       0.14222752 0.42729887 -0.105538785 0.4347489
000010 1c 7b 05 3f e7 00 48 3e f1 15 f9 be 78 7f b9 be
       0.52140975 0.19531594 -0.48649552 -0.36230063
000020 ad 76 e6 3e d5 05 da 3e 64 16 c6 be ef 84 75 be
       0.45012417 0.42582574 -0.38688958 -0.23976491
000030 16 db c8 3e 2f be a9 3c fc d0 c1 bd 45 db f9 be
       0.3922965 0.02072057 -0.09463689 -0.48800102
000040 c9 8b 80 be b0 b1 4f 3b 77 a1 88 be 13 e4 8e 3e
       -0.25106648 0.0031691603 -0.26685688 0.27908382
000050 39 b4 cb be 76 be ad bc 5a a1 c3 3e a4 d9 af bd
       -0.39785936 -0.021208983 0.3820904 -0.085864335
000060 6d 11 57 3d 4e 5a d8 3e 28 61 e4 3e 2e 44 65 be
       0.052506853 0.42256397 0.44605374 -0.2238929
000070 39 b2 10 be 33 b2 cb be 98 69 de 3d 7e fc 62 bc
       -0.14130487 -0.39784393 0.10859984 -0.013854144
000080 ea a6 b6 3e f3 94 fb 3e f4 d3 bc 3e f0 14 cb 3e
       0.3567422 0.49137077 0.36880457 0.39664412
000090 b7 94 fd 3e 41 f3 38 be 17 c8 f7 be 83 30 03 3e
       0.49527523 -0.18061544 -0.48394844 0.12811475
0000a0 86 e1 14 be c1 ef 0c 3e f7 eb 06 be 17 db ed be
       -0.14539155 0.13763334 -0.13175951 -0.46456215
0000b0 fc ff 8d be 75 14 5d be 5e a7 c0 be 4b a1 15 be
       -0.27734363 -0.21589835 -0.3762769 -0.1461231
0000c0 41 58 b7 3e 85 d2 ce be 32 3a 6d 3e 8a ce ce 3d
       0.3580952 -0.4039499 0.23166731 0.10097988
0000d0 c1 20 a4 be 9d 18 b1 3e 41 a2 8e 3d 30 79 7e 3e
       -0.3205624 0.3458909 0.06964541 0.24850917
0000e0 b2 30 88 3e f1 a7 f4 be 29 68 b0 be 82 1f c4 be
       0.26599652 -0.4778438 -0.34454468 -0.3830529
0000f0 fe a9 36 3e 47 29 9a 3e 7b a3 8d bd ba 41 ee be
       0.17838284 0.30109617 -0.06915947 -0.4653452
000100 43 d9 b4 3e 58 e5 e5 3e 5a 9c f7 be 95 52 f5 3e
       0.35322008 0.44901538 -0.48361474 0.47914568
000110 e7 eb 9c be 47 7e 2f bc 0e 87 5e bc 60 62 bd 3e
       -0.3064873 -0.010711259 -0.013582004 0.36989117
000120 c6 74 7c be 1a e1 cf be 68 4e 44 bd d5 ce d2 3e
       -0.2465392 -0.40601426 -0.047926337 0.41173425
000130 aa 31 fd 3e 92 1e fb 3e 22 27 02 3e 30 b4 ce 3e
       0.49451953 0.4904676 0.1271024 0.40371847
000140 cf dc 81 be 2f 09 32 bb a6 eb 81 be de aa 48 3e
       -0.25363776 -0.0027166118 -0.25375098 0.1959643
000150 8a 4b f1 bd 21 59 f5 be b8 1c 24 3e aa 68 4c 3e
       -0.11781986 -0.47919562 0.1602658 0.19961801
000160 d3 32 a0 3e db 0f f1 3e de f6 3c be 1c e7 29 3e
       0.31288776 0.4708241 -0.18453547 0.16592067
000170 6d 93 c9 3e 79 ec 66 bd 8a c1 ea 3e b9 0d e0 be
       0.3937029 -0.05637786 0.45850784 -0.4376047
000180 3f 53 fd be aa 05 e9 be 7d de 71 3e a7 5b fb be
       -0.49477574 -0.45512134 0.23620029 -0.49093363
000190 f4 6c 90 be 56 04 55 be 96 48 2a 3e d1 19 10 be
       -0.28208125 -0.20802435 0.16629252 -0.14072348
0001a0 35 0b 18 3e fa c8 c3 be 99 53 37 3e d0 a2 6e be
       0.14848025 -0.3823927 0.17902984 -0.23304296
0001b0 0a 80 40 be c0 e7 8e 3e 74 6d 47 3e c1 fe 97 be
       -0.18798843 0.27911186 0.19475347 -0.2968655
0001c0 57 40 16 be 8f 55 26 bb 74 47 dd be 99 68 bf 3e
       -0.14672981 -0.0025380587 -0.43218577 0.3738449
0001d0 3d c2 b3 3e b0 cf 03 3e a6 4a df 3e ba 77 ce 3e
       0.3510913 0.12872195 0.4361164 0.4032572
0001e0 1a bc c9 be 53 67 8d 3e 73 4c 7a bd 43 ab b3 be
       -0.39401323 0.27617893 -0.061108064 -0.350916
0001f0 b2 52 f5 be 07 ce 91 be 04 14 82 3e 40 0c e3 3e
       -0.47914654 -0.284775 0.25405896 0.44345284
000200 46 60 9e be e8 15 d8 be f1 f9 2c 3e 29 d5 d8 3d
       -0.30932826 -0.42204213 0.1689222 0.10587532
000210 44 f1 b7 be f3 54 b1 3e bf 84 e8 3d 1b c9 91 3e
       -0.3592626 0.34635124 0.11353444 0.28473744
000220 91 18 78 3d 37 6d 02 bf 3b 50 05 be d1 aa 4c bd
       0.060570303 -0.509479 -0.13018887 -0.04996759
000230 3f eb 3f 3e 2c 52 01 bf 52 12 03 3e 12 38 c6 3e
       0.18742083 -0.5051601 0.12799957 0.38714653
000240 7d 9c 8f 3e c2 65 b4 be cc 87 a9 3d 54 a8 06 3c
       0.2804908 -0.35233885 0.08277854 0.0082188435
000250 90 49 57 3e 83 d1 95 be aa a1 89 bd 3c f6 c7 be
       0.21024156 -0.29261407 -0.06720288 -0.3905505
000260 60 70 cc be b3 2c 93 bd d0 f9 2a be f7 ef 74 3e
       -0.39929485 -0.0718626 -0.16696858 0.23919664
000270 74 b7 ad 3e 04 ac 8a 3e c3 70 ae be 8c 37 97 bd
       0.33929026 0.27084363 -0.34070405 -0.073836416
000280 00 f3 c5 3e f6 57 a9 3e ed 43 25 3e 9b 4e e4 be
       0.38661957 0.3307492 0.16139193 -0.4459122
000290 fe 7e 4b 3e b6 c8 3d 3e 61 57 c4 be 23 65 87 3e
       0.19872662 0.18533596 -0.38347915 0.2644435
0002a0 d5 18 e3 bd 44 25 e7 3e ac c2 ed 3e d5 f9 ae 3e
       -0.11088721 0.4514562 0.46437585 0.34174982
0002b0 7c c1 04 3f e8 8f 26 be 0d dd 97 3e 7e f1 5d be
       0.51857734 -0.16265833 0.29660836 -0.21674153
0002c0 cb 14 13 3e a4 c0 d0 be d1 8c e3 be 81 f4 f6 3e
       0.143634 -0.40771973 -0.44443372 0.48233417
0002d0 c8 29 ac bc ff 46 9a bd 38 01 ce bd 4c c3 c1 bd
       -0.021016017 -0.07533073 -0.10058826 -0.09461078
0002e0 a5 82 44 3e 26 3f dc 3e 9d df 79 3c a5 94 88 be
       0.19190462 0.43016928 0.0152510675 -0.26675907
0002f0 55 7f 7b be d2 74 31 3d 9c 98 e0 bb ea 6d 56 be
       -0.24560292 0.0433243 -0.00685413 -0.20940366
000300 78 e2 3b 3e 21 71 df 3d ec 10 35 3e 34 fa cb bc
       0.1834811 0.109102495 0.17682236 -0.02489958
000310 a4 b7 99 3e bd 73 fc 3e 75 c2 b3 3e 77 ac 26 3e
       0.3002292 0.4930705 0.35109296 0.16276728
000320 87 1c 13 bc 1a ef d8 be 11 bd e4 3e 3c a1 88 bc
       -0.008978969 -0.4236992 0.44675496 -0.016678445
000330 eb 85 92 3d 64 2c f8 3e 1a 05 df 3e fe 5c 87 3e
       0.07154449 0.48471367 0.4355858 0.26438135
000340 4a af 79 bd e7 d9 6f 3e 3c c8 c0 bd a9 6c ec be
       -0.060958184 0.23422967 -0.09413192 -0.4617665
000350 45 1b 9a be 97 f9 eb 3e 3a 8a dd 3e cf 0d dd be
       -0.3009893 0.4608886 0.4326952 -0.43174598
000360 5c c8 c7 3e 13 66 c8 be 88 7c 07 3d b8 ad 64 be
       0.3902005 -0.39140376 0.033077747 -0.22331893
000370 4f de 0a 3e fa 97 bd 3e d4 ba 14 be 47 22 d3 be
       0.13561366 0.3703001 -0.14524394 -0.4123709
000380 03 cd 3d 3e 9c 5d e8 be ca 5c f4 be 42 68 2c 3b
       0.18535237 -0.45383918 -0.47727042 0.002630726
000390 9c 71 d7 3e ae 42 fd be 37 0d 90 bd 79 c1 32 3d
       0.42078865 -0.49464935 -0.070337705 0.04364154
0003a0 64 d6 30 be 99 93 7b 3e 0b b8 b6 be 95 39 ce 3e
       -0.17269284 0.24568023 -0.3568729 0.40278307
0003b0 c3 c4 8e be a1 71 a9 be 64 4f c8 be 18 c6 8a 3e
       -0.27884492 -0.33094504 -0.3912307 0.2710426
0003c0 a8 51 ba be 88 5a 68 3e 32 92 ee be 03 46 85 3e
       -0.36390424 0.22690785 -0.46595913 0.26029977
0003d0 e8 b5 6e 3e f3 ee ce be 5b 0f 03 3f 5f e2 37 3e
       0.23311579 -0.4041668 0.51195306 0.17957447
0003e0 9d c5 d6 be 2f 19 f0 bd 97 39 c3 3e b5 e9 7a be
       -0.41947642 -0.117235534 0.38129875 -0.24503215
0003f0 fc 38 fb 3e c8 ad da be b9 f9 4b be c7 f5 fb bd
       0.49066913 -0.4271071 -0.1991948 -0.12302738

net.0.bias f4 [128]
000000 5f b7 36 be 2c 57 b3 3e 2c 00 3b 3d ed d7 65 be
       -0.17843388 0.35027444 0.04565446 -0.2244565
000010 11 da 4b 3e 06 53 d8 be 31 4d d9 be db 72 ba 3d
       0.19907404 -0.42250842 -0.42441705 0.09103938
000020 c5 49 1a bd 02 d7 52 3e de ca d8 3e d8 72 a6 be
       -0.03766801 0.20589831 0.42342275 -0.32509494
000030 9a 31 b5 3e d9 5b 31 3e 4c c3 c3 bd 07 da 79 be
       0.35389405 0.17320193 -0.09558734 -0.24399577
000040 cc cd e0 3e 30 22 16 3e d7 1c d0 3e 0f a2 6b be
       0.4390701 0.14661479 0.40647003 -0.23011039
000050 c9 0f 6d 3e 04 1b 4e be 63 f4 e1 3e 9c e1 93 be
       0.23150553 -0.20127493 0.44131765 -0.28883064
000060 81 cd 90 bd 55 b2 41 3e 0e 62 c3 3e 36 f6 60 be
       -0.07070447 0.18915685 0.38160747 -0.21968922
000070 e3 7c 0d bc 88 1d e4 be 67 8a f8 be 44 9e 50 be
       -0.008635732 -0.4455378 -0.48543093 -0.20372874
000080 7b db e9 3e 30 4c c1 3e c0 eb 92 be f0 ec 72 be
       0.45675263 0.3775344 -0.28695488 -0.23723197
000090 75 b1 fa be 75 2d 85 be dc 77 17 be eb 4c 0f 3f
       -0.48963514 -0.26011243 -0.14791816 0.5597674
0000a0 10 cb dd be f7 f9 01 bc 95 c9 30 3e 81 91 da be
       -0.43318987 -0.007933131 0.17264397 -0.42689136
0000b0 8f e3 8b 3e 8a 77 17 3f c1 3e dc 3d 50 78 04 3f
       0.2732205 0.5916678 0.10754157 0.5174608
0000c0 ca 59 9d 3e 92 cd fb 3e 5b 17 1b bd 5e bd 12 3d
       0.30732566 0.49180275 -0.03786407 0.035825126
0000d0 a3 76 12 3e 2f a3 11 3f 59 17 06 3e db 9d 99 3b
       0.14303069 0.56889623 0.13094844 0.0046880073
0000e0 a0 eb d9 bc a3 22 c8 bc c2 62 a1 3e bf 82 4f bd
       -0.026601613 -0.024430579 0.3152066 -0.0506618
0000f0 03 ff 95 bd f6 8d 4b 3e 82 3b 8d be 2d 5c ab be
       -0.0732403 0.19878373 -0.27584463 -0.33468762
000100 2d e4 9a 3e 93 fc 7c 3d 3e 00 9d 3e 22 29 4a bd
       0.3025221 0.06176431 0.30664247 -0.049355634
000110 16 e1 68 be af ef 87 3e 37 96 b3 bd d7 75 86 3d
       -0.22742113 0.26550052 -0.087688856 0.06565445
000120 41 30 ec 3e 47 3e 4c be 2e 6d 39 bd 23 ca 07 be
       0.46130565 -0.19945632 -0.045270137 -0.13260703
000130 86 99 fc 3e ed 18 e2 3e 73 83 61 bc 23 12 bd 3e
       0.4933588 0.44159642 -0.01376425 0.369279
000140 43 90 06 be 56 63 24 be bb cb fe be b0 30 f4 3d
       -0.13140969 -0.16053519 -0.4976481 0.11923349
000150 7d b4 52 3c f3 c7 d5 3e 04 fb 24 3e a8 a9 da 3e
       0.012860415 0.41754112 0.1611138 0.42707562
000160 0e c8 88 be 70 2a 82 be 4b 86 c2 3c c7 71 56 be
       -0.2671513 -0.25423002 0.023745677 -0.2094184
000170 f9 11 02 bf 10 92 f5 3b ee 38 ed be 5c 2f b4 be
       -0.50808674 0.0074942186 -0.46332496 -0.35192382
000180 ec 9a 83 bd ff 75 da bd 7f 21 8f be 9a 3c 59 be
       -0.064260334 -0.10667037 -0.27955243 -0.21214524
000190 fd 85 df 3e 8d a7 01 3f 63 f8 38 3e 29 ef f3 bb
       0.43656912 0.5064629 0.18063502 -0.0074442816
0001a0 26 1d b9 3e cb fc bd 3e ac df 27 be de 6d b2 3e
       0.3615505 0.37106928 -0.16393918 0.34849447
0001b0 a9 b6 78 be 7e d7 b2 3e c0 0a 8c 3e 7a 45 af 3e
       -0.2428843 0.34930032 0.27351952 0.34232694
0001c0 a2 d7 57 be b4 70 0f 3d 3b 6d d8 3e 3d 36 c5 3e
       -0.21078351 0.03501959 0.42270836 0.38517943
0001d0 b6 6a 94 be 0a 62 50 be 10 84 cd be ad f9 e0 be
       -0.28987664 -0.20349899 -0.40139818 -0.43940488
0001e0 24 bf 9d 3d 9a 73 80 be 49 f3 8c be 57 05 e6 bd
       0.07702473 -0.25088197 -0.27529362 -0.11231487
0001f0 d2 80 bb be bd 7b 8e 3e 3d d8 15 3d b0 07 15 3e
       -0.3662172 0.2782878 0.036583174 0.14553714

net.2.weight f4 [128, 128]
000000 88 7e 50 bd 5f 2a b1 bd 5e 60 9d bd 23 3b 8a bd
       -0.05090192 -0.0865066 -0.07684396 -0.06749561
000010 47 e5 c9 3d e3 4e 90 3d ea 2d 83 bd f8 0d 01 3d
       0.09858184 0.070462964 -0.06405242 0.031507462
000020 ec bf a8 bd 05 02 ea 3c da 87 d8 3c 13 7c 4c bd
       -0.08239731 0.028565416 0.026431967 -0.049923014
000030 3a 1e 3a 3d 2b 10 6b 3d a6 e5 5c bd 8a 6d 89 bd
       0.045438983 0.057388466 -0.053929947 -0.06710346
000040 1b 7e 54 bd b0 87 d4 3c 18 dc 93 3d f3 9d 3c bd
       -0.051878076 0.025943607 0.07219714 -0.04604907
000050 fd 1f 5d bd 71 33 a4 bd e6 b1 a3 3d 81 32 07 3a
       -0.053985585 -0.08017624 0.07992916 0.0005157367
000060 34 e5 a4 3c 4a 30 76 bd e4 42 a0 3c e7 a6 d2 3c
       0.020128824 -0.060104646 0.019563146 0.02571435
000070 f7 b0 61 bd d2 69 94 3d 15 6a a7 bb e6 33 f7 3c
       -0.055100407 0.07246746 -0.0051090815 0.030176114
000080 2a 98 1c 3d a2 ce 7d bb db 0c a8 3c 06 39 68 bd
       0.038231052 -0.00387279 0.020513942 -0.056695007
000090 14 af 00 bd e1 fa 88 ba d6 60 f8 3c 13 cd f8 bd
       -0.031416968 -0.0010450744 0.030319612 -0.1214849
0000a0 25 0c 85 bd a1 a9 8e bd d9 92 ab 3d a6 42 c6 bd
       -0.06496457 -0.06965948 0.08377618 -0.09680681
0000b0 5a a0 9d bc 59 db b6 3a 08 86 62 3d ca 66 26 bd
       -0.0192415 0.0013950869 0.055303603 -0.04062537
0000c0 9f cc 2c 3d 8e b7 92 3c bd e7 54 3d bb d4 cc 3c
       0.04218733 0.017909791 0.051978815 0.025003782
0000d0 e2 8e bc 3d 20 e5 05 bd 4d a1 12 3d f6 5d 38 bc
       0.0920694 -0.032689214 0.03579836 -0.011252871
0000e0 79 ad 56 3d 4d 20 61 bd 71 45 07 3d 82 99 36 3c
       0.05241153 -0.054962445 0.03302521 0.011144998
0000f0 fe db 3c bd 64 58 02 3d 61 23 d7 3c 2d 26 5d 3c
       -0.04610824 0.031822577 0.026261987 0.013497871
000100 3a bd 95 3c 8b 9c 15 3d 67 b2 7b bc ae f3 6b bd
       0.018278707 0.036526244 -0.015362359 -0.057605438
000110 73 a2 b4 3c 5c 2a b3 3d 6a bb 3f bd 77 8d 5a 3d
       0.022050118 0.08748314 -0.04680959 0.053357568
000120 51 6d 9e bd ce 0b 9c bd 05 26 81 3d 47 f9 e6 3c
       -0.07735694 -0.07619439 0.0630608 0.028195037
000130 d3 e4 b4 bc ee 44 08 3c 34 bb 98 bd 01 ae 45 bd
       -0.022081768 0.008317215 -0.07457581 -0.048261646
000140 8f 56 bd bd c3 a3 32 3d 38 bd b0 bd 7e 5f 01 bd
       -0.09245025 0.043613207 -0.086298406 -0.03158521
000150 45 3f 6a 3c 2c f1 eb 3c 4b c3 b4 bc 64 35 d8 3d
       0.014297311 0.028801523 -0.02206578 0.105570585
000160 07 0b 85 bd 87 83 49 bc b1 d8 d4 bb c7 eb 9c 3d
       -0.06496244 -0.012299425 -0.006495558 0.076621585
000170 53 ff 5d 3d d2 79 4b 3d c4 29 75 3d c3 b3 02 bd
       0.054198574 0.049676724 0.059854284 -0.031909715
000180 c2 e8 85 3d 2a 2a 3b 3d a3 a5 3c 3d 32 86 0c bd
       0.06538536 0.045694508 0.0460564 -0.034307666
000190 25 9e ed ba d0 a5 e6 3c 8f 1f a6 3c b5 87 3e 3d
       -0.0018128796 0.028155237 0.02027872 0.04651614
0001a0 23 ae 7c 3c 07 70 fc bb 45 05 e4 bc f2 90 0a bd
       0.015422377 -0.0077037844 -0.027834544 -0.033829637
0001b0 b3 3a f7 bc 89 a4 b7 3d 15 4c 47 bd bc f6 e8 3d
       -0.030179357 0.089669295 -0.04865654 0.11375186
0001c0 95 af 96 bc b7 4e 8c 3d ed 6c 4b 3c fc 7e 02 3c
       -0.01839427 0.06850951 0.012416107 0.007964846
0001d0 24 b5 8b bd ac 22 b9 bd cd af 60 bd c6 75 7c bd
       -0.06821659 -0.09039816 -0.054855157 -0.061635755
0001e0 69 2b 87 3d 8d c8 8e bd e9 16 24 bd 0d d7 3f 3d
       0.06600077 -0.06971846 -0.04006091 0.046835948
0001f0 62 cb 26 3d 55 a4 20 3d 0c 99 7a 3d 52 bc 33 bc
       0.040721305 0.03921922 0.061181113 -0.010970192
000200 36 36 3a 3d 80 7b 12 3a d7 bc 96 bd 12 c0 1e 3d
       0.045461856 0.0005587861 -0.07360237 0.03875739
000210 88 1e 30 3c 10 24 8b 3c d1 46 a4 3d ce 6d b2 bd
       0.010749467 0.01698497 0.0802132 -0.0871235
000220 67 f5 1b bd 7a 0a 11 bd 38 8d 42 bd a3 e6 a2 bd
       -0.03807583 -0.03541038 -0.047497958 -0.07954147
000230 42 4d 64 3d 85 da a1 3d 48 45 0e bd f3 4f 81 3d
       0.05573774 0.079030074 -0.03473404 0.06314077
000240 30 7e e9 3b 0c 2d be 3c a0 c0 41 bc fa 15 d8 bc
       0.0071256384 0.02321484 -0.011825711 -0.026377667
000250 00 80 0b 39 0c c7 18 bd 00 fc 17 3b 7b 5f 8d 3d
       0.00013303757 -0.0372992 0.0023190975 0.06902977
000260 1e a9 3a bd e4 72 9a bc a8 86 54 bc 1a 7e b4 bd
       -0.04557144 -0.018853612 -0.012971558 -0.088131145
000270 a3 d9 9f 3d 10 af a6 bb 3c 30 a3 bd bf 3e 94 bd
       0.07805183 -0.005086787 -0.07968184 -0.0723853
000280 3c 53 a5 3c 14 d4 c2 3c 70 ef 79 3c e1 82 96 bd
       0.02018129 0.023782767 0.01525484 -0.07349182
000290 1f ae 62 bd bc e6 14 bd c8 c6 1a 3c 30 31 a5 bd
       -0.055341836 -0.036352858 0.009446807 -0.080660224
0002a0 69 cf 8c 3d 14 43 8b bd 47 cf 87 3d af 3d 8d bd
       0.06875498 -0.067999035 0.06631332 -0.06896531
0002b0 81 09 9a bd 60 b4 2f bc 54 b0 ba bc 60 cd 07 bb
       -0.07521344 -0.010724157 -0.022789158 -0.0020721778
0002c0 7c f2 ad bc 60 6d 07 3d 04 9c fa 3c a4 79 6a bd
       -0.02123379 0.033063293 0.030591972 -0.05724491
0002d0 a6 a0 a8 bd 42 29 4f 3d be 20 53 3d 1c b5 9b bc
       -0.08233766 0.050576456 0.051544897 -0.019007258
0002e0 f5 c7 aa bd 91 02 6d bd 58 b5 84 3c ee 25 7c bd
       -0.0833892 -0.057863776 0.016199753 -0.06155961
0002f0 e0 1b b7 bb 2a 0e 3f 3d b8 f8 05 3d af da a5 3d
       -0.0055880398 0.046644367 0.0327079 0.08098351
000300 d0 aa 9b bd 9e d8 2e 3d 9a 06 3d 3d 30 54 64 bd
       -0.07600939 0.04268705 0.046148874 -0.05574435
000310 e2 8e 67 3d 78 25 92 bd 88 df a4 3c 75 97 2e bd
       0.056532748 -0.07136053 0.02012612 -0.04262491
000320 06 27 a5 bd 96 6f 76 3d a5 5b 44 bd 80 0c b0 bd
       -0.08064084 0.06016501 -0.04793896 -0.08596134
000330 d6 29 2c 3d 46 f5 77 bd 68 9d 08 3c e4 55 b1 bd
       0.042032085 -0.060536645 0.00833831 -0.086589605
000340 ee 18 24 3d 35 ac 1b bd d9 ac 82 3d 80 82 25 bd
       0.040062837 -0.038006026 0.06380624 -0.040407658
000350 c0 c8 a1 bc 4e a7 2e 3d 40 92 06 bc c8 fa c5 bc
       -0.019749045 0.042640023 -0.00821358 -0.024167433
000360 c0 85 99 bd 1e d2 8d bd c5 8b 3c bd c9 f3 8e bd
       -0.07496214 -0.06924842 -0.046031732 -0.06980092
000370 b9 7d 69 bd b3 d3 b4 3d dc dc a3 bc b8 74 f5 3c
       -0.057004664 0.08829441 -0.020002775 0.029962882
000380 a1 8c a0 3d b6 c1 4f bd 98 f0 28 bd 16 35 81 bd
       0.07839323 -0.050721847 -0.041245073 -0.063089535
000390 62 af 64 3d 58 f3 f2 bc 48 20 72 bc 7b d5 17 bd
       0.05583132 -0.029657051 -0.014778204 -0.037068825
0003a0 f2 a4 94 bd 83 4a a5 3d 61 63 8f 3d 08 a2 f5 bc
       -0.07258023 0.080708526 0.07001377 -0.02998449
0003b0 6f 88 88 3d 76 d0 27 3d 28 7c ed bc 9f f8 ae 3d
       0.06666648 0.04097029 -0.028989866 0.085435145
0003c0 7d bb 5a bd d0 f5 38 bd fa 24 26 3d 1f d9 62 bd
       -0.05340146 -0.0451563 0.040562607 -0.055382844
0003d0 6b 14 9c 3d 59 4d 81 3d 2a 75 31 3d ce 68 33 bd
       0.07621082 0.06313581 0.043324627 -0.04380112
0003e0 8c 91 4d bd 38 8c d8 3c 62 63 40 3d 6d b4 a4 3d
       -0.050187632 0.026434049 0.04696978 0.08042226
0003f0 76 66 2b 3d 04 82 99 bd c0 04 63 bd fa 7e 47 3d
       0.04184576 -0.07495502 -0.05542445 0.04870508

net.2.bias f4 [128]
000000 9f b9 73 3d 3c 3b af bd 9b 9a d1 bc 3a 4b ce bd
       0.059503194 -0.0855622 -0.025586417 -0.10072942
000010 d6 26 66 3d db d7 b2 3c 29 b7 53 3d de f0 0d be
       0.05618938 0.021831444 0.051688347 -0.13861415
000020 1e 99 e8 3d e0 3f 5f bd 22 42 c7 bd 4c 21 21 3d
       0.1135733 -0.054504275 -0.09729411 0.039338395
000030 46 93 e8 3d 6e a2 06 3b 3f b6 99 3d 87 a4 a5 bd
       0.11356215 0.0020543593 0.07505464 -0.08088022
000040 e2 98 e3 bc 7b 6f 75 bc 7f ef 06 bd de d3 ae 3d
       -0.027782861 -0.014980192 -0.032943245 0.08536504
000050 d0 57 f4 3b 6f df c5 bc bb dd 32 bd 90 1b 73 3d
       0.007456757 -0.024154393 -0.04366849 0.059352458
000060 69 2c 27 3c 90 98 94 bd d6 08 80 3d 85 92 ca 3d
       0.010203459 -0.072556615 0.06251685 0.09891228
000070 de bf 62 3a 19 b9 1e bc 24 eb e6 bb b0 7f 84 ba
       0.0008649806 -0.009687685 -0.007047074 -0.0010108855
000080 ae ef c9 3c 7d a5 27 3c 29 e5 06 3d dd 98 18 bd
       0.024650421 0.010232327 0.032933388 -0.037255157
000090 dc 2a 1b bd 73 a1 d3 3b 38 c3 b1 3d b2 2b 6d 3d
       -0.03788267 0.006458455 0.08679813 0.057903
0000a0 b2 f0 21 3c 39 19 49 bd 70 ce c0 3d 12 2c 1a 3d
       0.009884046 -0.04909632 0.09414375 0.037639685
0000b0 c9 40 cd 3c 90 d6 ed bc 63 9b 5e bd 01 5f 8d 3c
       0.025055306 -0.029032975 -0.054347407 0.017257215
0000c0 1c e1 f2 bc bc 25 3a bd 2f 3d 98 bd 05 5c ce bc
       -0.029648356 -0.045446143 -0.07433545 -0.025190363
0000d0 8b 2d af 3d 99 38 da bb 88 dc 12 bb 00 5f 9c 3d
       0.085536085 -0.006659579 -0.002240928 0.07635307
0000e0 7f 93 68 3c 6e 45 39 bd 29 30 95 bd 76 af b4 bd
       0.014195322 -0.04523223 -0.072845764 -0.08822529
0000f0 3e cc 81 3c d2 bb a6 3d 9f 15 a0 bd e9 e6 97 3d
       0.01584446 0.08141293 -0.07816624 0.074170895
000100 cf 5b 90 3d a6 13 c6 3d 23 6e 35 bd dc 1f a8 3d
       0.07048761 0.096717164 -0.044294488 0.08209202
000110 8a ff 0c bd 77 81 10 bd 40 39 fc 3b f6 29 0c bc
       -0.03442339 -0.035279717 0.0076972544 -0.008554926
000120 c4 bf b1 3d a2 53 ab 3c b3 6d ce bd 7d 09 3a bd
       0.086791545 0.020913903 -0.10079517 -0.045419205
000130 02 f8 28 bd 20 0b 32 bd 3e 8a 28 bd 1a d5 cc 3c
       -0.041252144 -0.04346764 -0.041147463 0.025003958
000140 6d 10 9f 3d 91 4c 66 3d b0 80 1a 3c 14 50 87 3d
       0.07766805 0.056225363 0.009430096 0.066070706
000150 21 93 6d bd 97 ef 07 bc 08 f7 9a 3d a3 2c 98 3d
       -0.05800164 -0.008296869 0.07566649 0.07430389
000160 b1 34 bf 3d 79 33 07 bd e3 91 2b 3d 8f 3d 45 bd
       0.09336222 -0.033008073 0.041887175 -0.04815441
000170 83 df 8b 3d f6 2f bc 3d ff ec a8 bc 59 7e 7d bc
       0.06829741 0.09188835 -0.020620821 -0.015472018
000180 26 48 19 3d 6c 9e d8 3b cd 73 4e 3e 96 f6 c6 3c
       0.03742232 0.0066106822 0.20161362 0.024287503
000190 16 9b 95 3d ec bb af 3d d1 56 00 3e 0b de 3b 3d
       0.07304971 0.08580765 0.12533118 0.045866054
0001a0 cf 57 92 3d 18 f6 37 3d 7a 66 79 3d 65 37 a6 3d
       0.071456544 0.044912428 0.060888745 0.081160344
0001b0 d6 2e 5e bd 59 14 05 3d da 61 31 3d ca 6e d3 bd
       -0.054243885 0.03249011 0.04330621 -0.10323866
0001c0 40 1c 94 3d 29 55 cf 3d 91 1c 98 3d cd 26 aa 3d
       0.07231951 0.10123665 0.074273236 0.08308182
0001d0 f7 ae 37 3c fd b1 8d 3d 36 47 91 bd 46 15 dd bc
       0.011211148 0.06918714 -0.070936605 -0.026987683
0001e0 ab d5 b8 3d 83 c0 38 3d 1f 86 3f bd 0e 84 9e 3d
       0.09025129 0.04510547 -0.046758767 0.07740031
0001f0 6d 6c c5 bd 88 35 30 bd cf a2 a4 3d 8e b4 73 bb
       -0.09639821 -0.0430198 0.08038866 -0.0037186476

net.4.weight f4 [49, 128]
000000 cf dc 12 3d 59 78 b0 3d c7 e2 30 3a c6 a4 b6 bd
       0.03585511 0.086167045 0.00067476596 -0.08918147
000010 06 14 8e bc 4d ff 47 3d 40 af c7 3c e2 f1 44 bb
       -0.017343532 0.04882746 0.024375558 -0.00300514
000020 28 cd 30 bd 39 ee 10 39 15 d6 d2 bd 51 d9 d1 3b
       -0.043164402 0.00013821655 -0.10294739 0.00640408
000030 d5 2e 47 3d 44 df 1d 3d 49 a6 0e 3b ab e9 98 3d
       0.048628647 0.038543 0.0021766594 0.07466444
000040 06 8a bd 3d 6f d8 ed 3c ac c3 49 bd 1e 0a 26 bd
       0.092548415 0.029033868 -0.049258873 -0.040536992
000050 29 95 9a 3b 05 ab 0b bd 07 15 61 3d 79 58 96 3d
       0.0047174883 -0.034098644 0.054951694 0.073410936
000060 2a b7 79 bb c6 04 b5 3d 6c a0 b8 3d 75 42 1b 3d
       -0.003810356 0.08838801 0.09014973 0.037905175
000070 8d a8 46 bc 5c e8 64 bc 64 69 90 3c 65 73 95 3d
       -0.012125147 -0.013971414 0.01762838 0.072974004
000080 2f a1 a6 bd b7 32 8c bd 95 7a bd 3c 36 af 93 bd
       -0.08136212 -0.068456106 0.02312974 -0.07211153
000090 42 f9 a6 bc 70 4f d3 3c 2d 49 93 3c 7c 5f e6 3c
       -0.020382527 0.025794715 0.017979229 0.028121702
0000a0 85 fb a8 3d 79 5a 40 3d b3 6a a2 3d 69 a5 70 bd
       0.082510985 0.04696128 0.079305075 -0.058751497
0000b0 9f 9d 63 3d 4b 50 11 3c 60 b3 3c bb 77 a2 8f bd
       0.05557024 0.008869241 -0.002879344 -0.070134096
0000c0 e0 e6 64 bd df 81 c0 3c 0b 61 48 3d 9a b5 66 3d
       -0.055884242 0.023499427 0.048920672 0.056325532
0000d0 72 cc db bb 64 2e 8c 3d 11 96 13 bd d7 cf 0b bd
       -0.0067077214 0.06844786 -0.036031786 -0.03413376
0000e0 d8 86 74 3d 70 91 b3 bd 64 79 33 3d 22 e6 c4 3c
       0.05969891 -0.087679744 0.04381694 0.024035517
0000f0 d7 c2 d0 bb 9a b8 80 bd 5e d1 49 bd 10 e8 aa bc
       -0.006370883 -0.0628521 -0.049271934 -0.02086261
000100 85 bc 8b bd ca fc 53 3d ff ac bb bb 0c 8e 4f bd
       -0.068230666 0.05175475 -0.00572741 -0.050672576
000110 96 16 56 3d 63 6f 90 bc e8 92 04 bc be 68 b3 3c
       0.052267633 -0.017631238 -0.008091666 0.02190053
000120 6b a5 91 bd 17 68 a1 bd ae fb 18 3d 13 77 9e 3d
       -0.07111629 -0.07881182 0.037349395 0.07737555
000130 1b 59 89 3d 90 dd 81 3d b9 47 80 3d 7c e6 03 3d
       0.06706449 0.06341088 0.0626368 0.03220223
000140 8c 63 cb bb 34 38 a0 bd ea c4 a6 3d 03 96 e7 bb
       -0.0062069353 -0.0782322 0.08143027 -0.0070674433
000150 fb 03 2f bc 65 92 6b 3d 9a 89 14 3d c5 e0 7a 3d
       -0.010682101 0.05751266 0.03626404 0.061249513
000160 37 ab 2c 3c 18 6f 58 bd 5b 1a d3 bc 41 6e 42 bd
       0.010538868 -0.052840322 -0.025769403 -0.047468428
000170 56 fa 1f 3d b2 ba a8 3b a9 30 d3 3d 7b c2 3b bc
       0.0390571 0.005149209 0.103120156 -0.011459942
000180 2e ea f7 3c 15 74 00 bb f2 bb 01 3d 9a ee b8 bc
       0.030263033 -0.001960044 0.03167338 -0.022574712
000190 c7 92 43 3d 02 81 03 3d 3b 29 91 bc 52 cd 19 bb
       0.0477474 0.032105453 -0.017719856 -0.0023468328
0001a0 75 d9 0b bd 82 a6 4c 3d a7 bc a1 bd 69 cf 78 3c
       -0.03414293 0.04996348 -0.07897311 0.015186169
0001b0 66 ed 7e 3d 9d c2 85 39 aa 18 9c bc b7 4b 64 bb
       0.06223812 0.00025512735 -0.01905473 -0.0034835169
0001c0 56 6b 46 3d 67 3c 0b 3d d8 c3 94 3d 46 7c 2b 3d
       0.048442207 0.03399315 0.07263917 0.041866563
0001d0 b1 c0 10 bd 0d ad 83 bd ae 19 e9 bb b6 42 0e bc
       -0.035340015 -0.06429491 -0.007113657 -0.008682897
0001e0 a3 00 68 bc 5a be 39 3c c1 c7 9e 3d 63 23 4c bd
       -0.014160308 0.011336887 0.07752944 -0.049838435
0001f0 f4 0e 45 bd 54 9b 63 3d f6 e4 b6 3d ab 39 50 bd
       -0.048109964 0.055568054 0.089303896 -0.050836246
000200 b7 08 d1 3a 33 20 1d bd 4c 7c 9b bd 8e c1 9a bd
       0.0015948032 -0.038360786 -0.07592067 -0.07556449
000210 41 34 c1 3d d3 f9 be bc 4c 73 20 bd 53 0a 61 3d
       0.09433795 -0.023312485 -0.039172456 0.054941487
000220 65 70 9d 3d de f0 97 bd b4 09 48 bd 8d 23 8d 3d
       0.07687453 -0.07418989 -0.04883738 0.068915464
000230 75 bf 83 bd cc 95 83 3d a2 3a 9a bc a8 0b 88 3d
       -0.06433002 0.06425056 -0.018826786 0.06642848
000240 91 35 01 3d 4e 0e ca bd 5e 41 19 3d 90 79 88 3d
       0.031545226 -0.0986601 0.037415855 0.06663811
000250 ca ec 92 bc fc e3 a5 bd 45 4e 45 3d 01 83 3b 3d
       -0.017935175 -0.08100125 0.048170347 0.045779232
000260 87 ae 93 bd 98 d3 84 bd d1 d5 cd bc 00 4c 4b 3d
       -0.07211023 -0.06485671 -0.02512637 0.049633026
000270 09 d3 fb 3b 0d b0 9c bb 1e ec c4 bd c8 40 40 3d
       0.0076850695 -0.004781729 -0.09615348 0.04693678
000280 cd ec 07 39 2d 0a b1 bd dc ba 86 bc 78 8a 8c 3d
       0.00012962818 -0.08644519 -0.016446523 0.06862348
000290 1d f9 9a 3c 9a 61 7a bd 55 d6 84 3d 0f a8 9f bd
       0.018917615 -0.061128236 0.06486193 -0.077957265
0002a0 b0 f3 a1 bc 12 f4 78 bd 15 33 b4 3c bd 77 59 bd
       -0.01976952 -0.06077964 0.021997014 -0.053092707
0002b0 dd 0b 30 bd 00 0e dc bb 5d c6 5b bd ca 9c 28 3d
       -0.042980064 -0.006715536 -0.05365597 0.04116515
0002c0 88 8b a4 bd 55 2c 89 3d 8c 66 96 bd 1c 26 80 3d
       -0.08034426 0.06697909 -0.07343778 0.06257269
0002d0 38 6b d6 3d f2 00 3e bc 84 3c bf 3b 1b b3 34 bd
       0.10469669 -0.011596905 0.0058360714 -0.04411612
0002e0 40 2e 6c 3d 6e d5 d1 bc 31 0c 14 3c 75 49 2b 3d
       0.057661295 -0.025614467 0.00903611 0.0418181
0002f0 e9 8f 9e 3d 59 3b a9 bd 1c 21 43 bd 13 e1 83 bd
       0.077422924 -0.08263273 -0.047638997 -0.06439414
000300 34 2d 6c 3d 80 44 a8 bc 3e f0 15 bd 89 b4 0f 3a
       0.057660297 -0.020540476 -0.036606066 0.0005481919
000310 6c 4c 9a bc a4 9c bc bc 33 2a 46 bc 3b f6 64 bd
       -0.018835269 -0.02302391 -0.012095022 -0.055898886
000320 1f f0 84 ba d1 b9 7b 3d df f6 61 bd 4f d9 1a 3d
       -0.0010142362 0.061456505 -0.055167075 0.037804898
000330 4c c3 98 bc f8 19 5b bc 0c 27 9a bd b4 b3 99 bd
       -0.018647812 -0.013372891 -0.07526979 -0.07504979
000340 76 46 7a bd 2e 8c 69 bc 6e ca 9d bd bd 83 37 bd
       -0.061102353 -0.014254613 -0.07704626 -0.04480337
000350 2d 45 1f 3d 5f 5a a4 3b ae ed 15 bd f9 ad 47 3d
       0.03888433 0.005015656 -0.036603622 0.048749898
000360 7b 57 b6 3d 97 0d e5 3c 72 76 cc bc fb ff be bd
       0.08903404 0.027960582 -0.024958823 -0.09326168
000370 be 91 22 3d 01 40 4f 3d 98 37 04 bd 1c 9b 0c 3c
       0.03968977 0.05059815 -0.03227958 0.008581903
000380 5f 4d 81 bd b4 86 13 3d 20 5f 44 bd fc 61 cc bd
       -0.063135855 0.036017135 -0.04794228 -0.099796265
000390 39 44 1e bd 9c 2c 93 3c 07 b9 16 bd 19 4d 92 3d
       -0.03863928 0.017965607 -0.03679755 0.071436115
0003a0 b9 8d 6e 3d 80 f9 1e 3d 12 3f 80 bd db 18 a0 bd
       0.058240626 0.03881216 -0.0626203 -0.07817241
0003b0 61 b4 21 bc 2d df 4b bc 3d 0f 95 3d f1 96 89 bd
       -0.009869666 -0.012443346 0.07278297 -0.06718243
0003c0 1b 14 45 3d e4 5f 7a 3c 9e 40 81 3d 70 70 3a bd
       0.048114877 0.015281651 0.06311153 -0.045517385
0003d0 05 78 6d 3c fd 32 a6 3c 1e a1 69 bc b0 53 b4 bd
       0.014493947 0.020287985 -0.014259605 -0.088050246
0003e0 b2 58 91 3c 30 ea a7 bd 05 76 32 bd 85 a4 37 3d
       0.017742489 -0.081989646 -0.043569583 0.044834632
0003f0 8a b0 80 3d 6b 4c 64 bd 7c 09 ef 3c 64 b2 9b 3d
       0.06283672 -0.05573694 0.029179327 0.07602385

net.4.bias f4 [49]
000000 b3 fe 80 bd a7 db 3d bd dd 87 5a bd 87 c3 e4 3c
       -0.0629858 -0.046352055 -0.053352226 0.027925266
000010 eb ee 85 3d 99 45 fb 3c aa f9 5c 3d 3c 35 af 3c
       0.065397106 0.030672835 0.053949036 0.021387689
000020 20 f7 40 bd 82 a3 52 3d d9 b5 1c 3d eb 4b 63 3d
       -0.047110677 0.051425464 0.03825936 0.055492323
000030 53 d1 cd 3c e4 a7 a0 3d cc 6f 62 bd 35 7f 98 3d
       0.025124228 0.078445226 -0.0552824 0.07446138
000040 29 62 bf 3d 00 c4 a8 3d e5 c7 ad 3d ca 32 d3 3a
       0.093448944 0.08240509 0.084853925 0.0016113159
000050 3e be ac bc 70 f9 0e 3d 09 e2 08 bd 73 6a 74 3c
       -0.021086808 0.03490585 -0.03341869 0.014917958
000060 d5 f6 98 bd 40 47 2c bd 15 f6 d7 3c 23 55 66 3d
       -0.074689545 -0.042060137 0.026362458 0.056233536
000070 dc 24 c0 3d 39 02 26 3d 71 de 6f bd 30 fb e9 3d
       0.0938203 0.040529463 -0.058561746 0.11424863
000080 7c 2b d6 3d 9e fa c2 bd af 82 a4 3d 58 11 55 bd
       0.10457513 -0.09520458 0.080327384 -0.052018493
000090 e4 0f 4e bd a7 0d 9d 3d a8 00 83 3d 18 8a 51 3d
       -0.050308123 0.076686196 0.063966095 0.051157087
0000a0 f7 12 67 bd e1 2d 1d bd cd e6 8c bc 41 82 85 3d
       -0.05641457 -0.03837383 -0.017199898 0.065189846
0000b0 c1 db 52 3d 5e 3f 5c 3d f0 40 0d be a6 a2 3c bd
       0.051479105 0.05377137 -0.13794303 -0.04605355
0000c0 58 54 b3 3d
       0.08756322
