MeL-ODE_high_epochs.pt (torch, 27749 bytes, 6 tensors)

net.0.weight f4 [64, 4]
00000000: 05dd d03e 7e6f 00bf aa2e 793e 3e33 073e
00000010: 1784 cb3e 133b febe 7708 1dbe d64b 5ebe
00000020: f5d3 d73e 911d 0d3e 4df0 a03e ec9a debe
00000030: cc81 32be 080c cd3e 468f b3bd 25e6 a43d
00000040: 48b7 973e 95f9 4ebc 4dc7 033d 659e 553e
00000050: 19be 0c3f 8de0 d23d dd19 bfbe 03de fabc
00000060: ad82 953e 2ace e13e ca62 4bbe 4c7e debe
00000070: 23c2 35be c96e fc3e db4a 24be 1262 c4bd
00000080: 2050 47be 8687 aa3e 2598 8d3d e86b 90be
00000090: b938 533e 3ce5 a93d b628 083e cf43 af3e
000000a0: e1b8 8a3e e789 1f3e 869c 3abe ac1f d2be
000000b0: cd72 033c 844a cd3d 4e1c 013e a7eb ea3e
000000c0: ee12 d7bd 57f4 0abc 1e3b dfbd ca7f 2fbe
000000d0: d027 c13c 127a 84bc 72bb de3d d785 8fbe
000000e0: 20d4 a63e f115 683d 546d fa3d 5689 4b3e
000000f0: 1c9d 7fbd f3e0 7dbd 1313 9b3e bb74 d8be
00000100: 7c66 d43e 37f0 09bf 3925 b8be a96a 783e
00000110: 0934 6c3e f820 a63e bb03 5a3e 6f78 c5be
00000120: 34f4 c4be 3ac8 f6be b6b1 9f3e bece 63be
00000130: 34d1 e13e 59be a53e 5cf4 c93e ce2c 35bd
00000140: f8ae 0a3f 5d5c 50be b373 673e 74f7 9f3e
00000150: bfaf 5abe 693a 213e e8b4 4e3e 5951 4ebd
00000160: f38f e03e 9ba0 bfbe a4f8 c83e 4383 a8bd
00000170: 01f9 bdbe 078b 9abe ad44 333c 5928 693d
00000180: 4d1c debd 17f5 d73e 282b c53e 252c 933e
00000190: f285 a13e 5047 d9be fd5c c53e c1dc 9ebe
000001a0: ded1 6d3d 062d e23e f678 103e acee cfbe
000001b0: fa78 cdbd f2a4 e5be 116e 53bd bb0e 163e
000001c0: a72e 023f aa1b c4be e644 6c3e c606 de3d
000001d0: ea2c b3be 004e 8ebe b112 e6be b14a d13d
000001e0: 5f67 d03e 1bd5 b83e 97a3 ad3e 1dae 82be
000001f0: 34d9 9d3e f844 323e 4604 9f3b 36bf 00bf
00000200: 2c9d 35be 671a cc3e b608 a93e 679a 61be
00000210: be08 bcbe fb85 8a3e d01a 72bd a84c d33d
00000220: d50b dbbe d976 ed3e 6a05 c23e 8ac8 b2be
00000230: 267b cb3e 1112 cbbd ed80 2bbe 38ae eb3e
00000240: cd04 f5be 3ee7 883e ccb9 b13e bdc3 78be
00000250: ad4a e3bd f5c2 953e b73d c53e 9bbc 0abd
00000260: c302 0dbe 5d9d 06be 1d86 6d3e b9a0 0bbe
00000270: 7ed2 9f3d c2ec 063f 0626 f1bc 65bc 05be
00000280: f579 743c b071 223d c547 153e 42e4 e9be
00000290: e92d ddbc bc84 503e d929 1ebc e108 03bf
000002a0: c4e4 8fbe d73d 81be c891 d23e 3c28 d4be
000002b0: e2f5 82be 3f7d 71be 2ed6 e33e 598b b1bd
000002c0: 5a3c 3cbe e6aa 213d 1b4d d33e 1da5 a63e
000002d0: 7b79 0dbf d4b0 e6be 8f71 093d 857b ed3e
000002e0: 1162 963e b68c e9be 6918 bebe 3b8d 593c
000002f0: 60b5 c1be 6447 c1be 3163 a3be 4040 46be
00000300: 0ba2 d2be bf4a cebe e845 d43e 16e4 41be
00000310: 32fb cb3e 895b c73d c18e 4fbe 8021 eabc
00000320: 968c 583e f99f cd3e 1d32 493e 9b7e 983e
00000330: 79aa edbe 8a7f 033f 2f78 043e f9bd dd3e
00000340: 3a91 db3e 06e9 b33e 8037 44be 91d1 1e3d
00000350: 8e8e 38be ae2e debe af3b 02bf a45a 8f3e
00000360: 4274 e6be 3442 12bf 66a0 d93e ba2a 73bd
00000370: bc8e 85be 3fd8 a3be 7cb7 b93e b6f3 b53e
00000380: a61d f7be d646 33be 7a3d a5be e2cb f43e
00000390: c5e6 9dbe 3fe9 03bf 3bb1 27bd 73a9 02bf
000003a0: 420f 55bd 33aa 013e 1bed c23d fda2 7bbe
000003b0: 6109 823e 5924 cebe 2aa3 443e 1101 60be
000003c0: 84ec a73d 5ea1 903e 765a b6be caf8 e1be
000003d0: 7d98 fb3e 4ac8 283e ee89 983e 06a6 c53e
000003e0: 7d2b 42be 6d6a 42be 74af d93d 5032 c03e
000003f0: 8476 00bf 2a43 f3be 1fde 803e 452a 9a3e
0.40793625 -0.50170124 0.24334207 0.13203141 0.39749214 -0.49654445 -0.1533526 -0.21708617
0.42153898 0.1378081 0.31433335 -0.4347757 -0.17432326 0.40048242 -0.087675616 0.08051709
0.2963202 -0.012632747 0.03217249 0.20861204 0.54977566 0.10296736 -0.3732442 -0.030623442
0.2920126 0.44102603 -0.19861904 -0.43455732 -0.17749839 0.49303272 -0.1604418 -0.09589018
-0.19464159 0.3330652 0.06913785 -0.28207326 0.20627107 0.08295676 0.1329678 0.3423142
0.27094176 0.1557995 -0.18223771 -0.4103979 0.008022976 0.10023978 0.12608454 0.45882913
-0.105016574 -0.008481107 -0.108999476 -0.17138591 0.023578554 -0.016171489 0.10875596 -0.280318
0.32583714 0.05666155 0.12227884 0.19876608 -0.06240569 -0.061982106 0.3028799 -0.42276558
0.4148444 -0.53882164 -0.359659 0.24259438 0.23066725 0.32447028 0.21290486 -0.38568446
-0.38467562 -0.48199636 0.3119027 -0.22246835 0.44104922 0.32371786 0.39444244 -0.044232182
0.5417323 -0.20347734 0.2260273 0.3124348 -0.21356104 0.15744938 0.20186198 -0.050370548
0.43859825 -0.3742722 0.39252198 -0.08228161 -0.37104037 -0.30184194 0.010941667 0.056923244
-0.10845242 0.42179176 0.38509488 0.28744617 0.31547505 -0.4243722 0.38547507 -0.31027797
0.058061473 0.44174975 0.14108643 -0.4061178 -0.1003284 -0.44852406 -0.05161864 0.14654057
0.50852436 -0.38302356 0.23073158 0.10841136 -0.34995204 -0.27793884 -0.44936135 0.102193244
0.40703866 0.36100087 0.33913872 -0.25523463 0.30829775 0.17409122 0.0048528044 -0.50291765
-0.17735738 0.39863893 0.33014458 -0.22031556 -0.3672542 0.27055344 -0.0591076 0.103173554
-0.42782465 0.46379736 0.37894756 -0.34918624 0.39742392 -0.09915555 -0.167484 0.46031356
-0.47855225 0.26738924 0.34712064 -0.24293418 -0.11098228 0.29250303 0.38523647 -0.033871274
-0.13770585 -0.13145967 0.23195691 -0.1363553 0.0780382 0.52705014 -0.029437076 -0.13060148
0.014921655 0.039659202 0.14578159 -0.4568196 -0.02699943 0.20363134 -0.009653532 -0.51185423
-0.28104222 -0.25242493 0.41126847 -0.41436946 -0.2557822 -0.23582934 0.44499344 -0.086691566
-0.18382397 0.039469622 0.41269764 0.32547846 -0.5526349 -0.45056784 0.033555564 0.463833
0.29371694 -0.45615166 -0.37127998 0.013278301 -0.3783369 -0.3774978 -0.31911615 -0.19360447
-0.41139254 -0.40291402 0.41459584 -0.18934664 0.39840084 0.09734256 -0.202693 -0.028580427
0.2114738 0.40161112 0.19648023 0.29784092 -0.46419123 0.51366484 0.12936471 0.43309
0.42884237 0.3513872 -0.19161797 0.038774077 -0.1802313 -0.4339499 -0.5087232 0.2799884
-0.45010573 -0.5713227 0.42505187 -0.05936692 -0.2608546 -0.3200092 0.362728 0.355375
-0.48264807 -0.1750749 -0.32273465 0.478118 -0.30840126 -0.5152778 -0.040940505 -0.5103981
-0.052016504 0.12662582 0.095178805 -0.24573894 0.2539778 -0.40262106 0.19202867 -0.21875407
0.08199409 0.28248113 -0.3561589 -0.44135123 0.49139777 0.16482654 0.29792732 0.38603228
-0.18961902 -0.1898591 0.10629168 0.37538385 -0.5018084 -0.4751218 0.25169465 0.30110374

net.0.bias f4 [64]
00000000: 660e c93e baaf 9ebe aa50 fabe b5cd 1c3e
00000010: 7c32 d03b eedd 0f3e 5ad1 143f a7c5 c23e
00000020: dd89 1cbe b797 e8be cccd a8bc 4e69 e83e
00000030: 3e43 62be 0a97 34be cb54 0b3f 124d 753e
00000040: 88e6 dd3d 6733 a4bd bbc7 083d 3b3a f93e
00000050: 2889 8dbe 6265 f2be a6e8 b1be 0319 193f
00000060: bc27 a63e 76b0 91be 610f e4be 42b2 033f
00000070: ef7f ba3e cf8d 353c dd99 bc3e b4b3 d6bd
00000080: b135 123c 53d7 213f 071b 80be 5475 b3be
00000090: 8d51 50be 2fd2 84be dca6 57bd 5ead 8a3e
000000a0: 994b a73e cb52 29be 4134 de3d 34fc 563e
000000b0: 216a 003f 5bf3 a73e ccf4 a5bd aa7a 043f
000000c0: c2c2 333e e0fb 993e 5a1a d8be cda5 84be
000000d0: dafc 2fbe 6c35 9dbe 89db 7dbc c3dc efbe
000000e0: dbd4 e9be a116 cf3e dcfb 1c3f 10a6 b23d
000000f0: b6d5 b63e 1cd4 e13e f1a0 ae3e 5ac6 623d
0.39268798 -0.30993444 -0.48889667 0.15312846 0.0063536745 0.14049503 0.58131945 0.38041422
-0.15286966 -0.4542825 -0.020605944 0.4539284 -0.22095963 -0.17635742 0.5442626 0.23955181
0.10834986 -0.08017617 0.033393603 0.4867724 -0.27643704 -0.47342974 -0.3474781 0.5980379
0.3245219 -0.28454942 -0.44542983 0.51443875 0.3642573 0.011081173 0.36836138 -0.104834944
0.008923934 0.63219184 -0.2502062 -0.35050452 -0.20343609 -0.25941607 -0.052649364 0.27085394
0.32674864 -0.1653549 0.108498104 0.20994645 0.5016194 0.32802853 -0.08103332 0.5174967
0.17554763 0.30074978 -0.42207605 -0.25907746 -0.17186299 -0.3070482 -0.015494236 -0.46848115
-0.45670208 0.40446952 0.61321807 0.0872308 0.35709924 0.4410714 0.34107164 0.055364944

net.2.weight f4 [64, 64]
00000000: a875 fc3d 378b ed3c 5bed 8ebd 4390 c43d
00000010: 861b 9a3d d8a4 133d cf9e 4bbd d879 b7bc
00000020: e96a 72bd 2e6b 263c c67f 89bd 0872 04bd
00000030: a41f 95bd e31d 833c 85f6 e63d b468 893d
00000040: 65bf 0e39 98dd a83d e292 2abd 14eb c7bc
00000050: 70e3 48bd 18fe aebd 4ddd dbbc 078a fa3d
00000060: c6ae b23c f2c3 e0bd 5722 2c3c 9dfd ec3d
00000070: 9f2f 48bd 709f bd3d af20 1fbd fd51 333c
00000080: fe66 823c 8a56 4b3e b105 513d 417b 3b3d
00000090: f34c 1b3d 394c ad3d 3e76 eebd 0aec 1f3e
000000a0: ba95 91bc f268 6c3d ecc4 563d fcd7 97bd
000000b0: 73c5 c53d 3529 293c 172c 573b a15b 853c
000000c0: 8219 873d 25ee c9bd ad60 143d eb5f 203d
000000d0: 84f8 1c3b c395 323d 7f0a b23c 4778 a0bd
000000e0: 578b 943d 2b38 cc3c ba16 7b3d 280d b2bd
000000f0: 82fa 02bc 5878 b7bd 001f 0f3e bb8a 0d3e
00000100: 1395 813d b17f de3d 043a e9bd a658 5e3e
00000110: f07b 8f3c ed7f 10be f5eb 06bd 8f6d 093e
00000120: 5624 dc3d 1532 f2bd d1dd c7bd 0677 da3c
00000130: 44a0 3c3c 23e2 b93d 4115 9d3d 8a1a e13d
00000140: f1d1 13be 87ca 123e 251a 233d 4bbd d63d
00000150: 6f32 97bd 980b 0bbe b7fc c03d 9f83 433d
00000160: 69c5 a5bc a10e e03d 159b b03d f80d d4bd
00000170: 8abe 16bd 6d03 b63d d09b a7bd 30fd dfbd
00000180: 2be3 75bd f71a 3b3e 4b69 d23d 075f 2dbd
00000190: d787 99bd 4124 f83c c082 b6bd 422d 41bd
000001a0: 1bfd fabc 69b6 2ebd cb93 73bc 6775 bf3c
000001b0: bc15 96bc f9ae e53d 00a1 27be 8418 3b3d
000001c0: e761 4e3d 9dac c03d d7c5 8e3d 0bae 983c
000001d0: 02aa 1dbc 575b 3ebc 36fe 00bb d9a5 d4bd
000001e0: 3fa5 9cbc 6904 033e 1ceb 85bd 5e73 1ebd
000001f0: d131 02bd 3e70 d43d 47a9 243d 2709 c53d
00000200: 83ac e0bc 7862 90bd a9ed 643d 1565 2f3e
00000210: 2278 3dbe 80e6 b93c 6bae 143d 6e44 023b
00000220: 069d 9b3d e833 4c3d e963 fbbd 3957 8abd
00000230: 926f 0c3a 29a1 62bd 6126 b5be dc3c c83d
00000240: 8a0c ffbd c740 89bd e6aa 34bd 7798 073e
00000250: d7e5 ff3c c55a 10bd 0c03 993d 3ad9 8c3d
00000260: cdf6 0bbe 88ee 09bd d589 e3bc d483 bc3b
00000270: 0fa1 a5bd 5bbb e93c 2db6 a33d c4a6 99bd
00000280: 66e9 5abd 0a06 1a3d 346f 813c 4be5 65bd
00000290: 92ed 43bd 9cf2 df3b 6575 273d 61af 14be
000002a0: bb9c 7ebd 7208 2cbc bf96 be3d e4e3 623c
000002b0: 06af 5f3d f88e 003e 9b46 b23c cdf6 c53d
000002c0: c032 ccbc ab8e 91bc f026 0bbc 90af abbd
000002d0: dba9 45be 5537 153d 68ce 18be 6568 f2bd
000002e0: 3af7 183d 35f8 be3d dc23 b3bd a504 94bd
000002f0: 6932 ec3d c1c2 61be 0b96 d5bd caec 57bd
00000300: d597 a43d 3426 d83d dc82 84bd 1f48 1b3e
00000310: 865c 9dbd 0625 1a3e e99c b7bd 32ca 0cbd
00000320: d2d8 a7bd e1d9 a63d c1b6 a83d 8b02 603d
00000330: 1ee1 07be a10d a2bd a5b8 833d d58e 103e
00000340: febc c73d 2c1c 8b3d 8c76 e1bd 4a3c 853c
00000350: 5782 c7bd c565 63bd 2e76 143d 4ed4 9b3d
00000360: 7ff8 94bd 5dca 80bd f1ec 3e3d ae82 8abd
00000370: e42e 183d bdae b8bd d80b d9bc bedd bd3d
00000380: 4874 513d 9c43 873d 854d cdbc a464 76bd
00000390: d69b 13bd cdd1 fcbc 0a3f 063e 0a8c 6d3c
000003a0: 9c85 8cbd ccc2 a73c 7995 473c 1b5e b13d
000003b0: c4ec a83d ec67 b1bd 6fc6 bd3d 0c14 bdbd
000003c0: e2f8 4fbd 4b48 fbbc 4c92 c1bd 0d34 97bb
000003d0: f754 003d 1515 c7bd 5850 afbd 6b45 d2bd
000003e0: 3d27 d9bd 9988 933d fa9d aa3d b9cd c33d
000003f0: 51b6 ab3d cd62 e43d da96 c53d 2592 c13d
0.12327129 0.028997047 -0.06978866 0.09597828 0.07524781 0.03604588 -0.049712 -0.022396967
-0.05918399 0.01015739 -0.06713824 -0.03233531 -0.072814256 0.016005462 0.112774886 0.06709424
0.00013613475 0.08245391 -0.041643985 -0.024404086 -0.049045026 -0.08544558 -0.026838923 0.12233358
0.021811854 -0.109748736 0.010506234 0.115718104 -0.04887354 0.09258926 -0.03884953 0.0109448405
0.015918251 0.19857231 0.05103082 0.04577184 0.03791518 0.08461804 -0.11643647 0.15617386
-0.01777159 0.05771727 0.052433893 -0.074142426 0.09656801 0.010324766 0.0032832676 0.016279044
0.06596662 -0.098598756 0.03622501 0.039153975 0.0023951838 0.043599855 0.02173352 -0.07835441
0.072531395 0.024929127 0.06130097 -0.086939156 -0.007994296 -0.089585006 0.1397667 0.13822453
0.06327262 0.10864199 -0.11388019 0.21713504 0.017515153 -0.141113 -0.03293987 0.134207
0.10749118 -0.11825959 -0.09759105 0.026668083 0.01151282 0.09076335 0.076700695 0.1099139
-0.14435555 0.1433507 0.039819855 0.104853235 -0.07382666 -0.13578641 0.094232015 0.047732946
-0.020235734 0.1094029 0.086233296 -0.10354227 -0.036802806 0.08887372 -0.08184016 -0.109369636
-0.060031097 0.18272005 0.10273989 -0.042326953 -0.074966125 0.030290725 -0.08911657 -0.0471623
-0.030638268 -0.04265443 -0.01486678 0.023371411 -0.01832091 0.11215014 -0.1637001 0.045677677
0.050386336 0.09407923 0.06971329 0.018637678 -0.009623053 -0.011618457 -0.0019682772 -0.103831954
-0.019121764 0.12794651 -0.06538984 -0.03868424 -0.03178579 0.10372971 0.040200498 0.09620886
-0.02742601 -0.070500314 0.055890713 0.17128403 -0.18502858 0.022692919 0.03629915 0.0019877213
0.07598309 0.04985419 -0.12274916 -0.06754918 0.00053572014 -0.055329476 -0.35380843 0.09777233
-0.124535635 -0.067018084 -0.044108294 0.13241754 0.031237526 -0.035242815 0.07471284 0.0687737
-0.13668366 -0.033674747 -0.027775684 0.00575302 -0.0808736 0.02853172 0.07993732 -0.07502511
-0.053445242 0.037603416 0.015800096 -0.056126874 -0.047833987 0.006834341 0.04088344 -0.14520027
-0.06216119 -0.01050006 0.09306096 0.013848279 0.054610275 0.12554538 0.021762183 0.09666214
-0.024926543 -0.017768225 -0.00849317 -0.08383095 -0.19303076 0.03642972 -0.14922488 -0.11836318
0.03734515 0.093246855 -0.08747074 -0.072274484 0.115330525 -0.22046949 -0.10429009 -0.052716054
0.08036772 0.10554162 -0.06470272 0.15164231 -0.07683663 0.15053186 -0.08965475 -0.034372516
-0.08195652 0.08147026 0.082379825 0.054689925 -0.13269469 -0.07912756 0.064317025 0.14116986
0.09752844 0.06792483 -0.11008939 0.0162641 -0.09741657 -0.055516977 0.036245517 0.07608853
-0.07273959 -0.06288598 0.046612684 -0.067632064 0.037154093 -0.09017704 -0.026494905 0.092708096
0.051136285 0.06604692 -0.025061378 -0.060154572 -0.03603729 -0.03086176 0.13109985 0.01449872
-0.068614215 0.020478629 0.012181633 0.08660527 0.082482845 -0.086624 0.09266364 -0.09232339
-0.050774463 -0.03067412 -0.09451732 -0.0046143592 0.03133103 -0.09720818 -0.08560246 -0.10267147
-0.10603187 0.07203788 0.08330913 0.09560723 0.083843835 0.11151657 0.09647913 0.09451703

net.2.bias f4 [64]
00000000: 1b6f 9a3d 1e0a f03d e002 db3d 05a8 cc3c
00000010: 408c 263c 7e9e 98bd abf1 2fbe 31e5 b2bd
00000020: 542e 723e 27a9 593c 75f5 ea3c b441 2bbd
00000030: 844b 9b3d 1d11 11bd 4d88 463e 821e 733d
00000040: 1cd1 1cbe af81 1bbd 44f0 d63d 682f 303d
00000050: dd21 ba3d eeeb 06bd 00c1 563d 93b9 50bd
00000060: 597a 2a3d 53e4 c93c b019 083e 66c0 a83d
00000070: 6d2f e8bd 7d90 4bbd 750a 973d 4e62 2b3e
00000080: 3ac7 15bc 420b 01be 7c17 e4bd cd91 c63d
00000090: b879 103e 89fa 16be 5997 5e3d 82b7 343e
000000a0: c42e 003e d8ea 013e 2bd2 a83d 1fd3 403e
000000b0: c7be a8bc 0e73 ccbc 1136 223e 9bfd 11bd
000000c0: 07d3 1fbe e309 8ebd b01f a6bd 11f1 6c3d
000000d0: 9c92 3fbd 05b9 0b3d 0dc8 50be 6abf 893c
000000e0: fa02 2b3d a597 113d bf46 e53d 56f7 623d
000000f0: 6b14 173e efb7 533e 21a4 a33d b5e3 ed3d
0.07540723 0.1172068 0.10693908 0.024982462 0.010165274 -0.07452105 -0.17182033 -0.08735121
0.23650485 0.013284958 0.028681496 -0.041810706 0.07582763 -0.03541671 0.19387932 0.059355266
-0.15314144 -0.037965473 0.10495046 0.04301396 0.0908849 -0.032939844 0.052430153 -0.050958227
0.041620586 0.024645006 0.13291049 0.08239822 -0.11337171 -0.04969834 0.073750414 0.16736719
-0.009141738 -0.12601951 -0.11137292 0.09695778 0.14108932 -0.14744009 0.054343555 0.17648128
0.1251784 0.12687242 0.08243211 0.18830536 -0.020598782 -0.024957206 0.15840937 -0.035642248
-0.15607844 -0.069354795 -0.08111513 0.057847086 -0.046770677 0.034111995 -0.20388813 0.016814906
0.041750886 0.03554501 0.11195134 0.05541166 0.14753883 0.20675634 0.079902895 0.11615697

net.4.weight f4 [25, 64]
00000000: f2f7 e53d b6ee b43d ea3c c83c a6b7 c63d
00000010: 4452 b53d dbd1 99bd 8510 34be 0ec8 d5bd
00000020: e14d ff3d 5975 b43d e732 2d3d 0545 183d
00000030: d0d9 613c 91b0 dd3d 4602 733d 56d1 9d3c
00000040: 4f5c 92bc e970 90bd b790 c2bd da78 9fbd
00000050: 4cf7 f1bc 4131 4fbd 66be ea3d 5524 f2bd
00000060: f39b b5bd 8323 05be b1de 10bd da2a 8fbc
00000070: 846a 1b3c 8110 debd bab0 983d 7c45 783d
00000080: c74d 0f3d fc1c ecbd 1c03 d5bd df88 263d
00000090: 2872 923d e964 363c 59c0 0d3e afd7 a13d
000000a0: 8ff3 81bd 38ae 14bd 54e0 a43d 100d 84bc
000000b0: 7e19 513d 5c04 7f3d cfa8 bf3d 1206 d83d
000000c0: ef40 3b3c 219a 47bc 702d 5fbc dea3 80bd
000000d0: 906c 73bc 29c2 a2bd b954 fb3c f36d 3fbd
000000e0: d016 eabd 0549 a83d 31b6 ed3b 7e06 573d
000000f0: 4c75 713d 99df 053e d2f8 34bd 44cc 003e
00000100: e922 61bd d4c9 743d d7c0 f43b c2d9 f5bd
00000110: 181e dc3c 8bf4 c3bb b8b3 f93c acfe 6bbb
00000120: 3593 88bd 893b a9bd 79af c4bc 54fd dcbd
00000130: 7624 b2bd b3d8 d13d fd1e 2b3d 89aa c83d
00000140: 5f6f 2f3d 0693 c4bc 74b2 94bd 51cf 1c3d
00000150: 2fdb c9bd 6fa2 bd3c b25e e2bd a6f6 8bbd
00000160: cfaa 3ebd f1fd a53d e966 473d e13e 8dbd
00000170: a15c 23bd a93a d8bd 2e0d d6bb 2062 0d3e
00000180: c15e a9bd 9a43 bbbd c7fb b7bd 6bf6 d73d
00000190: 7b7e aa3d d5fb 773d fc5a d03d 1b81 9d3d
000001a0: 6216 bc3d a9c2 f5bc d3c5 9d3d 0ef1 0bbc
000001b0: 02fd 823d d919 ed3d 9528 9f3d b945 2d3d
000001c0: f9c7 4abd 5e54 04be 458b cebd 2c66 d53d
000001d0: 8064 d73a ac22 a63d 35fb dbbd 6b32 b93c
000001e0: 6724 f63d 38ba 263e 3a10 32bd 47cc 7a3d
000001f0: f3b2 d9bd 92ef 4abc 2d8f 16bd 750d f2bd
00000200: 0a64 2ebd ef03 b43c 9b0c 22bd a7c0 863c
00000210: 7089 aabd c3c1 b83d ae46 8cbc d271 40bd
00000220: 7947 c0bd 2cce 88bd 87ba 93bd 7fb7 c03d
00000230: 0802 b0bd 8b79 003e 5aa5 073e e5d3 a0bd
00000240: de71 003e d6a5 e83d 207d 403d 49d1 1ebe
00000250: e40d cebb d3c9 903d 7afe cabd c614 a3bd
00000260: fa1c b7bd d6a0 e0bd 091b 9c3b 55cf 1b3d
00000270: f625 f5bc 3f9d adbd 5db8 c8bd 157a 2a3e
00000280: 31ba db3d b017 7a3d 0238 293d 35ec 853d
00000290: e90a b63d a0ba c4bd 168d bf3d 2a72 e13d
000002a0: f817 f03b f98f e7bd d361 d23c 9029 96bd
000002b0: 194d b5bd 2e88 143d bc0d b83b b74c cc3d
000002c0: 212b abbd b7bd fabd b2e9 813d 5a50 c53d
000002d0: 42c9 f7bd 72d6 a8bd 89aa 433d d076 4f3d
000002e0: 5a01 593d d673 bebd 7c66 563d 90fe 5ebc
000002f0: c768 4abc 90fb 2c3d 147a b1bd 67f1 bf3d
00000300: 7672 93bc e52e e63d 5dc4 b83d d89f b0bd
00000310: dceb 063d c2ad 23bd 0a6d 00be 25f8 263d
00000320: 9125 8d3d d53c 5ebc 6ac1 b33d 16b9 c33d
00000330: f065 513d f82b ff3d 18e0 2b3e 1360 c03d
00000340: 7665 96bd d4b9 a8bd e78c 8bbd d40c d53c
00000350: dbb6 ebbb 7641 b5bd d43d 273d ed3f 01bd
00000360: bbf2 c13d 43f6 ab3c f14d 043d 8da9 7a3d
00000370: c5fb 0b3e 86f3 94bd 8016 2b3c 13ee 9bbd
00000380: e721 89bd 60e6 e7bd 8b06 333d 2c0c c73d
00000390: 81c7 04be 3c99 24bd bc5e 09bd 73ca c23d
000003a0: fe44 c9bd 3309 8d3d 2db6 d1ba 7b03 01be
000003b0: da49 a7bd 879d d83d dbbe fb3d 1a2e 093e
000003c0: ce5a 30be 60c8 87bd 56aa b5bd 2a8e f93d
000003d0: d276 cf3d b7f0 0bbc af29 bb3d cb38 48bd
000003e0: 7e8b 81bd 0a0b 2d3c fad1 17bd cc1b 1bbd
000003f0: ace0 733d 830e 6e3d f300 8dbd 33c0 75bd
0.112289324 0.08834593 0.024443109 0.09702997 0.088535815 -0.0751073 -0.17584427 -0.10438548
0.12466026 0.08811445 0.042284872 0.037175197 0.013784841 0.10824693 0.05932834 0.019264858
-0.017866282 -0.07052786 -0.095002584 -0.077867225 -0.029536866 -0.05058408 0.11462097 -0.11823336
-0.088676356 -0.13001828 -0.035368625 -0.017476488 0.0094858445 -0.108429916 0.07455583 0.06061314
0.034986284 -0.11528966 -0.10400984 0.040657874 0.0715068 0.011132457 0.13842906 0.079024665
-0.06345283 -0.03629896 0.080506 -0.01611951 0.051049702 0.062260017 0.093583696 0.10548033
0.011429056 -0.012182743 -0.013621673 -0.06281255 -0.014857426 -0.07947189 0.030680047 -0.046735715
-0.114301324 0.08217052 0.007254385 0.052496426 0.058949754 0.13073577 -0.044182606 0.12577921
-0.054964934 0.05976279 0.0074692774 -0.12004425 0.026869819 -0.0059800795 0.030481204 -0.003600995
-0.066687025 -0.082633086 -0.024009453 -0.10790506 -0.086983606 0.1024641 0.0417776 0.09798152
0.04283082 -0.023995887 -0.072606 0.03828365 -0.09856259 0.023148743 -0.11053218 -0.06834154
-0.046549615 0.08105076 0.048682127 -0.06896759 -0.03988326 -0.105580635 -0.006532333 0.13806963
-0.08270026 -0.09143753 -0.089835696 0.105450474 0.083249055 0.0605429 0.10173604 0.076906405
0.09183957 -0.030000048 0.077037476 -0.008541359 0.06395914 0.11577196 0.07771412 0.04230282
-0.049507115 -0.12922809 -0.10085157 0.10419878 0.001643315 0.08112082 -0.10741273 0.022607049
0.12018662 0.16281974 -0.043472506 0.06122997 -0.10629835 -0.01238622 -0.036757637 -0.11818973
-0.042575873 0.021974532 -0.039562803 0.016449286 -0.083269954 0.09021332 -0.017123546 -0.046983548
-0.09388632 -0.06679949 -0.07213312 0.09409999 -0.085941374 0.12546365 0.1324667 -0.07852916
0.12543437 0.11359756 0.04699433 -0.15509523 -0.006288277 0.07069745 -0.09911819 -0.079629466
-0.08941074 -0.10968177 0.004763965 0.038039524 -0.029925328 -0.08477258 -0.098007895 0.16648133
0.107288726 0.061057746 0.04131318 0.065391935 0.088888 -0.096059084 0.09353082 0.11008103
0.007327076 -0.113067575 0.025681412 -0.07332146 -0.08852596 0.036262684 0.0056168716 0.0997557
-0.083578356 -0.122432165 0.06343402 0.096344665 -0.12098934 -0.08244027 0.047770057 0.050650418
0.052979805 -0.09299438 0.05234383 -0.013610497 -0.012354082 0.042232096 -0.08665863 0.09372216
-0.017998915 0.11239413 0.09021828 -0.08624238 0.032939777 -0.03996063 -0.12541595 0.040763993
0.06891931 -0.013564308 0.08777125 0.09556787 0.051122606 0.12459558 0.16784704 0.09393325
-0.07343571 -0.08238569 -0.06813984 0.026007093 -0.007193429 -0.08850376 0.04083045 -0.031555105
0.09470125 0.02099145 0.032300893 0.061196852 0.13670261 -0.07273011 0.010442376 -0.076137684
-0.066959195 -0.113232374 0.04370741 0.097191185 -0.1296673 -0.0401852 -0.03353761 0.095112704
-0.09827612 0.0688652 -0.0015999727 -0.12598984 -0.08168383 0.10576921 0.12292262 0.13396493
-0.17222139 -0.066300154 -0.088703796 0.12185319 0.10130085 -0.008541278 0.0913881 -0.048882287
-0.06325434 0.010561714 -0.037065484 -0.037868306 0.059540436 0.05811931 -0.06884947 -0.05999775

net.4.bias f4 [25]
00000000: f2a9 6c3d e48f ec3d c9e8 ac3d 3fdb 193e
00000010: 1304 f93d e0fd 133e eaf6 aabd 6412 b2bd
00000020: 9a98 be3d 8e4a 4d3e 6456 333d 5fa4 80bd
00000030: cfce da3d b457 c93d f6bf aabd f298 073e
00000040: 1b69 f4bd a6f4 ebbd 76b4 a03e 85cd 503d
00000050: 99fd 9cbd e11a d5bd d154 b73c 06c0 ce3d
00000060: 497e a6bd
0.05777926 0.115508825 0.08442838 0.15025042 0.1215898 0.14452314 -0.08347876 -0.08694914
0.0930645 0.20047972 0.04378356 -0.06281351 0.10683977 0.09831181 -0.08337395 0.13241938
-0.1193411 -0.11521272 0.3138768 0.05097725 -0.076655574 -0.10405517 0.02237931 0.10095219
-0.08129556
