MeL-ODE_larger_NN_large_sample.pt (torch, 97449 bytes, 6 tensors)

net.0.weight f4 [128, 4]
0.16290924 -0.33894306 -0.24551368 -0.29894748 0.1430452 -0.38616616 0.25146183 0.18429096
-0.3762526 -0.07707265 -0.12838267 -0.326511 -0.32340908 -0.23812488 0.07904513 0.3606545
-0.1658485 -0.3716565 -0.34898528 -0.093704775 -0.45965713 0.17617491 0.36552772 -0.18331169
0.2968676 0.50082284 -0.3435397 0.42104754 0.27240542 0.087508455 -0.11796895 0.16460374
-0.23213989 -0.14749359 0.24306649 -0.13856874 -0.38028544 -0.0021256884 0.24954611 0.3913748
-0.41039672 -0.24625279 -0.19667925 -0.22259584 -0.37262732 -0.29205874 0.13556895 -0.42631212
0.31348956 0.09921232 -0.33108622 0.14909935 0.47176912 -0.11613358 0.30859065 -0.04704398
-0.07301218 -0.17687996 0.4000996 -0.0080613885 -0.5455188 0.15922818 0.26126575 0.042909674
-0.26244712 0.05085925 0.34938586 -0.3231792 -0.279847 -0.047305554 0.44757062 0.19755882
-0.19492394 -0.2658749 0.4138185 -0.13965468 -0.32616666 -0.42011684 0.377769 0.13056836
0.40817985 0.66111475 -0.35767627 0.19164713 0.19704533 -0.07751505 -0.014766713 0.20439734
0.34847078 0.29638135 0.20450619 -0.48134646 0.18095608 -0.1465984 -0.18009026 -0.2386443
-0.39534062 0.55911875 -0.010034812 0.08309583 0.42592198 0.26487452 0.39721188 -0.45664686
0.098492555 0.22817571 0.23654501 -0.41190246 -0.3126363 -0.4524825 -0.026037296 -0.060091596
0.4482495 0.06796164 -0.34953317 -0.3747078 0.2684404 -0.11061826 -0.051905062 -0.35468626
-0.05885017 0.05999179 0.24704184 -0.20204024 0.1874568 -0.17648728 -0.31929675 -0.13444413
-0.47996587 0.16355291 -0.18729764 0.06991005 0.015763037 -0.21359116 0.22688894 -0.33942124
-0.280575 0.011221543 0.020210076 0.4498513 0.22760075 0.0034109552 0.14423306 -0.41182405
-0.39953125 -0.08167589 -0.12754695 -0.113983385 -0.11114646 0.21149078 0.19508755 -0.34570384
-0.2690573 0.4842143 0.21317974 -0.071901 -0.3256496 -0.08928754 0.18016288 -0.028549787
-0.42126432 -0.2783107 -0.3537999 -0.4575195 -0.35415447 0.58091563 0.24719907 -0.27621067
-0.25771832 0.22551543 0.06813335 0.16699138 0.009597512 0.26803422 0.42404145 0.20483224
0.043105062 0.5012679 -0.05671064 -0.3123913 0.4125819 0.4259192 -0.012156105 -0.2777655
0.07487678 -0.07322806 -0.2283967 -0.26441827 0.4185288 0.20559375 0.22785534 -0.36707392
0.42017224 -0.050811272 -0.318105 -0.38505775 0.4469957 0.38421077 -0.13226321 -0.1545759
-0.03168011 -0.17242837 -0.3922807 -0.17887579 -0.16304263 0.39511293 0.15155591 0.2617629
0.3771374 -0.17841376 -0.20462239 0.44924772 0.3602733 -0.024809286 -0.2430209 0.4339234
0.38291332 0.023418585 0.2654667 -0.4282977 -0.3716519 0.11102916 -0.36584574 0.15331921
-0.19979231 0.4390653 -0.17486867 0.44075578 -0.2931059 0.23489715 0.43212146 0.21614757
-0.41479817 -0.232775 0.027840635 0.02454718 -0.2387764 -0.020334726 -0.45418727 -0.16616122
0.31844807 0.31119666 -0.30274612 0.41669914 -0.43641484 0.48025456 -0.23690875 -0.1328104
0.44638497 0.3823109 0.4568566 0.2505903 -0.26339218 0.12929896 -0.23142658 0.016727189
00000000: aed1 263e f289 adbe f067 7bbe a50f 99be
00000010: 717a 123e 92b7 c5be 9bbf 803e c5b6 3c3e
00000020: 2ea4 c0be 44d8 9dbd bf76 03be 732c a7be
00000030: e095 a5be 02d7 73be 6ae2 a13d b5a7 b83e
00000040: 30d4 29be c349 bebe 33ae b2be 4ae8 bfbd
00000050: 2e58 ebbe 3267 343e 7326 bb3e 0fb6 3bbe
00000060: 08ff 973e ed35 003f 70e4 afbe 8b93 d73e
00000070: b978 8b3e a237 b33d b499 f1bd e28d 283e
00000080: 14b6 6dbe 8f08 17be 6ce6 783e f7e4 0dbe
00000090: c6b4 c2be 224f 0bbb 0489 7f3e 4762 c83e
000000a0: 851f d2be b129 7cbe 4966 49be 2af0 63be
000000b0: 02c9 bebe b988 95be 96d2 0a3e 9545 dabe
000000c0: b481 a03e d42f cb3d 2284 a9be 80ad 183e
000000d0: b98b f13e 71d7 edbd 98ff 9d3e 30b1 40bd
000000e0: 6987 95bd 0520 35be dbd9 cc3e ea13 04bc
000000f0: 1fa7 0bbf b60c 233e a0c4 853e 0ec2 2f3d
00000100: 785f 86be ca51 503d b4e2 b23e be77 a5be
00000110: 1b48 8fbe 78c3 41bd fa27 e53e dc4c 4a3e
00000120: 249a 47be c120 88be 05e0 d33e a301 0fbe
00000130: 51ff a6be 8e19 d7be f06a c13e b6b3 053e
00000140: f3fc d03e d13e 293f 5821 b7be 253f 443e
00000150: 40c6 493e 36c0 9ebd 15f0 71bc 894d 513e
00000160: c36a b23e 4cbf 973e 126a 513e 0b73 f6be
00000170: 8d4c 393e e41d 16be 9569 38be 2c5f 74be
00000180: 166a cabe 6822 0f3f 0d69 24bc 262e aa3d
00000190: 7212 da3e a29d 873e 5b5f cb3e 9ecd e9be
000001a0: 77b6 c93d e5a6 693e db38 723e e1e4 d2be
000001b0: dd11 a0be c9ab e7be 2b4c d5bc 9b22 76bd
000001c0: f580 e53e 792f 8b3d 03f6 b2be b3d9 bfbe
000001d0: 0571 893e d48b e2bd 679a 54bd 7099 b5be
000001e0: e00c 71bd f4b9 753d 89f8 7c3e a3e3 4ebe
000001f0: adf4 3f3e 15b9 34be dd7a a3be b9ab 09be
00000200: 16be f5be 6a7a 273e f4ca 3fbe 002d 8f3d
00000210: 7c21 813c a4b7 5abe 9355 683e 9fc8 adbe
00000220: 87a7 8fbe 90da 373c 9a8f a53c e952 e63e
00000230: 2c10 693e 558a 5f3b d5b1 133e 9ada d2be
00000240: 5c8f ccbe b045 a7bd ab9b 02be 1f70 e9bd
00000250: c1a0 e3bd 0a91 583e 08c5 473e 1800 b1be
00000260: e1c1 89be f0ea f73e ca4b 5a3e d540 93bd
00000270: 8bbb a6be 63dc b6bd 9e7c 383e 3ee1 e9bc
00000280: f5af d7be bd7e 8ebe 4325 b5be ff3f eabe
00000290: bc53 b5be e3b6 143f c121 7d3e 7c6b 8dbe
000002a0: a8f3 83be 84ed 663e 7f89 8b3d caff 2a3e
000002b0: e23e 1d3c c83b 893e f61b d93e 8bbf 513e
000002c0: ef8e 303d 1853 003f 6b49 68bd c1f1 9fbe
000002d0: ef3d d33e 1512 da3e 662a 47bc 4837 8ebe
000002e0: ff58 993d 98f8 95bd d3e0 69be d561 87be
000002f0: 6849 d63e 2b87 523e e952 693e 1df1 bbbe
00000300: d120 d73e 7b1f 50bd a9de a2be 4a26 c5be
00000310: 9fdc e43e 46b7 c43e 0270 07be 2549 1ebe
00000320: 01c3 01bd 1091 30be 04d9 c8be 372b 37be
00000330: a6f4 26be 3e4c ca3e 7931 1b3e c905 863e
00000340: 2718 c13e 19b2 36be 8888 51be cc03 e63e
00000350: be75 b83e d83c cbbc 79da 78be 352b de3e
00000360: 370d c43e 55d8 bf3c 40eb 873e d649 dbbe
00000370: 2849 bebe 4263 e33d 2250 bbbe b6ff 1c3e
00000380: 5b96 4cbe 2bcd e03e c610 33be beaa e13e
00000390: fa11 96be e188 703e 063f dd3e ca55 5d3e
000003a0: 6d60 d4be 925c 6ebe 0b12 e43c 2b17 c93c
000003b0: cd81 74be 0395 a6bc 3c8b e8be 2b26 2abe
000003c0: a00b a33e 2b55 9f3e 8a01 9bbe 9759 d53e
000003d0: c471 dfbe ede3 f53e 3598 72be 73ff 07be
000003e0: 928c e43e 41be c33e 1ce9 e93e 5f4d 803e
000003f0: 57db 86be f266 043e 17fb 6cbe 7507 893c

net.0.bias f4 [128]
-0.36606646 0.5642029 0.06491843 -0.008579374 -0.22407047 -0.47491214 0.41848922 -0.16232057
0.55485135 -0.45629928 -0.27515608 0.46975908 -0.6065182 -0.4996992 -0.265989 -0.30129868
-0.48515487 0.101619825 -0.23286682 -0.2795719 -0.26282477 -0.24160357 -0.093320094 -0.23413152
0.27809384 -0.30513173 0.41437736 -0.034663077 0.45383784 0.013305666 0.47031826 -0.4664124
0.5366755 0.4016067 0.478236 0.21167313 0.38596344 -0.41493282 -0.12670152 0.47473738
-0.08451483 -0.2928493 0.5736185 0.3943122 0.41638345 0.25922847 0.048024148 -0.43186674
-0.41632605 0.625999 0.04756106 -0.3718964 0.34705204 0.5154698 -0.052759178 0.34382206
0.025426634 0.5411981 -0.04225697 -0.51208514 -0.42837295 0.28829095 0.081979245 0.57157886
-0.20818144 -0.13994457 -0.40709746 0.3054534 -0.37721938 -0.110992886 0.11400371 0.11249919
0.056373194 0.3962314 -0.3113123 0.5227389 0.023974385 -0.5285056 0.03498868 -0.1490432
-0.13157752 0.05931577 -0.0975234 0.3189053 0.5643138 0.27731976 0.19177842 0.2369234
0.37616324 -0.16226573 0.21264043 0.3171452 0.5469417 0.36253312 0.38822603 0.38567072
-0.18443552 -0.35140157 -0.48234344 -0.19699492 0.46203452 -0.19304621 -0.13562645 -0.25893793
0.25389427 -0.5628941 -0.031454794 -0.431381 -0.30683592 0.2330369 -0.554156 0.30279577
-0.552388 0.5082654 -0.496998 0.5747052 0.189913 -0.25454184 0.33047965 -0.35874963
-0.325074 0.46855402 -0.28330156 0.22991513 -0.52702 0.4135112 -0.39634454 -0.37907037
00000000: 106d bbbe 9a6f 103f f4f3 843d 8190 0cbc
00000010: bb72 65be af27 f3be 3844 d63e 5d37 26be
00000020: bd0a 0e3f 0fa0 e9be 42e1 8cbe 4384 f03e
00000030: c744 1bbf 93d8 ffbe b62f 88be d243 9abe
00000040: 3866 f8be 0e1e d03d a474 6ebe 0c24 8fbe
00000050: f890 86be ed66 77be 9b1e bfbd 2cc0 6fbe
00000060: 5162 8e3e 3a3a 9cbe 4529 d43e dffa 0dbd
00000070: 6f5d e83e 0200 5a3c 8ecd f03e 9bcd eebe
00000080: 9163 093f 659f cd3e 59db f43e d7c0 583e
00000090: 009d c53e 1372 d4be 0bbe 01be c710 f33e
000000a0: 1c16 adbd 58f0 95be a9d8 123f 4ae3 c93e
000000b0: 3630 d53e 98b9 843e f8b4 443d a31d ddbe
000000c0: b028 d5be 7841 203f 63cf 423d 3469 bebe
000000d0: ceb0 b13e d4f5 033f 021a 58bd 7209 b03e
000000e0: 844b d03c f58b 0a3f a515 2dbd 0318 03bf
000000f0: b353 dbbe df9a 933e bce4 a73d fe52 123f
00000100: 842d 55be a14d 0fbe 146f d0be 6364 9c3e
00000110: e622 c1be 3d50 e3bd c77a e93d fa65 e63d
00000120: 94e7 663d d8de ca3e 5364 9fbe 37d2 053f
00000130: ee65 c43c 254c 07bf 4a50 0f3d c89e 18be
00000140: 42bc 06be 18f5 723d 59ba c7bd 8e47 a33e
00000150: df76 103f dbfc 8d3e 9061 443e 0c9c 723e
00000160: 7898 c03e fd28 26be 6abe 593e db60 a23e
00000170: 5f04 0c3f f19d b93e 90c5 c63e a276 c53e
00000180: aadc 3cbe e8ea b3be b8f5 f6be 09b9 49be
00000190: ca8f ec3e e8ad 45be a9e1 0abe 8393 84be
000001a0: 6efe 813e d419 10bf bed6 00bd f8dd dcbe
000001b0: 9919 9dbe 3aa1 6e3e 2bdd 0dbf 0c08 9b3e
000001c0: 4d69 0dbf ae1d 023f 8676 febe e11f 133f
000001d0: 8e78 423e 4f53 82be a134 a93e 08ae b7be
000001e0: 1970 a6be 50e6 ef3e e70c 91be df6e 6b3e
000001f0: c8ea 06bf bdb7 d33e aced cabe 8315 c2be

net.2.weight f4 [128, 128]
0.0446351 0.018348644 0.09981334 0.007706007 0.087690584 -0.042898294 0.050986305 -0.028320624
-0.1208486 0.051635318 -0.036320474 -0.056156296 0.07912497 0.049105786 -0.089182794 -0.031342782
-0.07893869 0.024358721 -0.0086307665 -0.031756565 0.08971474 -0.08527097 -0.009828365 0.04922895
0.085351884 0.059818707 -0.06012254 -0.055292506 -0.006098881 -0.037071746 -0.009892504 -0.04741013
-0.005598745 0.047112353 0.0054537104 0.043547623 -0.08002386 -0.0130098 0.02861242 -0.005406741
-0.021194775 -0.029724495 0.057192888 -0.017160704 -0.03767708 -0.0046748864 0.0025566816 -0.03523946
0.060564164 -0.098280326 -0.028149068 0.05582134 -0.074275106 -0.016601736 -0.06716308 -0.02191167
0.07393492 -0.03662622 -0.03442144 0.1338879 0.03532368 -0.15637012 0.110645704 0.06960917
0.06653624 0.03643165 0.04352322 -0.068340935 0.0250372 -0.049382858 -0.0142532615 0.11735567
-0.026445044 -0.004122717 0.110143036 -0.04375136 -0.04263377 -0.02749498 -0.045069862 0.026532512
-0.09528043 -0.052488968 0.05882565 0.08226655 0.050150592 0.09830152 -0.01453388 0.047753815
0.068969786 -0.098507956 -0.08120364 0.09442198 0.03461246 -0.046661384 -0.025414314 0.052935343
-0.0003087772 0.061456002 0.024403593 0.050932966 0.060590558 0.027028609 -0.076404415 0.018545764
-0.08508095 -0.015067841 -0.002747838 0.037237555 0.022072976 -0.04850408 -0.020340031 0.014431397
0.12197184 0.014599384 -0.066055425 -0.012473648 -0.07847833 0.07052395 0.08192132 0.009323159
0.034127627 -0.017608166 0.06726152 -0.04444722 -0.1450467 -0.0365632 -0.105650075 -0.07152066
-0.15554434 -0.005622245 -0.07206999 0.100160465 0.05324154 -0.03681346 -0.080091745 -0.14031999
-0.050061908 0.047299195 0.067831255 0.035534877 -0.11234786 0.012303516 -0.020193312 -0.030624805
-0.06544386 0.03750594 -0.074181795 0.011666279 -0.07331749 -0.14670841 -0.08558496 -0.03243566
0.025216356 -0.038989656 -0.050891656 -0.023788294 -0.021467157 0.08004578 -0.03688956 -0.012042233
-0.004617967 -0.027593065 0.07865967 -0.023272954 0.08679004 0.048127815 0.008599055 0.08998958
-0.040269773 0.07817575 0.03361634 0.035258334 0.050235998 0.006904474 0.0006377436 -0.0061701634
0.075223155 0.034907635 0.0026130925 -0.09007312 -0.037869908 -0.03214367 0.054329406 -0.0119585935
-0.018519655 -0.040624544 0.08039114 -0.016658457 -0.16826485 0.038108118 -0.05262157 -0.07280187
0.06289219 -0.017584756 -0.06268699 0.011908321 -0.08279844 -0.033445384 -0.047769453 -0.02692242
0.036769036 0.06368888 -0.10777751 -0.04383174 -0.13109365 0.029825294 0.05037425 0.003912073
-0.052771866 -0.08503064 -0.06321946 -0.028678011 0.054954644 -0.007299783 -0.057128116 -0.035765044
-0.0089435 0.028409773 0.0006883338 -0.018114803 -0.046665676 -0.030590847 -0.08382456 -0.15215324
-0.013334711 0.068805374 0.052800883 -0.052367724 0.053064246 0.048080552 0.040886503 0.029658629
0.091553524 -0.05002876 -0.029515466 0.02009879 -0.1393747 0.05208531 -0.1615009 -0.0031490778
-0.09374546 0.03922497 -0.16378182 -0.0068136207 0.052144703 0.088076316 -0.02771771 0.09046077
-0.03462051 -0.056286227 0.037145022 -0.0760924 0.019800628 0.0335025 -0.03292303 -0.049267426
00000000: 4bd3 363d e54f 963c f06a cc3d ac82 fc3b
00000010: 1f97 b33d 1fb6 2fbd 04d7 503d a700 e8bc
00000020: 797f f7bd 8e7f 533d c7c4 14bd 2504 66bd
00000030: 460c a23d 2623 493d 78a5 b6bd 4a61 00bd
00000040: 9caa a1bd f18b c73c 0f68 0dbc 2c13 02bd
00000050: 5dbc b73d 8ca2 aebd 2707 21bc 4ca4 493d
00000060: f8cc ae3d 7604 753d 0d43 76bd 657a 62bd
00000070: 1fd9 c7bb 8bd8 17bd 2b14 22bc 2031 42bd
00000080: ad75 b7bb e2f8 403d 0ab5 b23b fe5e 323d
00000090: 8de3 a3bd 0e27 55bc 9864 ea3c 082b b1bb
000000a0: aaa0 adbc c980 f3bc 1743 6a3d 9b94 8cbc
000000b0: 4853 1abd ca2f 99bb 008e 273b 4157 10bd
000000c0: 2112 783d 3247 c9bd e098 e6bc eba4 643d
000000d0: 8c1d 98bd 5d00 88bc cc8c 89bd 1a80 b3bc
000000e0: 316b 973d 6005 16bd 7ffd 0cbd e919 093e
000000f0: 90af 103d 7d1f 20be 379a e23d 418f 8e3d
00000100: 2744 883d 5b39 153d 6745 323d 55f6 8bbd
00000110: d01a cd3c ae45 4abd 8386 69bc 2b58 f03d
00000120: 47a3 d8bc db17 87bb ac92 e13d a034 33bd
00000130: bfa0 2ebd 273d e1bc 2d9b 38bd b65a d93c
00000140: 6322 c3bd acfe 56bd 2af3 703d 5d7b a83d
00000150: b56a 4d3d 4f52 c93d 831f 6ebc 8199 433d
00000160: 0840 8d3d 8abe c9bd 184e a6bd 5060 c13d
00000170: cbc5 0d3d 0220 3fbd ae31 d0bc bbd2 583d
00000180: 60e3 a1b9 4ab9 7b3d 0bea c73c 169f 503d
00000190: ce2d 783d 1a6b dd3c eb79 9cbd 49ed 973c
000001a0: ec3e aebd 1bdf 76bc 1215 34bb 6886 183d
000001b0: 63d2 b43c 37ac 46bd 23a0 a6bc ab71 6c3c
000001c0: 5fcc f93d 4132 6f3c 1148 87bd 465e 4cbc
000001d0: 3fb9 a0bd dc6e 903d 5dc6 a73d 2ac0 183c
000001e0: 69c9 0b3d 003f 90bc 68c0 893d 4a0e 36bd
000001f0: 1f87 14be 4bc3 15bd 115f d8bd 6c79 92bd
00000200: 0447 1fbe cf3a b8bb 6e99 93bd ee20 cd3d
00000210: cd13 5a3d b6c9 16bd 2407 a4bd 0bb0 0fbe
00000220: b70d 4dbd cdbc 413d 1deb 8a3d 058d 113d
00000230: a316 e6bd b094 493c 726c a5bc dfe0 fabc
00000240: 6e07 86bd d49f 193d a0ec 97bd ec23 3f3c
00000250: 7b27 96bd bb3a 16be 2b47 afbd 41db 04bd
00000260: 8892 ce3c 9eb3 1fbd c573 50bd abdf c2bc
00000270: e4db afbc 0bef a33d 8219 17bd c94c 45bc
00000280: 5152 97bb da0a e2bc 5218 a13d eca6 bebc
00000290: fabe b13d ac21 453d 0de3 0c3c 754c b83d
000002a0: ebf1 24bd 9c1a a03d 4ab1 093d 0b6b 103d
000002b0: 43c4 4d3d ed3e e23b 402e 273a 152f cabb
000002c0: 990e 9a3d 4ffb 0e3d 6b40 2b3b 4278 b8bd
000002d0: 7a1d 1bbd 15a9 03bd 8388 5e3d faed 43bc
000002e0: 88b6 97bc ec65 26bd 1ca4 a43d 5177 88bc
000002f0: 9f4d 2cbe 4217 1c3d b789 57bd 2619 95bd
00000300: 9fcd 803d e80d 90bc 0962 80bd 1e1b 433c
00000310: 3a92 a9bd 07fe 08bd e7a9 43bd 688c dcbc
00000320: 219b 163d 516f 823d 75ba dcbd e988 33bd
00000330: 6a3d 06be 2d54 f43c 3b55 4e3d d930 803b
00000340: 5027 58bd 8b24 aebd 3479 81bd 26ee eabc
00000350: 1f18 613d 0533 efbb 2cff 69bd 5e7e 12bd
00000360: c287 12bc 9dbb e83c 4d71 343a 7f65 94bc
00000370: 8224 3fbd a899 fabc 36ac abbd 0fce 1bbe
00000380: d579 5abc d5e9 8c3d bd45 583d 8a7f 56bd
00000390: e559 593d 1df0 443d 9b78 273d a7f6 f23c
000003a0: 6a80 bb3d f5ea 4cbd 6bca f1bc 38a6 a43c
000003b0: 3eb8 0ebe 6857 553d 7e60 25be c260 4ebb
000003c0: 9ffd bfbd 5daa 203d 6cb6 27be cb44 dfbb
000003d0: af95 553d 5b61 b43d 4010 e3bc 7f43 b93d
000003e0: 3cce 0dbd 638c 66bd 6125 183d 55d6 9bbd
000003f0: ed34 a23c eb39 093d 4dda 06bd a4cc 49bd

net.2.bias f4 [128]
-0.01100556 -0.019137783 0.12749913 -0.027125958 0.086366676 -0.03218212 -0.05312698 0.061559957
0.04795217 -0.031088378 -0.082369775 0.10020697 0.101725146 0.056583073 -0.08066114 0.004218434
-0.08581612 -0.011547381 -0.022698112 -0.089268446 -0.03778704 0.056493808 -0.034881976 -0.05542878
-0.06681628 0.100438766 0.093224265 0.04709194 0.1440122 -0.00016880818 0.08245957 0.06111113
0.07696314 0.05992377 -0.084414065 0.065338306 0.016493171 -0.03587886 0.16702612 0.03506598
0.13495184 -0.10591674 0.030278724 -0.017477449 0.13585126 0.16653156 0.103165604 0.0026309192
0.17015904 -0.1306765 -0.014914024 0.09224487 0.04869112 -0.039097928 0.036377218 -0.041365802
-0.077553585 -0.21620286 0.08663752 0.05124388 0.02454997 -0.002221271 -0.061116178 -0.01247178
-0.15132272 0.09754617 0.20334624 0.1738332 -0.09334684 0.101132855 0.03441702 0.121700734
0.061265547 0.06676629 0.065141216 0.06605936 -0.017137015 0.099933825 0.104166865 0.09217732
0.10062095 -0.0023954546 0.08716725 0.094117105 -0.04113991 -0.11981716 0.004989229 0.041434813
0.05823509 0.26584825 0.016454624 0.08247943 0.067365415 -0.07874619 0.0946163 -0.019556062
0.032750595 0.08819869 0.060384534 -0.016429428 0.13629702 -0.021951783 0.06623837 0.030376934
0.07920324 -0.031865947 0.044062376 -0.05069842 0.13074432 -0.002511013 0.13214046 0.1286607
0.13633712 0.16003442 0.027726004 0.121296525 -0.021521753 -0.04654241 -0.029801995 0.0045266068
0.08132101 0.08290639 0.03367003 0.01861788 0.06772466 0.10952235 -0.0077852868 -0.010423436
00000000: aa50 34bc d7c6 9cbc 228f 023e 4237 debc
00000010: 03e1 b03d 66d1 03bd ad9b 59bd 4b26 7c3d
00000020: 7f69 443d 0ead febc 7cb1 a8bd 5039 cd3d
00000030: 4655 d03d a7c3 673d ab31 a5bd ca3a 8a3b
00000040: 5dc0 afbd 3a31 3dbc 64f1 b9bc 60d2 b6bd
00000050: 95c6 1abd 0d66 673d 67e0 0ebd 4a09 63bd
00000060: f9d6 88bd d7b2 cd3d 5dec be3d 7ae3 403d
00000070: ef77 133e 1a02 31b9 90e0 a83d aa4f 7a3d
00000080: da9e 9d3d a172 753d 48e1 acbd 17d0 853d
00000090: b01c 873c b6f5 12bd e508 2b3e 58a1 0f3d
000000a0: d130 0a3e e0ea d8bd 160b f83c de2c 8fbc
000000b0: 981c 0b3e 4087 2a3e 7d48 d33d 806b 2c3b
000000c0: 2c3e 2e3e 0fd0 05be f359 74bc e1ea bc3d
000000d0: 5770 473d 2625 20bd 4700 153d 306f 29bd
000000e0: 6ad4 9ebd 4864 5dbe 036f b13d 1ae5 513d
000000f0: 051d c93c be92 11bb f554 7abd 7056 4cbc
00000100: 58f4 1abe 49c6 c73d ff39 503e 5501 323e
00000110: a12c bfbd be1e cf3d dcf8 0c3d 3c3e f93d
00000120: 95f1 7a3d c4bc 883d c268 853d 214a 873d
00000130: ed62 8cbc 1baa cc3d 7055 d53d 76c7 bc3d
00000140: 5b12 ce3d 0ffd 1cbb be84 b23d 78c0 c03d
00000150: 5382 28bd b362 f5bd b07c a33b 8db7 293d
00000160: eb87 6e3d 431d 883e d9cb 863c faea a83d
00000170: e1f6 893d af45 a1bd 31c6 c13d 0934 a0bc
00000180: 7d25 063d 84a1 b43d c655 773d 0297 86bc
00000190: 7291 0b3e 3ad4 b3bc fca7 873d 0cd9 f83c
000001a0: 4f35 a23d de85 02bd c07a 343d 25a9 4fbd
000001b0: d7e1 053e cf8f 24bb d44f 073e a1bf 033e
000001c0: f59b 0b3e 10e0 233e a521 e33c 506a f83d
000001d0: 634e b0bc 41a3 3ebd 5023 f4bc ee53 943b
000001e0: a18b a63d d3ca a93d 96e9 093d 8684 983c
000001f0: 3ab3 8a3d 414d e03d b81b ffbb 0fc7 2abc

net.4.weight f4 [49, 128]
0.047239207 -0.043118335 0.059720684 -0.072963 -0.0046658595 0.013760472 -0.0035062681 -0.061392706
-0.05577548 -0.037190843 0.0036067516 0.06068047 0.012351301 0.057951152 0.00663674 0.021224368
-0.004707296 -0.06772638 -0.042167608 0.0005619865 0.09489603 0.008304507 -0.015603263 -0.033486206
-0.020449981 0.034423262 -0.057703998 0.027977532 0.016726712 -0.07676657 0.04500401 0.011138783
0.039388075 0.0707165 -0.04897418 0.07250532 -0.0062549114 0.04575105 0.0011730919 0.07347335
-0.020305354 -0.01547917 -0.0076024057 0.057061948 0.05686289 0.0509961 0.007026965 -0.014011227
0.07725725 0.00077291427 -0.06268473 -0.002683608 0.121524714 0.008888097 0.011443811 -0.002593353
0.06924632 -0.06827467 -0.04934484 0.07783918 0.04807334 0.058677156 -0.060864624 -0.002971186
-0.01757234 0.08007093 -0.07008047 0.093006514 0.0035414451 0.05003126 0.0064654644 0.02786056
-0.011408875 0.046918813 0.059441548 -0.041958746 -0.02661527 -0.012432451 0.040806364 -0.057106163
-0.0037851639 0.05065543 0.08527047 0.062963754 0.009968856 -0.043572407 -0.044178706 0.046657637
0.04729004 0.05210246 -0.0041658673 0.08049524 0.013110111 -0.034208827 0.082688384 -0.057493776
0.028101576 0.027757166 -0.015404581 0.021421626 0.07759503 -0.019302832 0.07885451 -0.07689392
-0.05877199 0.083955325 0.14239945 -0.030183801 -0.007366407 -0.05653636 -0.032971706 0.090145476
0.07197292 0.05405505 -0.027990218 -0.017053371 0.07984923 -0.0005238512 0.08718825 0.003910821
-0.029967844 0.0006169294 0.046500538 -0.037869383 -0.049050417 0.05968839 0.08631396 0.0569962
0.0713118 0.020337803 -0.027528761 -0.030102393 0.040496357 0.0072983145 0.10348683 0.040383454
-0.049095746 -0.061491765 -0.050723646 -0.08520287 -0.05671747 0.025454383 0.015370622 -0.07390083
-0.05777991 -0.0147126345 0.046619043 0.069970004 -0.015752807 -0.030630164 -0.0633091 0.08360583
0.011155675 -0.053681966 0.0013586074 0.0771593 0.073692545 0.058225926 0.037052304 0.015281269
-0.042170588 0.038847942 0.0018565246 -0.030218124 0.0018001422 0.049717784 -0.06003835 -0.07250559
0.08459738 -0.0035682628 -0.046240255 -0.06324047 0.069903985 0.041453216 0.05679805 -0.06858468
0.050395466 0.014039715 0.06878443 0.011009515 -0.10291789 0.031456213 0.07402688 0.07736041
-0.01297966 0.033150375 -0.02033198 0.04512408 -0.050123632 0.05973273 -0.00971742 0.045874193
-0.012942772 -0.012131896 -0.0014990794 0.06820323 0.061913118 -0.06595396 -0.034664113 0.06088028
0.010882205 0.005980461 -0.011576399 -0.022116765 0.047627427 -0.033645947 -0.03887262 0.016540049
0.029881064 -0.049083095 -0.00904394 0.07471534 -0.053000122 -0.06379911 -0.060132362 0.07968647
-0.0691012 -0.030152105 0.07763588 0.07023683 -0.07802853 0.047544856 -0.01649922 0.01925117
-0.03465306 -0.063265026 -0.08066889 0.02772814 -0.03491233 0.030066771 0.0038337149 0.030936094
0.05577752 0.009067759 -0.0017298555 0.076275975 0.062347833 0.063434936 -0.0028709082 -0.06557037
-0.0610218 -0.055944808 0.036436737 0.025645424 0.044609413 0.016394924 -0.05678395 -0.023409817
-0.03418379 0.016606733 -0.030955436 0.013322898 0.0016481545 -0.012956492 -0.018486591 -0.05650993
00000000: e67d 413d da9c 30bd ad9d 743d a06d 95bd
00000010: 11e4 98bb 9a73 613c 6bc9 65bb eb76 7bbd
00000020: d474 64bd 6d55 18bd 405f 6c3b 168c 783d
00000030: 1c5d 4a3c 305e 6d3d 0379 d93b bade ad3c
00000040: a93f 9abb 21b4 8abd f1b7 2cbd 4752 133a
00000050: da58 c23d a00f 083c d4a4 7fbc d528 09bd
00000060: b886 a7bc 68ff 0c3d 075b 6cbd 2331 e53c
00000070: 7506 893c cb37 9dbd 2056 383d 717f 363c
00000080: 6455 213d d0d3 903d 2699 48bd ab7d 943d
00000090: 00f6 ccbb 7465 3b3d 6fc2 993a 3279 963d
000000a0: 6a57 a6bc 589c 7dbc 9a1d f9bb cab9 693d
000000b0: 10e9 683d 49e1 503d 7442 e63b 588f 65bc
000000c0: 0d39 9e3d 669d 4a3a da60 80bd 79df 2fbb
000000d0: f3e1 f83d 619f 113c d27e 3b3c 3ef5 29bb
000000e0: 04d1 8d3d 97d3 8bbd d11d 4abd 266a 9f3d
000000f0: 8de8 443d 7557 703d 2f4d 79bd 3bb8 42bb
00000100: def3 8fbc 3afc a33d 5986 8fbd 337a be3d
00000110: 9717 683b 94ed 4c3d 3fdc d33b d43b e43c
00000120: 4aec 3abc f12d 403d fb78 733d efdc 2bbd
00000130: 4408 dabc 7bb1 4bbc 9324 273d 27e8 69bd
00000140: 8310 78bb 117c 4f3d 49a2 ae3d 24f3 803d
00000150: 6a54 233c fb78 32bd bbf4 34bd 141c 3f3d
00000160: 33b3 413d 6469 553d d481 88bb b0da a43d
00000170: cacb 563c 8e1e 0cbd 8758 a93d 987e 6bbd
00000180: 4735 e63c ff62 e33c 7f63 7cbc 687c af3c
00000190: 25ea 9e3d f920 9ebc 797e a13d 8f7a 9dbd
000001a0: e6ba 70bd c5f0 ab3d 29d1 113e 0544 f7bc
000001b0: e761 f1bb ac92 67bd 570d 07bd 319e b83d
000001c0: 8a66 933d d468 5d3d be4b e5bc 83b3 8bbc
000001d0: fe87 a33d 0f53 09ba c18f b23d 5826 803b
000001e0: 207f f5bc 6eb9 213a 5977 3e3d ed1c 1bbd
000001f0: 17e9 48bd d07b 743d 60c5 b03d d974 693d
00000200: ec0b 923d 779b a63c ff83 e1bc 4b99 f6bc
00000210: 82df 253d b326 ef3b e7f0 d33d 1f69 253d
00000220: 9f18 49bd cade 7bbd 99c3 4fbd d87e aebd
00000230: 9450 68bd b685 d03c 10d5 7b3c 5159 97bd
00000240: a0aa 6cbd 430d 71bc 9cf3 3e3d 6f4c 8f3d
00000250: 080c 81bc 1cec fabc 34a8 81bd 8939 ab3d
00000260: 4bc6 363c 9fe1 5bbd 4d13 b23a b205 9e3d
00000270: 1eec 963d 4f7e 6e3d 28c4 173d 4a5e 7a3c
00000280: 11bb 2cbd 051f 1f3d a156 f33a 008c f7bc
00000290: c0f2 eb3a e0a4 4b3d c6ea 75bd d07d 94bd
000002a0: 6441 ad3d 84d9 69bb 6c66 3dbd 3884 81bd
000002b0: d229 8f3d d9ca 293d 12a5 683d 2076 8cbd
000002c0: 7a6b 4e3d d506 663c dade 8c3d 4161 343c
000002d0: 9dc6 d2bd 3bd8 003d 689b 973d 226f 9e3d
000002e0: a4a8 54bc b0c8 073d 418f a6bc 07d4 383d
000002f0: 704e 4dbd 4faa 743d d035 1fbc 94e6 3b3d
00000300: ec0d 54bc dcc4 46bc c27c c4ba 23ae 8b3d
00000310: 9c98 7d3d df12 87bd f5fb 0dbd 9a5d 793d
00000320: 474b 323c bef7 c33b f0aa 3dbc 382e b5bc
00000330: fa14 433d 55d0 09bd e538 1fbd ff7e 873c
00000340: 22c9 f43c 5b0b 49bd 092d 14bc 5b04 993d
00000350: a816 59bd 1ca9 82bd 5a4d 76bd a932 a33d
00000360: ee84 8dbd 8c01 f7bc 8fff 9e3d 54d8 8f3d
00000370: 6ccd 9fbd 65be 423d 5f29 87bc a1b4 9d3c
00000380: 5ef0 0dbd 1891 81bd bb35 a5bd 2026 e33c
00000390: 3b00 0fbd 974e f63c 103f 7b3b b16d fd3c
000003a0: f876 643d f090 143c 52bc e2ba 9436 9c3d
000003b0: 7160 7f3d 2dea 813d d925 3cbb c249 86bd
000003c0: fff1 79bd 6226 65bd b03e 153d 5a16 d23c
000003d0: 5cb8 363d a64e 863c 4a96 68bd f2c5 bfbc
000003e0: 4d04 0cbd d80a 883c 4196 fdbc 4948 5a3c
000003f0: e306 d83a 7747 54bc 3171 97bc f576 67bd

net.4.bias f4 [49]
0.083461665 0.08162762 -0.050823204 -0.022432825 -0.07123185 -5.068894e-05 0.07123027 0.057722293
0.11239792 -0.08369932 -0.0768489 0.010303886 0.044567488 0.045888476 0.022965064 0.055062033
0.06738168 0.013824052 0.043311097 -0.040588968 0.06901411 -0.019062037 0.09375965 -0.03381481
-0.024148041 0.09025121 0.00865755 0.059829824 -0.06861898 -0.00058102346 -0.012439634 -0.051440787
0.02030045 0.12202655 0.27356696 -0.020321267 0.025187774 -0.14411068 0.07624184 -0.034038033
0.020895027 -0.115009844 0.07958912 -0.109588705 -0.054241918 -0.026091186 0.1067348 0.08754441
-0.06786359
00000000: f3ed aa3d 622c a73d fe2b 50bd 0bc5 b7bc
00000010: 01e2 91bd d69a 54b8 2de1 913d 366e 6c3d
00000020: e130 e63d 8d6a abbd f562 9dbd a1d1 283c
00000030: 668c 363d 8ef5 3b3d 3b21 bc3c ba88 613d
00000040: 68ff 893d 477e 623c fa66 313d 9e40 26bd
00000050: 4557 8d3d fd27 9cbc 0f05 c03d 6681 0abd
00000060: 1dd2 c5bc a0d5 b83d 66d8 0d3c 1e10 753d
00000070: 1c88 8cbd d34f 18ba 9bcf 4bbc 93b3 52bd
00000080: 214d a63c 0ee9 f93d f810 8c3e c978 a6bc
00000090: 9756 ce3c c091 13be af24 9c3d 776b 0bbd
000000a0: 0c2c ab3c 488a ebbd 9fff a23d 0b70 e0bd
000000b0: c62c 5ebd 2fbd d5bc c697 da3d 7c4a b33d
000000c0: 11fc 8abd
