MeL-ODE_tuned.pt (torch, 97181 bytes, 6 tensors)

net.0.weight f4 [128, 4]
00000000: 5b6d 0b3e 143c d6bb 2d0a 2dbe 9f2f 94bb
00000010: 8bbc 61bd a748 5abc 7c48 a1bc 56c9 c73c
00000020: ec19 8fbe a2e4 60bd 0cad b2bd a0cb 90bd
00000030: 069f ca3e 76da 1d3f 71db 0f3e 9540 a4bb
00000040: 5897 23bd 9997 863f 7f98 51be 0298 0c3c
00000050: 8ee8 503d f463 683e c41d 50bd 059a 81ba
00000060: 350e fe3e daf9 acbd cf97 293e 9ca4 253b
00000070: 1975 bfbb a57f 973f 39fc fa3b 5d93 783d
00000080: 3077 d9be 6fa3 043e a32b f0bd d6b2 1cbb
00000090: 0290 d63b 8d55 863f 2489 d4bc f390 70bd
000000a0: fe55 013c a0ca 5b3e d751 ab3b dc00 c13c
000000b0: 0c39 adbd d62a da3e a3c7 2e3e e171 56bd
000000c0: 9fd1 1b3c fcdf c53b 7cc4 253e 75a1 283c
000000d0: 0abf 1b3d 3b2e bd3f 2173 a5be 12ae 10bc
000000e0: 6c32 94be 8430 813f 4fe6 e6bd 801b 9d3b
000000f0: 0b9c 87bd 9642 053e fc68 5bbd dce3 883d
00000100: ff3a 293d 9a9b 753e 684e a6bd a8ce b8ba
00000110: 5b65 84bd 9ed3 343f 4e00 e2bd 7ca7 50bd
00000120: f12e e93c 849b 9bbd cf78 9f3c 8940 08bd
00000130: abed 38be 75dc 3d3f 7873 793c 332c 173c
00000140: b17d e4be ca15 4f3f ebd8 44be ea70 5ebb
00000150: a74c b4bd 9251 283f 78b4 973e d686 73bc
00000160: d99f 103e 70d3 263c 3ab9 80bd d4e4 7a3d
00000170: 10aa 1cbe 55bf f43d 43ce 5a3e c48b fd3c
00000180: ea3e 03bd 085c 77bc 5f28 43bc a9bc 51bb
00000190: c979 22be e235 853f ff75 05be b929 3bbd
000001a0: b163 f4be ebd9 1e3f f321 4ebe 0471 c7bb
000001b0: ba81 843e 7ce7 efbb f9a8 01be a06b cd3b
000001c0: 49e4 e2bc df84 c03d 6451 183c ae81 6bb9
000001d0: 697d 203f 2b73 b63e 7107 603e b763 e5bb
000001e0: 745c 6cbb 04a6 a23f 3fc7 afbd 982e 1fbd
000001f0: 3fb4 a6be 5cb7 a83f 3de6 5dbe 9c6e 23ba
00000200: 4046 5abe 2d1a 6e3e 29ef b53c ca43 603d
00000210: 685e a33e ff10 f73e c9ff 043e bf27 9a3d
00000220: a154 9d3c dfd6 c3bc c484 49bd 3ab9 89bb
00000230: 8ec8 a83d 5c53 4b3f 8b77 333d 7196 acbd
00000240: 1735 6cbe b5f5 d33e 942a 523e 6792 cf3d
00000250: 51fa bc3d 25f8 2e3e 3a16 b4bc 52a1 4dba
00000260: eef1 84bb 1fcc cc3c e36e 8b3b f7a2 7139
00000270: 3b96 8bbd f090 943e 634a a63d c438 09bd
00000280: 6354 573d 587f 393e aad5 cb3e aecb 143c
00000290: ab41 e93b 8224 1a3f df41 163e 2773 9cbc
000002a0: cfb9 90bd f847 913d f044 5a3d 8553 a3bb
000002b0: 4b1d b2bb 84e6 bd3e 6e71 a439 aecd 2f3b
000002c0: f6b6 0d3d 1cc1 d73e 50c4 83bd 3eb8 e13c
000002d0: bd56 06bc 7221 c83f 1854 38be ff41 5dbd
000002e0: 14ab 08bc 0ec9 4c3d 7941 c63c 1073 503a
000002f0: 8d71 8f3e 8aad b2be fd53 3e3e 1436 593d
00000300: 3cfc 823c 65c1 223d 2b8e 32be a0f5 623c
00000310: a205 f0be 6195 163f 6996 a4be dd42 bcbd
00000320: 2d7a de3b 2a83 943e 93ca aabd bc8c 10bb
00000330: db0e 8dbc 67b3 dabb af38 96ba 6cae 57b8
00000340: f9a8 893d b65e 6e3e ab53 a73b 4d13 45bd
00000350: b602 733b a0fe dd3e 6b80 2ebe 7c50 083d
00000360: b0a2 2ebc bcf4 903d d8ef 5b3d 9b7e 3aba
00000370: 93c4 093f dca0 823f ed8b 593e 3e36 11ba
00000380: 5986 8b3e b481 8c3f 8d61 4e3b 1f5e dc3a
00000390: 4cfd 853d 910e 853e 61f0 29be 116e 0cbd
000003a0: f46c 05bd 6c58 76be 5fba 36be 2642 66bb
000003b0: de74 0b3d 1d59 4c3b 0ebe dd3b b330 e5bb
000003c0: 9241 c23d d12b 1dbc 57b5 5c3d f251 c8bb
000003d0: 7e1c ecbd cc5f 903e ec4f 69bd a94a 8a3c
000003e0: e7fc 60bc 1679 cd3c 3bdc c7bd 067f cd3b
000003f0: 52be 04bf cb44 8a3e 3778 2cbe 2630 ad3a
0.13615935 -0.0065379236 -0.16898413 -0.0045222784 -0.05511145 -0.013322986 -0.019687884 0.024387997
-0.27949464 -0.05490554 -0.08724412 -0.070700884 0.3957445 0.6166147 0.14048554 -0.0050125816
-0.039939255 1.0515014 -0.20468329 0.008581163 0.05100303 0.22694379 -0.050809637 -0.000988782
0.49620214 -0.08446093 0.16561817 0.0025275117 -0.0058428166 1.1835829 0.007659462 0.06068741
-0.42473745 0.1295297 -0.11727073 -0.0023910305 0.006547929 1.0494858 -0.0259443 -0.058731984
0.007894037 0.21464014 0.005228262 0.02355998 -0.084581465 0.42610806 0.17068343 -0.052354697
0.009510427 0.006038664 0.16188234 0.010292401 0.038023986 1.4779733 -0.323144 -0.008830564
-0.2894472 1.0092931 -0.11274397 0.004794538 -0.0662156 0.13013682 -0.053566918 0.06684086
0.04131603 0.23985139 -0.081204236 -0.0014099674 -0.064646445 0.706354 -0.11035214 -0.050940976
0.028464766 -0.075980216 0.019466786 -0.03326467 -0.18059413 0.74164516 0.015225284 0.0092268465
-0.44627145 0.8089262 -0.19223373 -0.0033941814 -0.08803683 0.65749466 0.29629874 -0.01486369
0.14123477 0.010182247 -0.06285329 0.061253384 -0.15299249 0.11950556 0.21367745 0.030950435
-0.03204242 -0.015097626 -0.011911481 -0.003200332 -0.1586677 1.0407069 -0.13033293 -0.045694087
-0.47732309 0.62051266 -0.20130138 -0.0060864706 0.25880224 -0.0073212963 -0.12662114 0.0062689334
-0.027696745 0.09400343 0.009296749 -0.00022459656 0.6269136 0.3563474 0.21877839 -0.0070004123
-0.0036065849 1.2706914 -0.08582925 -0.038862795 -0.32559392 1.3180957 -0.2166986 -0.00062344386
-0.21315861 0.23252173 0.022208767 0.05475215 0.31907964 0.48255154 0.129882 0.07527112
0.019205393 -0.02390617 -0.04919888 -0.004202989 0.08241378 0.7942407 0.043815177 -0.08427132
-0.23067127 0.41398397 0.20524055 0.10135346 0.092274316 0.17086847 -0.021983255 -0.0007844168
-0.0040571606 0.024999676 0.004255162 0.0002304426 -0.068157636 0.2901683 0.08119657 -0.0335014
0.05257071 0.18114984 0.3981145 0.009081764 0.007118424 0.60211957 0.14673565 -0.019097878
-0.0706669 0.07093805 0.0532884 -0.0049843215 -0.005435621 0.37089932 0.0003136503 0.0026825476
0.034598313 0.42139518 -0.06433928 0.027553674 -0.008199391 1.5635207 -0.18000829 -0.054018017
-0.008341569 0.04999643 0.024201142 0.0007951716 0.2801632 -0.34898025 0.18586726 0.05303009
0.015989415 0.039735217 -0.17437045 0.013852507 -0.46879297 0.58821684 -0.32146004 -0.09192441
0.006789467 0.2900632 -0.08339419 -0.002205654 -0.017218998 -0.0066742185 -0.0011460985 -5.1422438e-05
0.06721682 0.23278317 0.0051064095 -0.04811411 0.0037080473 0.43358326 -0.17041175 0.03327988
-0.010658905 0.070779294 0.05369553 -0.00071142026 0.53815573 1.020534 0.21244784 -0.0005539394
0.27250937 1.0977082 0.003149125 0.0016812718 0.06542453 0.25987676 -0.16595604 -0.034284655
-0.03257461 -0.24057168 -0.17844532 -0.0035134642 0.034047 0.0031181045 0.006767041 -0.006994331
0.09485163 -0.009592966 0.053883877 -0.0061132843 -0.11528872 0.28198087 -0.056960985 0.016881304
-0.013732172 0.025082152 -0.097588025 0.006271246 -0.51852906 0.2700561 -0.16842733 0.0013213202

net.0.bias f4 [128]
00000000: 7783 28bf d4fa b13b 062a c6bc 64ac 0f3f
00000010: 6382 5a3d ac7d 86bd 6a5c 8dbf 8a2a be3e
00000020: 7ba2 4c3f 78b1 b9bd 6739 0bbe d7e4 0fbf
00000030: 33d0 d3be 00f6 113e 5c4a 023f 9cd1 5abf
00000040: 6696 a0bd 4c00 393f 892e 51be 3e0b 3a3f
00000050: 5650 d03e ddd6 74be 53e8 72bf b7e7 56bf
00000060: e95c 4cbe 17ab a83e eb84 183f aae0 52bf
00000070: 577c 7bbc 0ee9 353f fd61 1d3f 2ed4 a63e
00000080: 2ff5 4abf aa9f f73e 74fe a6be 03e7 13bf
00000090: 744d 67bf 3d57 f0bd 4f06 7dba 7d8a a5be
000000a0: af32 41bf fb62 ca3e 0784 49be 0695 443f
000000b0: 2e4e c43e e36a a63e 218a efbc 77f1 d4be
000000c0: bc74 f8be fccd 383f b83a 93bd cba0 8cbd
000000d0: 757a e33b 632d cabe 61a4 9fbd 008d 9ebe
000000e0: fda9 1d3d e727 9abc e398 6ebf 9b28 41be
000000f0: 0477 c7be 2842 483e a8a5 89be 297c ef3e
00000100: 613e 25bf f80c 41bc 018c 213f 6886 473c
00000110: a057 2abf 08bc 073d 0390 d2bd 21f5 4bbf
00000120: 5ba6 173f fb0b 273d a5eb 0fbf 880b db3e
00000130: 3c86 06bf fa4c 02bf b1a6 173f 8a01 cc3d
00000140: 2070 31bf 15b3 00bf 6c3c dcbe 62f3 c2be
00000150: 1c36 a63e 5174 46bf e81b 013f b253 5cbf
00000160: 3b17 70bf b933 b23e efe6 30bf 02a7 00bf
00000170: 7192 81bf 72f3 153f bf62 f13e 12c8 79bf
00000180: 54f3 83bf cb5d bdbe afc2 c93e 0c59 61bf
00000190: edb4 123c a2c0 393e 235a 163f fab2 33bf
000001a0: 2996 0ebf 990c 8ebe a0c6 09bf c6f0 933e
000001b0: 129e 97bf f89b d43e ee8d 303f e24d 93bf
000001c0: 2a29 c43c d3e4 053e 27d6 6ebf 67a2 39be
000001d0: cb15 2a3f 309b af3c 88c0 4d3d 5add 7ebf
000001e0: 1793 2ebf 8eb9 fb3e 4776 53bd 9d9f 74bf
000001f0: 2c26 6bbd fa06 44ba 7ee6 22bf 3f53 fdbd
-0.658256 0.0054315124 -0.02418996 0.5612242 0.053347003 -0.06566939 -1.1043828 0.3714183
0.79935426 -0.090670526 -0.13596116 -0.56208557 -0.4136978 0.14253998 0.50894713 -0.8547609
-0.07841186 0.7226608 -0.20427908 0.72673404 0.4068629 -0.23910089 -0.9488575 -0.8394732
-0.19957317 0.3294303 0.59577817 -0.8237406 -0.015349469 0.7105874 0.61477643 0.32583755
-0.7928037 0.48364002 -0.32616007 -0.5777437 -0.9035256 -0.117353894 -0.0009652124 -0.3233222
-0.7546796 0.3952864 -0.1967927 0.7678989 0.38340896 0.32503423 -0.02924067 -0.41590473
-0.4852656 0.7218931 -0.07188934 -0.06866606 0.0069420883 -0.39487752 -0.07795025 -0.3096695
0.03849219 -0.018817855 -0.93202037 -0.18863146 -0.3895799 0.19556487 -0.26884198 0.46774414
-0.6454831 -0.011782877 0.63104254 0.012178041 -0.66539955 0.033138305 -0.10281374 -0.7967091
0.59238213 0.04078291 -0.5621894 0.42782235 -0.52548575 -0.50898707 0.59238726 0.09961231
-0.69311714 -0.5027326 -0.43014848 -0.3807631 0.32463157 -0.77521235 0.50433207 -0.8606521
-0.93785447 0.34805086 -0.69102377 -0.50254834 -1.0122815 0.58574593 0.4714565 -0.9757091
-1.0308633 -0.3698562 0.39406344 -0.880265 0.008954269 0.1813989 0.5873129 -0.7019497
-0.55697876 -0.27743986 -0.538187 0.28894633 -1.1845114 0.41525245 0.6896657 -1.1508143
0.02394541 0.13075571 -0.9329552 -0.18128358 0.66439503 0.021436304 0.05023244 -0.99556506
-0.6819319 0.49165004 -0.05162647 -0.9555605 -0.05740945 -0.0007477846 -0.63632953 -0.123693936

net.2.weight f4 [128, 128]
00000000: d6c5 2cbd 0434 b23d 3699 10be 56ea 9b3d
00000010: 6f97 fdbd d3dc ef3c ed18 ccbc 102b 173e
00000020: 238b 183d d835 29be 80e0 6d3b 832f 643d
00000030: aca3 123e 422d d7bd e7a8 0cbe ed9b c63d
00000040: 7560 e8bd 0209 693e e4d5 343e 4e2e 17be
00000050: f065 3fbd 3909 743c 611f 04bd 7f7d 933d
00000060: 51d4 a1bd f645 9d3e b115 0ebd 3abb 0d3d
00000070: a8a2 2bbd 2344 bdbc 60da 233e 3800 9f3d
00000080: 41bb 3ebb e447 87bd 37bd 10bc 0903 93bb
00000090: cd5c 763e b67f 593c 6c71 5bbe 93be 5fbd
000000a0: 5c2a ae3d 66c6 b8bd eb96 4cbd c5e5 8dbe
000000b0: af41 a6be a72b 533d fc2e 6d3d 1e07 4a3d
000000c0: f46d 943c af80 823d 0165 a83c dc42 3bbe
000000d0: 5753 1d3e e432 e33c d276 1fbd 64c9 113d
000000e0: fbda d5bc 3d21 14bd 2669 5dbd f895 98bd
000000f0: 07e9 00bf 64a6 3abd ac59 8abd 9ad6 023d
00000100: cc4e d73d 450d 133c 388f ffbd 892a 7abd
00000110: b519 99bd 15fb 5bbe 78cf 8d3c bc6c e33c
00000120: e5c7 803e 925b 0f3e e06b 043e 6774 83bd
00000130: 1a56 d33c d650 653c 2a37 be3d 7bee 463c
00000140: a057 5bbb aecf c4bd e947 153d d671 113e
00000150: c1a7 183d a7e7 c5bc 8d43 f3bc 964b 39be
00000160: b1e8 453d 612a 4ebe defb 173d 6c84 5b3d
00000170: b98b 1abf ece7 f73b 616a fabc 27bb 72bd
00000180: f9e0 a3be 4883 af3c 17e4 773d bc53 09bd
00000190: 44e6 df3d 6f04 57be dc33 823d fa68 a7bd
000001a0: dcac 3a3e 6ef2 cdbd 243c d3be d03b 2abd
000001b0: 9eb8 b5bd 4ca9 b6bd 4d83 04bd f116 713d
000001c0: ced7 ae3c d94f 1cbf 4ffe 433d c454 a9bd
000001d0: 8990 4fbe 0fbe 0abe 54ed efbc 2846 603c
000001e0: c243 b4bd 43e9 823d 2c1b efbd 5546 fa3a
000001f0: feea 8c3d c166 57bd b4b2 afbe 2933 733d
00000200: 9c4b b03d 0b53 96bc 90c2 9dbd 67a7 71bc
00000210: c0c1 303d c13c e6bc 73f5 ab3d 2e66 0a3d
00000220: 0e36 b7bd 2d43 4cbd 0766 13be ea2b 773d
00000230: 2d34 febd 58d8 a73d 4d1e b9bd 00b0 bdbd
00000240: cc38 c2bb 5f84 c8bc e8b5 84bd 9053 dbbe
00000250: b3b9 1cbe 2de2 2a3d f8bc 83bd e30d 38be
00000260: e1e9 563d d14a 05bd 5bf8 95bd 1b21 a23d
00000270: e083 96be 9026 e83c ba0f 913c 237a aebd
00000280: 7baa 85bd 41be 07be cf4d 36bd e0b8 c53c
00000290: c4f8 2fbd 8208 3f37 ea8e 41bd a1b0 73bd
000002a0: bc92 4e3c fada 8dbd e70c f3bd b150 2b3e
000002b0: f6b7 80be 4d73 283a 1ef8 0cbe 63ff 9abd
000002c0: 1116 553c 2556 c0bc 007b 4d3b 0af2 0a3b
000002d0: dacc a4bd feb1 923d db36 2ebd 221e 713d
000002e0: 4697 743c 1774 e8bd 33c4 a93c 181d 67be
000002f0: 2ec4 dcbd 632f 50be d3fa 8d3c 664e c5bd
00000300: bf01 48be 34c3 653d d782 74bd 746a 92bc
00000310: 1b89 69be d0ef e4bd 8659 12be b5ad 8a3b
00000320: 6071 76be 12c2 97bd c076 38bd 1f18 bebd
00000330: 400a ec3c 71a5 0dbd 607e d3bc 1ab4 f2bd
00000340: 9e05 a43d 4f54 acbd 8b85 f93c d028 2bbe
00000350: 02eb 7abe d432 7bbe 0089 4f3c 753d 0c3e
00000360: a769 d8bd 5550 2fbe e098 1d3b 9237 8cbd
00000370: a9b9 06be 150e e23d 02db f2bd 99a4 00be
00000380: 2d93 84be 0f9c afbc d2b4 fd3c edd4 00be
00000390: caec df3d 6647 e5bd 80cb 913c 48f5 37bd
000003a0: 61b4 4ebb bee2 afbd aaff 29be c83d a6bd
000003b0: 88c1 57bd e10e a2be 586f 15be ed94 233d
000003c0: 3263 25bd be20 803d c301 b13b a1c3 59bd
000003d0: a7ef 84be 351f e6bc e947 d1bd 2660 fbbd
000003e0: 5af3 4c3d b1e2 4ebd a4b0 b4bd 89cf ec3c
000003f0: 6bab e6bc 5914 60bd 36da b9bc e685 cb3d
-0.04218086 0.087013274 -0.14120945 0.076130554 -0.12382399 0.029280102 -0.02491423 0.14762521
0.037242066 -0.16524446 0.0036297143 0.055709373 0.14320248 -0.10506679 -0.13736306 0.09697709
-0.11346523 0.22757342 0.17659718 -0.14763758 -0.046728075 0.014894777 -0.032256488 0.07201671
-0.07901824 0.30717438 -0.034688655 0.03460238 -0.041903168 -0.02310378 0.16001272 0.077637136
-0.0029103311 -0.06605509 -0.008834175 -0.004486446 0.24058838 0.013275078 -0.21429986 -0.054625105
0.08504173 -0.090222165 -0.049948614 -0.27714363 -0.32471988 0.051555302 0.057906136 0.049323194
0.018118836 0.06372201 0.020555975 -0.18287224 0.15363823 0.027734227 -0.038931675 0.03559245
-0.026105395 -0.03616451 -0.054055355 -0.07450479 -0.5035557 -0.04556884 -0.06755385 0.03194294
0.10513076 0.008975332 -0.12478489 -0.06107572 -0.07475606 -0.21482499 0.017310843 0.02776181
0.25152507 0.13999775 0.12931776 -0.06418686 0.025797892 0.013996324 0.092878655 0.012141819
-0.0033468977 -0.09609924 0.036445532 0.14203581 0.037269358 -0.024158312 -0.029695297 -0.1809524
0.048317615 -0.20133354 0.037105434 0.053593084 -0.6036945 0.007565489 -0.030568304 -0.059260514
-0.32007578 0.021424904 0.060520258 -0.03352712 0.109325916 -0.20997785 0.06357548 -0.081743196
0.18230003 -0.100560054 -0.4125682 -0.041560948 -0.088731036 -0.089190096 -0.03235178 0.05885977
0.021343138 -0.6105934 0.04784995 -0.08268121 -0.2026998 -0.13549064 -0.029287972 0.013688602
-0.08801986 0.063921474 -0.116751045 0.0019094447 0.06880759 -0.052588228 -0.34316027 0.059374962
0.08608171 -0.018350145 -0.077031255 -0.0147493845 0.043153524 -0.028105142 0.08396425 0.033788852
-0.08945857 -0.04986875 -0.14394389 0.060344614 -0.124122955 0.08195561 -0.090389825 -0.09262085
-0.005927181 -0.024477182 -0.06480008 -0.4283719 -0.15305214 0.041719604 -0.06432527 -0.17974047
0.052469138 -0.032542054 -0.07322761 0.079164706 -0.29397488 0.0283387 0.017707694 -0.085193895
-0.06526657 -0.1325617 -0.044507798 0.024136007 -0.04296185 1.1386468e-05 -0.047255434 -0.05949462
0.012608226 -0.06926532 -0.11867695 0.1673 -0.2514035 0.00064258726 -0.13766524 -0.075682424
0.013005749 -0.023478577 0.0031353831 0.0021201395 -0.08046885 0.071628556 -0.042532783 0.058866628
0.0149286445 -0.113502674 0.020723438 -0.22569692 -0.10779606 -0.20330577 0.017331516 -0.09634094
-0.19531916 0.056094363 -0.05969509 -0.017873026 -0.22806208 -0.11178553 -0.14291963 0.0042321333
-0.24066687 -0.07410063 -0.045035124 -0.092819445 0.028813481 -0.034581605 -0.025817096 -0.11850758
0.08008884 -0.08414518 0.030459186 -0.16714787 -0.24503711 -0.24531108 0.012666941 0.13695319
-0.105670266 -0.17120488 0.002404742 -0.06846537 -0.13156761 0.11037842 -0.11858179 -0.12562789
-0.25893536 -0.02143672 0.03097001 -0.12581225 0.10933836 -0.11195259 0.017797232 -0.044911653
-0.003154062 -0.085881695 -0.16601434 -0.081172526 -0.0526748 -0.31651977 -0.14593256 0.03993695
-0.040377803 0.06256245 0.0054018213 -0.053165082 -0.2596409 -0.028091053 -0.10218794 -0.12274198
0.050036766 -0.05050916 -0.08822754 0.028907554 -0.02815791 -0.054706905 -0.022687059 0.099376485

net.2.bias f4 [128]
00000000: fe75 883d c5a6 883d 684b 313e ec1d 02bd
00000010: 3d9b 593c 75c8 a6bc 5cee 6c3d 398d 21bd
00000020: 3290 a0bd 922d 44bd 03e8 b9bd 4a14 6abd
00000030: 25f6 8abd e8c7 fbbb fa7f 62bd fbf6 b1bd
00000040: f3c6 823d af61 f2bd a944 9ebc 7b1d 08be
00000050: 516a 60be 2398 04be 0eee 92bd 606c 953c
00000060: 5b98 cc3d 738b 18be 6812 603e a90d c6bd
00000070: 6fd2 2d3e a61c adbd f097 94bd 06e3 b1bd
00000080: faec d2bd bea0 48bd 3619 7c3c 1b67 5cbc
00000090: c7cb 693c 56f2 55be adfc cbbd 467f 19bc
000000a0: 2256 de3d 7d5d 023e bf3b 16bd 2dc9 17bf
000000b0: cf1f b2bb 1a6d 08be 2de1 41bb 71ea aebc
000000c0: c522 3abd 81c6 1fba 1828 1f3d e3ea 293e
000000d0: dbf4 f1bd 0940 f73d f569 ce3c d043 02bd
000000e0: daef 63bb 6717 603d 872b db3e aee4 c93d
000000f0: 307e 6fbd 2f4d cebd e400 383d 6124 fabd
00000100: 2734 6a3e aaa3 6fbd 699a 1a3e 3305 de3d
00000110: fa22 6abc 49f2 3d3e 98ba e5bd 9e80 d4bc
00000120: 983c 583e 4260 80bd 77af 2bbd 1ff6 f2bd
00000130: dfef 1abe 13f3 af3e d495 193e 0c12 0bbe
00000140: 6591 d0bd 64a2 aabd 4b2e ac3d a003 fabc
00000150: 58aa edbc 12a2 f43e 40b2 21bd cb32 a9bd
00000160: cca8 d8bc 3911 f7bd c6aa c13e 9220 c1bd
00000170: e0fb bfbd a6b1 b7be eef6 1d3d 5eaf a13c
00000180: 17a7 a1bc 316e e5bb e8d2 85bd ceca 053f
00000190: 3e12 6ebd e76e 3ebd a4d2 61bd 9e9c 88bd
000001a0: a314 c2bc df74 4fbd b7fd 1cbe 3c97 9cbd
000001b0: 7f6d 04be 7821 fd3d 746f 12be e0a9 15bc
000001c0: e57a 19bd cbc4 b6bd d400 823d e1f9 e23c
000001d0: b7a3 9cbd 59e6 a4bd 42b1 11be ef60 853c
000001e0: f8a3 2ebe cf94 85bd 53f6 d1bd 3207 0f3f
000001f0: b568 12bd 7f0a e5bd 501d 1abb d432 97bd
0.0666313 0.06672434 0.17313921 -0.031766817 0.013281641 -0.020359257 0.057844505 -0.03944132
-0.07840003 -0.04789502 -0.09077456 -0.057148255 -0.067852296 -0.007683743 -0.05529783 -0.08689686
0.06385603 -0.11835038 -0.01931985 -0.13292496 -0.21915556 -0.1294866 -0.071743116 0.018240154
0.09989997 -0.14896946 0.21882021 -0.09670574 0.16974805 -0.0845273 -0.07255542 -0.086858794
-0.10299106 -0.04898142 0.01538687 -0.013452317 0.014269776 -0.20893225 -0.099603035 -0.009368723
0.10856272 0.12730975 -0.036678072 -0.59291345 -0.005435921 -0.13322869 -0.0029583678 -0.021352025
-0.045443315 -0.0006094948 0.038856596 0.16593508 -0.118142806 0.120727606 0.025197009 -0.031802952
-0.0034780414 0.05470982 0.42806646 0.0985807 -0.05846995 -0.10073315 0.044922724 -0.1221397
0.22871457 -0.05850569 0.15097965 0.108408354 -0.014290566 0.18549456 -0.112172306 -0.025940236
0.21116865 -0.0626836 -0.041915383 -0.1186335 -0.15130566 0.34365138 0.14998561 -0.13581103
-0.10183982 -0.08331755 0.08407267 -0.030519307 -0.02901189 0.477799 -0.039476633 -0.08261641
-0.026447676 -0.12063832 0.37825602 -0.094300404 -0.09374213 -0.35877723 0.03856557 0.019736942
-0.019732995 -0.007001661 -0.06534368 0.5226258 -0.058122866 -0.046492483 -0.055132523 -0.06670497
-0.023691481 -0.050648566 -0.1533116 -0.07646033 -0.12932394 0.12359899 -0.14300328 -0.00913474
-0.037470717 -0.08924254 0.06347814 0.027707042 -0.07648414 -0.08051748 -0.14227775 0.016281573
-0.17054737 -0.065225236 -0.10252061 0.55870354 -0.035744388 -0.111836426 -0.0023516007 -0.073827416

net.4.weight f4 [49, 128]
00000000: e520 683d 1198 233d 88ea 0abc 94a5 10be
00000010: bc9f 29bd 17ba a9bd 440b d13c d6ca cebb
00000020: 72b1 6f3d a617 093d 268f c53d ed74 a8bc
00000030: dc31 bfbc edd8 f23a 9411 4dbd 86f2 2d3d
00000040: 3c96 91bd 6a90 b73d 3182 82bc 5b91 f6bc
00000050: 937b a63c c5d1 b0bd de44 48bd 2c0e 2ebe
00000060: 1f65 ecbd f6e5 853c 2798 9dbd 63d0 34bc
00000070: e9f7 acbd a856 ddbd e0eb 303d 90da a9bb
00000080: c626 853c cd10 93bc cf50 98bc 4f89 f7bc
00000090: 5273 97bd 31de eb3d fe8c 8b3d cf32 edbb
000000a0: e87e aebc 8f84 543d ff1e 50bd 8648 96bd
000000b0: c4bb c13d c24c 67bd 2a44 1bbe 1435 b53d
000000c0: d446 89bc a280 3a3d b7ee d43b b81e 75bc
000000d0: a5eb 023e c680 b7bd 6cd9 d43b 317a 4c3d
000000e0: 4eb2 ff3c 9720 563d 5e76 dabd 6c52 a1bd
000000f0: ce5e be3a 0fa6 433d 9131 ffbd 294b e13d
00000100: 9f31 8ebd 63a1 0f3d 8a9a f9bd 9189 ecbd
00000110: 7ffd 56bd a1d9 02be a8f7 e7bc 4079 36bc
00000120: 6f38 14bb c4f1 973c fb25 3e3d 464e 9a3d
00000130: 2116 cbbd 732d bb3c fca1 20bd b147 3a3c
00000140: c3ff b7bd 1865 243d 2ff6 dfbc d8bc 52bd
00000150: 19bb e4bb 4201 0dbc 6437 a13c 46d3 81bd
00000160: 6453 e9bd d3a7 71bd ef69 023d 6597 15bd
00000170: 53f4 273d f3f0 2fbd 6909 143d 263d bc3d
00000180: 21b2 2dbe 21e8 bfbd 0b4c a43c eca0 44bd
00000190: e7bd c73d b16a 72bc bee2 293d 8b6c 553d
000001a0: b557 793d b889 c4bb 3036 283d 7e70 af3c
000001b0: 0b30 97bc 2b5f c73b 684d 28bd 80a2 13bd
000001c0: 3c66 833d baee 15bd b9e8 a13c 3a84 d6bd
000001d0: 4402 00bc 8899 edba c0d7 0f3d f2f1 3fbd
000001e0: ce71 913c 1c3c 22bc 66f5 8e3d cf63 af3b
000001f0: fa93 213d f954 39bd d119 503d 206e d13c
00000200: 0373 49bc 3083 8c3c 599c 8d3e a72a 0b3d
00000210: 1731 d4bc 9b0c 903d 550f cf3e 627b 203d
00000220: cda4 a3bd 685f 403d 2c70 0fbd ca5b 97bd
00000230: 6530 19bc bfa2 b23d 11ff f5bd 008e 46bd
00000240: 2d82 0bbe 15a8 383c a6b4 b33d 2c6b 513c
00000250: 9626 64bd 6ee2 a8bd 91f7 1b3c 8b13 73be
00000260: 9ddc 0fbe 9f3b 88bc ade6 34bd 35dc 62bc
00000270: 747c 243c 338a 183d 13b7 9abc 9b5f c83d
00000280: ddfd 763b 1f26 1fbd 169a 9c3d 34b0 8d3d
00000290: 5058 003e 9525 21bd 19da e3bc 0b6d 16bd
000002a0: fc5c b0bd 935e 0a3d e73e 2c3e ab78 6abd
000002b0: ab52 023d cd4d 6fbc fdce 15bd 0693 873d
000002c0: 15db 373c 4e1c d13a 9dfa 4b3b 2a7e 5dbe
000002d0: d847 89bd b904 8cbe da57 17bd 3849 e53c
000002e0: 7077 35bb e324 e23d 8d0d 99be 5119 cb3d
000002f0: acce 5a3d b94b e43a 90ff 713d 0ca4 673c
00000300: 470c 513d a473 fbbd 61a7 42be 01c8 aa3e
00000310: 41c4 a13d bb8e f6be 3550 34bd eaee d03d
00000320: 7991 ffbd 66db de3c 9022 84bd 3d0c a7bc
00000330: 195f b0bd 710b 47bf 95f0 113e ed3e 44bc
00000340: 5473 863d 2621 323d 7557 6cbe db83 653d
00000350: 2e17 0dbd 3cb1 2e3e 4750 03be 9c88 58bd
00000360: 69cf 7c3b 9507 90bd db82 4fbd 43d6 1bbd
00000370: f7ca ee3c eb36 9abd 58c6 26be 0eb3 cabd
00000380: aee1 acbe 9e51 71bc c4c3 4abc bcfa afbd
00000390: 637b b63d e45e 803d 3fda 49bd e926 043c
000003a0: 9ec8 b3bc 0d4d dbbd 49e6 963b 5eec 983d
000003b0: f272 a23d 75bf fcbd a9cf c6ba ebdc 9e3d
000003c0: d467 d63d 140f ffbc c999 36bf 90cd 00bb
000003d0: aa4e 50bd d7cf a8bc e619 0e3d 2661 783e
000003e0: 9b88 8d3c 7d81 d0bd 9ca9 ac3d 7175 913c
000003f0: 3fc5 aa3d 3e61 e33c e049 36bd 200a f23c
0.056671996 0.039939944 -0.008478768 -0.14125663 -0.0414121 -0.08287447 0.025518067 -0.006310801
0.058518834 0.03346982 0.09646444 -0.020563567 -0.023339204 0.0018527784 -0.050065592 0.042467616
-0.07108733 0.08963092 -0.01593122 -0.030098608 0.020322597 -0.0863376 -0.048893802 -0.16997594
-0.11542725 0.016345005 -0.076950364 -0.011036011 -0.084457226 -0.10807544 0.043193698 -0.0051835254
0.01625384 -0.017952347 -0.01859322 -0.030216841 -0.073950425 0.11516989 0.068140015 -0.007238723
-0.021300748 0.05188423 -0.05081081 -0.073380515 0.094596416 -0.056469686 -0.15162721 0.088480145
-0.016757406 0.04553283 0.0064981836 -0.014960937 0.12785204 -0.089601085 0.0064956453 0.04992122
0.031212952 0.052277174 -0.10667108 -0.07877049 0.0014524104 0.047765788 -0.12460626 0.11000664
-0.06943058 0.03506602 -0.12187679 -0.11549676 -0.052487846 -0.12778331 -0.028316334 -0.011137307
-0.0022616645 0.0185479 0.04642294 0.07534461 -0.0991633 0.02284882 -0.03921698 0.011369632
-0.089843296 0.040135473 -0.02733907 -0.051449627 -0.0069803116 -0.008606257 0.019679733 -0.06339125
-0.113928586 -0.05899794 0.031839307 -0.036521334 0.04100449 -0.042954396 0.036141787 0.09191351
-0.16962482 -0.09370447 0.020055791 -0.04800503 0.09753018 -0.014795945 0.041476004 0.052105468
0.06087466 -0.0059978627 0.041067302 0.021415945 -0.018455526 0.006084343 -0.041089445 -0.036043644
0.06415984 -0.03660462 0.019764291 -0.10474439 -0.00781304 -0.0018127421 0.035117865 -0.046861596
0.017754462 -0.0099020265 0.069804 0.0053524743 0.039447762 -0.045247052 0.05080587 0.025565207
-0.012295487 0.017152399 0.27658346 0.033976223 -0.025902314 0.07033654 0.40441385 0.039180167
-0.07990418 0.046965986 -0.035019085 -0.07390554 -0.009349917 0.087224476 -0.12011541 -0.048475266
-0.13623877 0.011270543 0.0877469 0.012781899 -0.05570086 -0.08246313 0.009519474 -0.23737924
-0.14049001 -0.016629992 -0.044165302 -0.013846447 0.010039438 0.037241172 -0.018886125 0.0978386
0.0037687935 -0.038854714 0.07646577 0.06918374 0.12533689 -0.03934248 -0.027813958 -0.036725085
-0.08611485 0.0337816 0.1682087 -0.057243984 0.03181712 -0.0146059515 -0.036574353 0.06619839
0.011221667 0.001595387 0.003112472 -0.21630159 -0.06703156 -0.27347353 -0.036949016 0.027989015
-0.0027689599 0.11042192 -0.2989315 0.09916938 0.053419754 0.0017417587 0.059081614 0.014138233
0.0510371 -0.12277916 -0.19009162 0.33355716 0.078987606 -0.4815577 -0.044021804 0.10201819
-0.124789186 0.027204227 -0.06451905 -0.020391578 -0.086118884 -0.77751833 0.14251931 -0.011977893
0.06564966 0.043488644 -0.23080237 0.05603395 -0.034445934 0.17059797 -0.12823592 -0.052864656
0.0038575775 -0.07032696 -0.050661903 -0.038046133 0.029149516 -0.07530006 -0.162866 -0.09897433
-0.3376593 -0.014728932 -0.012375776 -0.08592746 0.08910253 0.06268099 -0.0492804 0.0080659175
-0.021946248 -0.10708056 0.004605089 0.074669585 0.0793208 -0.12341205 -0.0015168089 0.077569805
0.104690224 -0.03113512 -0.7132841 -0.0019653775 -0.05085627 -0.020606918 0.034692667 0.24255809
0.017277053 -0.10180948 0.08430788 0.017756196 0.08338403 0.02775633 -0.044504046 0.029545844

net.4.bias f4 [49]
00000000: d347 45be 0af8 adbe 6952 47be 0e03 943e
00000010: 683b a1be 4ce6 a6bc 800b 3bbf 5dc5 73be
00000020: a9b6 a1bd b836 76be 486f 5dbe a3e4 b33e
00000030: 227e 42be 3cd5 463d d861 1ebf 8690 69be
00000040: d696 0dbe 3f6b 96be de23 9abe 12a9 b93e
00000050: 1b42 74be e2ae 843c 527e 42bf 9dd9 26be
00000060: 16d3 6dbe 22a1 82be 8df0 38be 00ac 843e
00000070: 5253 56be 93d7 98bc dab4 1fbf eaf3 6ebe
00000080: d81a 813f 434d 723f 167f 883f 2c98 07bf
00000090: 48e7 873f c41a 45be 7bb6 5f3f 0381 7b3f
000000a0: 8e3d 8a3c 14c0 d23d 2796 05be 9e8b aabc
000000b0: 3568 bcbd d547 973c 15b2 67be 2983 5c3e
000000c0: 09e8 163d
-0.1926568 -0.339783 -0.1946503 0.2890858 -0.31490636 -0.020373486 -0.7306442 -0.23805757
-0.07896168 -0.24044311 -0.21624482 0.35135373 -0.18993428 0.0485432 -0.6186805 -0.22809038
-0.1382707 -0.29378697 -0.3010549 0.36261803 -0.23853342 0.016196672 -0.75974 -0.1629395
-0.23225054 -0.2551356 -0.18060513 0.25912476 -0.20930222 -0.018657481 -0.6238533 -0.23335233
1.0086317 0.9464914 1.0663784 -0.5296657 1.0617456 -0.19248492 0.8738782 0.9824373
0.016875055 0.10290542 -0.1304556 -0.020818528 -0.091995634 0.01846687 -0.22626527 0.21534409
0.03684238
