meta_ode_solver.pt (torch, 27701 bytes, 6 tensors)

net.0.weight f4 [64, 4]
0.29257196 -0.2744275 -0.38220462 -0.16134748 0.17443801 -0.036293034 0.49194387 0.21047613
-0.17782103 0.081458144 -0.2822201 -0.45286995 0.2990364 0.14000893 0.41371715 -0.3987162
0.37893274 -0.15202178 0.48352298 0.2452713 0.49008757 -0.2558556 -0.39364982 0.3400857
-0.056678783 0.24790178 -0.3229301 0.24020965 0.27394053 -0.12068414 -0.3182705 0.13548349
0.455006 -0.48268643 0.4049763 0.30620077 -0.46505404 0.34457624 0.23858334 -0.48445055
0.18667087 0.36492538 -0.37691906 -0.28759646 0.2883828 0.2629871 0.113777 -0.25898087
0.35863203 0.5050635 -0.41810188 0.13736966 0.0654684 -0.36152977 0.13809446 -0.046046894
0.012402138 -0.4763648 0.48630977 0.13839084 -0.36357814 0.030529335 -0.18847185 0.118545175
-0.473092 0.2750137 0.3351454 0.021458115 -0.3886127 -0.18740214 0.35285187 -0.27803037
0.3148935 -0.218319 0.050834097 -0.4467843 0.35794872 0.45258784 0.33055103 -0.3643271
-0.21841756 0.2467269 0.11804816 0.26503706 -0.255506 -0.38297427 0.35522673 -0.46311143
0.30972478 -0.34078553 0.14496365 -0.33264387 -0.52950704 0.22602618 0.05833547 -0.10675351
-0.5329863 -0.24998821 0.04384608 -0.16471773 0.06670544 -0.12847129 -0.02035612 -0.16334733
-0.329873 -0.21085508 0.25142515 0.28517058 0.12619077 -0.12884317 -0.18079415 0.13420218
0.35038662 -0.05755811 0.35619017 -0.38341522 0.19737853 -0.21017873 -0.17351985 0.4258465
0.32705078 0.016341273 0.17408042 -0.10457218 0.49058968 0.27405253 -0.24648662 0.34117857
-0.23140025 0.49463344 0.012377359 0.3070407 -0.5151062 0.15829253 -0.004150698 0.5214019
-0.020413984 0.28796744 0.17663743 0.21433547 -0.1780919 0.4981045 -0.071333416 -0.13446172
0.40378934 0.26786646 0.36347932 0.16923931 -0.32708713 -0.23035662 -0.4836003 0.03221363
0.08544969 -0.473688 0.38761616 -0.05180913 0.11478237 0.48709935 0.23693281 -0.28375682
0.028032288 -0.37537044 0.119915865 -0.30671257 -0.4559716 -0.122583434 0.12373271 0.532445
0.46196902 0.21570134 -0.35789087 0.15443316 0.052410763 0.39590684 -0.0004326376 -0.15770917
-0.50136685 -0.47761333 0.08559942 0.266977 -0.53200316 0.41779006 -0.13324824 0.30063772
0.45218247 0.42537743 0.28905782 0.19409375 -0.24230851 -0.30891442 0.4331664 -0.10686445
0.1063457 -0.08971877 -0.14515607 0.12536232 0.050634027 0.068039976 0.5029676 0.28499794
0.3182683 -0.019403655 0.0081714885 0.27305344 0.46802163 0.23500547 0.079707 -0.24776635
0.4470708 0.18938053 -0.35050094 0.26348624 -0.020128654 0.16225076 0.29359278 0.45498148
0.13418862 -0.0371759 -0.16033466 -0.2588035 0.34298366 -0.16411416 -0.10088651 -0.33956054
0.09551339 -0.08976192 0.034238454 -0.47355506 -0.19561557 -0.14727595 -0.1368692 0.09251493
-0.10139277 0.4398032 0.06042741 -0.116195306 0.44328186 -0.19225644 -0.2892481 0.32139298
-0.15917623 -0.25149623 -0.47664064 0.29805872 -0.23097199 -0.22697857 0.41475916 0.22046535
0.5032719 -0.057164494 -0.033423793 0.39939514 -0.37180114 0.09915421 -0.21317185 0.12023343
00000000: fecb 953e c381 8cbe 53b0 c3be 4638 25be
00000010: e19f 323e 01a8 14bd 11e0 fb3e 0e87 573e
00000020: b716 36be 87d3 a63d 277f 90be 92de e7be
00000030: 4d1b 993e 805e 0f3e bcd2 d33e 8824 ccbe
00000040: 7903 c23e 99ab 1bbe 5390 f73e 6628 7b3e
00000050: c2ec fa3e 81ff 82be 788c c9be b61f ae3e
00000060: 0328 68bd f7d9 7d3e 1857 a5be 85f9 753e
00000070: ef41 8c3e 3f29 f7bd 5af4 a2be 2fbc 0a3e
00000080: 8cf6 e83e ad22 f7be 0e59 cf3e 59c6 9c3e
00000090: 901b eebe 4c6c b03e 314f 743e e709 f8be
000000a0: a626 3f3e 80d7 ba3e 89fb c0be d83f 93be
000000b0: e9a6 933e 3fa6 863e ea03 e93d 2499 84be
000000c0: 9e9e b73e d74b 013f 7311 d6be a2aa 0c3e
000000d0: 4c14 863d 6e1a b9be a268 0d3e ab9b 3cbd
000000e0: 5632 4b3c 16e6 f3be 98fd f83e 54b6 0d3e
000000f0: ea26 babe a818 fa3c c4fe 40be d0c7 f23d
00000100: 1d39 f2be 98ce 8c3e 2e98 ab3e eec8 af3c
00000110: 3ef8 c6be 59e6 3fbe 00a9 b43e ff59 8ebe
00000120: b939 a13e 048f 5fbe 6a37 503d e9c0 e4be
00000130: 0e45 b73e 98b9 e73e fc3d a93e 1589 babe
00000140: daa8 5fbe faa5 7c3e 3cc3 f13d f0b2 873e
00000150: afd1 82be 3415 c4be 47e0 b53e f11c edbe
00000160: 3f94 9e3e 717b aebe 5a71 143e 4c50 aabe
00000170: c68d 07bf 6873 673e 2cf1 6e3d 96a1 dabd
00000180: ca71 08bf e9fc 7fbe f297 333d c4ab 28be
00000190: dd9c 883d fa8d 03be e1c1 a6bc 8644 27be
000001a0: 1de5 a8be 65ea 57be ccba 803e e101 923e
000001b0: 2738 013e 77ef 03be 1a22 39be 4c6c 093e
000001c0: e065 b33e 0ec2 6bbd 8f5e b63e 004f c4be
000001d0: 991d 4a3e 1839 57be 30af 31be 8d08 da3e
000001e0: 3373 a73e 22de 853c 2342 323e f029 d6bd
000001f0: 922e fb3e 9d50 8c3e fd66 7cbe f5ae ae3e
00000200: 30f4 6cbe 9840 fd3e 68ca 4a3c 7034 9d3e
00000210: 00de 03bf 7017 223e 9402 88bb 987a 053f
00000220: 3a3b a7bc 7870 933e 71e0 343e c27a 5b3e
00000230: b95d 36be 8e07 ff3e 4117 92bd 55b0 09be
00000240: 7abd ce3e cb25 893e f619 ba3e 124d 2d3e
00000250: f777 a7be 9be2 6bbe 759a f7be 70f2 033d
00000260: 3f00 af3d 3c87 f2be a075 c63e cf35 54bd
00000270: 0513 eb3d 1665 f93e 849e 723e 9348 91be
00000280: f8a3 e53c 8e30 c0be 7396 f53d 6e09 9dbe
00000290: 1c75 e9be 060d fbbd 9367 fd3d 514e 083f
000002a0: 3487 ec3e d0e0 5c3e 793d b7be ba23 1e3e
000002b0: abac 563d 4db4 ca3e a3d3 e2b9 837e 21be
000002c0: 9459 00bf bc89 f4be c04e af3d 36b1 883e
000002d0: 5c31 08bf 94e8 d53e 3a72 08be 30ed 993e
000002e0: 7684 e73e 12cb d93e 63ff 933e 83c0 463e
000002f0: b91f 78be 082a 9ebe fdc7 dd3e c0db dabd
00000300: c6cb d93d 79be b7bd cba3 14be fb5e 003e
00000310: a065 4f3d 8b58 8b3d 7cc2 003f 40eb 913e
00000320: 10f4 a23e 6af4 9ebc b5e1 053c a9cd 8b3e
00000330: 88a0 ef3e 46a5 703e 6c3d a33d 76b6 7dbe
00000340: 77e6 e43e f8ec 413e dc74 b3be abe7 863e
00000350: d9e4 a4bc 1025 263e cb51 963e 55f3 e83e
00000360: be68 093e c245 18bd c52e 24be e481 84be
00000370: 8e9b af3e 8b0d 28be 969d cebd e1da adbe
00000380: 869c c33d 19d5 b7bd 9f3d 0c3d cf75 f2be
00000390: 734f 48be 82cf 16be 7127 0cbe 7878 bd3d
000003a0: 03a7 cfbd e32d e13e bb82 773d cef7 edbd
000003b0: d7f5 e23e dfde 44be 5418 94be 9f8d a43e
000003c0: 18ff 22be 1dc4 80be 3e0a f4be 279b 983e
000003d0: ec83 6cbe 126d 68be 505b d43e abc1 613e
000003e0: 6dd6 003f 5125 6abd 63e7 08bd 857d cc3e
000003f0: b85c bebe 5d11 cb3d b949 5abe f23c f63d

net.0.bias f4 [64]
0.22724284 -0.23508361 0.32903525 -0.38624454 0.055035572 0.4619036 -0.19667462 -0.51085114
0.56632286 -0.34132525 -0.21116787 0.27692717 -0.40239125 0.1048816 0.14098158 -0.29442963
-0.010464487 -0.09500579 -0.30307847 0.3461354 -0.22405937 -0.43183756 -0.19056354 0.49103397
0.39782044 0.37052414 0.07643434 -0.5082471 0.33284563 -0.4605293 0.37209147 0.5478432
0.23634225 0.46539003 -0.39282823 -0.20207146 -0.14666134 -0.107204184 0.39794835 0.17522846
-0.13306093 0.041200537 -0.30503726 0.4141327 0.15188044 -0.25160465 0.25557765 0.22088337
0.4776896 0.31247333 0.35339335 -0.31801966 0.04391213 0.40026304 -0.26929417 0.362069
-0.40025505 -0.41685283 0.522276 -0.10390683 0.025515158 -0.5219482 0.17130424 0.40170845
00000000: 59b2 683e c2b9 70be 4f77 a83e d8c1 c5be
00000010: fb6c 613d a17e ec3e 1265 49be 24c7 02bf
00000020: 89fa 103f 2fc2 aebe 643c 58be 66c9 8d3e
00000030: 3a06 cebe 2acc d63d 7a5d 103e 7bbf 96be
00000040: 3d73 2bbc 6592 c2bd 1a2d 9bbe a938 b13e
00000050: d26f 65be d019 ddbe 1723 43be ce68 fb3e
00000060: 1faf cb3e 57b5 bd3e 9b89 9c3d 7b1c 02bf
00000070: be6a aa3e 7fca ebbe c682 be3e 743f 0c3f
00000080: b403 723e 9a47 ee3e c820 c9be d2eb 4ebe
00000090: 642e 16be de8d dbbd e3bf cb3e 176f 333e
000000a0: 2041 08be e5c1 283d d82d 9cbe 3409 d43e
000000b0: 8c86 1b3e 53d2 80be 13db 823e 402f 623e
000000c0: bb93 f43e 81fc 9f3e f9ef b43e 79d3 a2be
000000d0: 35dd 333d 47ef cc3e ede0 89be 1c61 b93e
000000e0: 3bee ccbe bc6d d5be e1b3 053f 1bcd d4bd
000000f0: 2a05 d13c 669e 05bf 616a 2f3e bbac cd3e

net.2.weight f4 [64, 64]
0.1525667 -0.1421374 0.014783 0.10007317 -0.091673225 -0.011419786 -0.100621305 0.10170572
-0.0730696 -0.04995545 -0.13552952 -0.14429994 -0.045023333 0.13349444 0.04081641 0.07378404
0.08495598 -0.004605851 0.14556846 -0.11566009 -0.060880978 0.046927065 0.09714988 0.076448485
-0.09435943 -0.054737035 -0.10545689 0.052559722 -0.119356364 -0.113949865 0.04238918 -0.1012742
0.07124613 -0.06291732 -0.043149725 0.009275663 -0.049063273 -0.013834371 -0.04726914 -0.041379515
0.010907396 -0.0020611815 -0.057916168 -0.008829191 -0.046881244 -0.09146593 -0.18702425 0.11354713
0.08252024 0.051853135 -0.024686009 -0.09257547 -0.03057984 -0.014941387 0.006036781 -0.06173393
0.110502854 -0.08666126 0.026175156 -0.1077547 -0.006439299 -0.07682642 -0.10239832 -0.10011594
-0.08759135 0.0015524626 -0.123567104 -0.07299173 0.09111245 -0.08799459 -0.06957692 -0.10280074
-0.107462764 0.038278073 -0.00033520162 -0.08237149 0.0033132732 0.10649289 -0.010624364 0.12313579
-0.04273644 0.0034057498 -0.092912585 0.028691232 0.07681246 -0.10085793 -0.0521366 0.057835042
-0.056277424 -0.012237802 -0.013595983 -0.03723277 0.03655708 0.07238513 0.1230474 -0.12397641
-0.03292571 0.10703215 0.02548559 -0.09022644 -0.033640295 0.018817082 -0.07753968 0.11393106
-0.1234982 -0.013121948 -0.011870086 0.060946852 -0.10614921 -0.09690598 0.091714144 -0.11819197
-0.026641652 0.08885598 0.027243525 -0.015739217 -0.04287727 -0.055158153 0.038855672 -0.0839854
0.017355531 -0.04501909 0.018215567 0.06976351 -0.046516165 0.11706981 -0.07192835 -0.10012981
0.08213827 -0.011166927 0.005987652 0.13807891 -0.08409627 0.0042227856 -0.053487364 0.02473959
-0.067597255 -0.06723187 -0.017162215 0.072105914 0.024142671 0.07491809 0.075516626 -0.073497824
0.115211494 -0.085258655 0.030183492 0.12590048 -0.09757414 0.009744227 0.11732857 0.013463208
-0.030304331 -0.10885552 0.045483865 -0.0069346586 0.05671091 -0.048956208 -0.010283236 0.10462786
-0.0200605 -0.04859374 0.018590335 -0.00018760972 -0.03605037 0.030852959 0.025436452 -0.085900344
0.040716395 -0.02040434 0.024951978 -0.014650018 0.020740243 -0.073474005 -0.014029881 -0.05712728
-0.06160463 -0.023344457 0.13511941 0.030333921 0.09749389 -0.041476052 0.012863435 0.009921179
0.039287113 -0.0652784 0.098487355 -0.0061898455 -0.019209571 0.061635517 0.040481273 -0.06273259
0.036314003 -0.034018602 -0.07928367 -0.16422103 0.05314471 -0.042231485 0.04794015 -0.047365732
-0.12502874 0.012230889 -0.08566116 0.05735427 0.08112128 0.073276885 -0.15865768 0.14177498
0.15299325 0.09646328 -0.06324409 0.039393634 -0.06365666 0.05268759 -0.1468871 0.20088871
0.015621575 0.07524987 0.10405196 0.007701311 0.038926654 0.05747846 0.1028334 0.05766303
0.13476938 0.11601469 0.011297191 -0.035488337 -0.083813764 0.061750248 -0.018207045 0.07143442
0.047658313 -0.04842064 -0.055824727 -0.036805406 0.06843032 0.09555765 0.09632894 0.035522833
-0.0024584592 0.007939399 -0.03712088 -0.14010547 -0.0746702 -0.0667602 -0.07955498 0.08844969
-0.13312626 -0.12928645 0.07637945 -0.14249492 0.09510829 -0.13291466 -0.10842783 0.14735371
00000000: 723a 1c3e 778c 11be 6534 723c 2af3 cc3d
00000010: 2cbf bbbd 0e1a 3bbc 8b12 cebd 174b d03d
00000020: 84a5 95bd 169e 4cbd 40c8 0abe 5dc3 13be
00000030: 636a 38bd c4b2 083e 1c2f 273d 161c 973d
00000040: 67fd ad3d aeec 96bb e60f 153e 33df ecbd
00000050: 555e 79bd 9836 403d 84f6 c63d 0691 9c3d
00000060: 843f c1bd f133 60bd c8f9 d7bd dd48 573d
00000070: 1c71 f4bd 8c5e e9bd 47a0 2d3d d968 cfbd
00000080: 7ee9 913d ccda 80bd c4bd 30bd f3f8 173c
00000090: 92f6 48bd 8fa9 62bc 499d 41bd 917d 29bd
000000a0: efb4 323c e314 07bb 8139 6dbd 50a8 10bc
000000b0: 8c06 40bd 7d52 bbbd 4983 3fbe 668b e83d
000000c0: 5f00 a93d f463 543d 503a cabc 3598 bdbd
000000d0: 9382 fabc b8cc 74bc 30d0 c53b b8dc 7cbd
000000e0: 524f e23d 757b b1bd 486d d63c 7fae dcbd
000000f0: c100 d3bb 2c57 9dbd 36b6 d1bd 9609 cdbd
00000100: 1863 b3bd 007c cb3a c010 fdbd b07c 95bd
00000110: 2a99 ba3d 8236 b4bd 587e 8ebd 3289 d2bd
00000120: 7015 dcbd 78c9 1c3d 00be afb9 62b2 a8bd
00000130: 8023 593b f218 da3d d011 2ebc 9e2e fc3d
00000140: 680c 2fbd 0033 5f3b f448 bebd e009 eb3c
00000150: da4f 9d3d 9a8e cebd 308d 55bd 70e4 6c3d
00000160: 2883 66bd 1081 48bc b0c1 5ebc 6481 18bd
00000170: e0bc 153d a83e 943d 4600 fc3d 58e7 fdbd
00000180: 1cdd 06bd ac33 db3d 28c7 d03c a4c8 b8bd
00000190: 68ca 09bd 4826 9a3c 20cd 9ebd b054 e93d
000001a0: a0ec fcbd 70fd 56bc c07a 42bc 68a3 793d
000001b0: c264 d9bd a476 c6bd a0d4 bb3d a20e f2bd
000001c0: 983f dabc 20fa b53d d02d df3c 88ef 80bc
000001d0: 14a0 2fbd 84ed 61bd 2027 1f3d 8a00 acbd
000001e0: 302d 8e3c f065 38bd d038 953c 2ce0 8e3d
000001f0: bc87 3ebd 4cc2 ef3d 2c4f 93bd dc10 cdbd
00000200: 1c38 a83d 7df5 36bc 1134 c43b 8f64 0d3e
00000210: aa3a acbd 4b5f 8a3b 9115 5bbd aeaa ca3c
00000220: 6e70 8abd ddb0 89bd c697 8cbc 44ac 933d
00000230: dac6 c53c a86e 993d 76a8 9a3d 0786 96bd
00000240: 01f4 eb3d 179c aebd 5f43 f73c 0eec 003e
00000250: f3d4 c7bd 40a6 1f3c f649 f03d ca94 5c3c
00000260: ca40 f8bc a5ef debd 4a4d 3a3d 223c e3bb
00000270: b349 683d 4e86 48bd 057b 28bc 2247 d63d
00000280: eb55 a4bc 3b0a 47bd c24a 983c 1ab9 44b9
00000290: 8ea9 13bd 58bf fc3c 1b60 d03c 85ec afbd
000002a0: 3cc6 263d 0127 a7bc 1768 cc3c a106 70bc
000002b0: 71e7 a93c 8a79 96bd 96dd 65bc 4bfe 69bd
000002c0: 2355 7cbd e03c bfbc be5c 0a3e d87e f83c
000002d0: e0aa c73d cbe2 29bd 28c1 523c 718c 223c
000002e0: 86eb 203d afb0 85bd bdb3 c93d 30d4 cabb
000002f0: 645d 9dbc 8675 7c3d b1cf 253d f279 80bd
00000300: febd 143d 1757 0bbd 7a5f a2bd 8f29 28be
00000310: 44ae 593d ecfa 2cbd e45c 443d 9202 42bd
00000320: 8907 00be 1164 483c 1e6f afbd 50ec 6a3d
00000330: ea22 a63d 3112 963d 2977 22be 762d 113e
00000340: 43aa 1c3e 8a8e c53d 1e86 81bd 385b 213d
00000350: 6c5e 82bd f1ce 573d 9269 16be c5b5 4d3e
00000360: a2f1 7f3c 9b1c 9a3d 3219 d53d 475b fc3b
00000370: 8e71 1f3d 896e 6b3d 519a d23d 1230 6c3d
00000380: fc00 0a3e 1c99 ed3d da17 393c 385c 11bd
00000390: 8da6 abbd d4ed 7c3d f126 95bc 364c 923d
000003a0: 5d35 433d b954 46bd 78a8 64bd 44c1 16bd
000003b0: 3225 8c3d bbb3 c33d 1b48 c53d 6480 113d
000003c0: 1a1e 21bb 4114 023c 100c 18bd cf77 0fbe
000003d0: b1ec 98bd 92b9 88bd b9ed a2bd 1c25 b53d
000003e0: 4052 08be ab63 04be d46c 9c3d 30ea 11be
000003f0: 23c8 c23d c81a 08be 690f debd e4e3 163e

net.2.bias f4 [64]
0.018313358 -0.07800163 -0.07215894 0.17981999 0.050927963 0.048998896 0.16935948 0.012268931
0.14658208 0.09738523 -0.012984258 0.030213265 0.15306446 0.00469897 -0.030918574 -0.052677553
0.027613822 0.0346873 0.03542048 0.053932466 -0.014069593 -0.024163041 0.08331359 0.020452997
0.12304264 0.052406095 0.16397296 -0.120710224 -0.06586578 0.12328209 -0.08290303 -0.017596176
-0.057984017 0.025085991 -0.057428632 0.06438249 0.042126894 0.065377094 0.15511172 0.0012411104
0.0082345335 0.18136951 -0.011552316 0.0680506 0.04279128 -0.06000992 -0.07103793 0.010930665
0.2661403 0.099438064 0.11189415 -0.023607278 0.16248748 0.17017733 0.098476365 -0.17644036
0.0032793973 0.095798045 -0.08311099 0.13970542 0.17082566 -0.016300384 0.11141178 -0.021452907
00000000: e505 963c 52bf 9fbd 11c8 93bd bb22 383e
00000010: d799 503d 11b3 483d 926c 2d3e a003 493c
00000020: 9d19 163e e871 c73d edbb 54bc cf81 f73c
00000030: eebc 1c3e d1f9 993b f348 fdbc 6bc4 57bd
00000040: 6236 e23c 4514 0e3d 1115 113d 4ae8 5c3d
00000050: 2684 66bc 92f1 c5bc 51a0 aa3d 0b8d a73c
00000060: c8fd fb3d c6a7 563d 87e8 273e ec36 f7bd
00000070: a3e4 86bd 527b fc3d 10c9 a9bd db25 90bc
00000080: a680 6dbd 2381 cd3c 493a 6bbd f8da 833d
00000090: 408d 2c3d 6de4 853d 9bd5 1e3e c1ac a23a
000000a0: 23ea 063c eeb8 393e ed45 3dbc 1d5e 8b3d
000000b0: e945 2f3d f6cc 75bd 567c 91bd 8816 333c
000000c0: 8b43 883e 2fa6 cb3d c328 e53d 0d64 c1bc
000000d0: 1e63 263e f742 2e3e faad c93d c8ac 34be
000000e0: 28eb 563b c431 c43d 1836 aabd f00e 0f3e
000000f0: ecec 2e3e 6288 85bc dc2b e43d 02be afbc

net.4.weight f4 [25, 64]
-0.22533289 0.033023387 -0.064605415 -0.06951128 -0.14147681 -0.092405654 0.07290504 -0.042747475
0.027821494 0.019287325 -0.024804011 0.032822933 0.101285614 0.10345483 -0.015793033 -0.037353978
0.04057743 0.021153029 -0.079215854 -0.14229225 0.01754466 -0.15439136 0.121989556 -0.11380864
-0.09692225 0.081749015 0.09975178 0.0057731485 -0.08278488 0.034499943 -0.108726606 0.07643272
0.025799772 -0.12191156 0.0033212116 0.05966436 0.03640665 -0.094340466 -0.018027088 0.02142439
0.19733301 -0.0098344255 -0.09955723 -0.06146827 0.09929448 -0.11820828 0.08257333 -0.009577063
0.0931197 -0.030272156 0.04732026 -0.003402427 -0.07467976 0.031189816 -0.1113352 -0.11016571
0.026370851 -0.03452418 -0.023110177 -0.004076712 0.023506608 0.058859576 0.01837059 0.0030529143
0.07492113 -0.04185821 0.11428899 -0.051989105 0.0059408923 0.02222172 0.030821344 -0.07754441
-0.057877973 0.048430443 -0.008590175 -0.034759965 -0.035231587 -0.05588888 -0.11517988 -0.024597261
-0.0020652271 -0.046464838 0.042411454 -0.13435264 0.08359029 -0.035544507 0.13312392 -0.12594043
-0.093209974 0.09721382 0.1438175 -5.1449388e-05 0.05168143 0.106699765 -0.15948123 0.12842019
-0.09503051 -0.00085252407 0.08571516 0.011161328 -0.10429254 0.0714232 -0.07137313 -0.07113503
-0.015315926 -0.061689917 0.052594505 0.056869887 0.06866623 0.060071368 0.01271877 -0.01290857
0.035938025 -0.060344078 -0.0137640145 0.028567558 0.14903028 0.03285351 0.03113392 0.08693913
0.0076125613 -0.05013267 0.09505562 0.13363472 0.009067355 0.029147372 -0.06940446 0.010208246
-0.012173256 0.005653262 -0.02154468 0.04634663 -0.021143958 0.04407765 0.08138297 -0.07086813
-0.11188206 0.091761835 0.10213916 -0.10985172 0.085768975 -0.07164882 0.052756082 -0.034521703
0.0714899 -0.09422084 -0.0737727 0.061621845 0.10520689 0.03859312 0.079578884 -0.10948527
0.20757735 -0.09936701 -0.013252812 0.083320715 -0.099737585 -0.058436602 0.075838864 0.11532683
-0.039653037 -0.049548324 -0.097063944 -0.11286756 0.055624172 -0.077025555 0.07140273 -0.11846113
-0.046469063 -0.07465835 0.017224718 -0.029902074 -0.110805474 0.015710585 -0.08217815 -0.008408292
0.010313698 0.092241056 -0.085824296 -0.118513614 0.11736634 0.040887658 -0.074864015 0.06978439
0.011239541 0.105504155 -0.03542371 0.048610933 0.053353317 0.10809093 0.16439724 -0.10950152
-0.22127007 -0.003320381 -0.023692112 -0.12567025 -0.016312176 -0.096229225 -0.007979916 -0.036358036
-0.033460706 -0.10658387 0.010373858 0.06389962 -0.04333152 -0.045332897 -0.14485966 -0.061777983
-0.08196278 0.009592226 -0.06841439 0.12385643 -0.0011010116 -0.096631825 -0.09451928 0.08282185
0.07635691 0.07848601 0.008781282 -0.084489904 -0.03975229 0.006522909 0.095521025 0.08721649
-0.0051794206 -0.11473229 0.07588903 0.08520297 -0.048996285 0.050490208 -0.04885852 0.11781916
0.119557485 -0.018320879 0.095252514 -0.06706249 0.1042004 -0.046281353 -0.015910031 -0.034880605
-0.00907654 -0.024806304 0.020709174 -0.07618874 -0.051335506 -0.052597255 -0.024130598 -0.088371485
-0.032813083 0.121681415 0.08019641 -0.12749486 0.08652163 0.042337414 0.1463598 0.09476293
00000000: aabd 66be 8843 073d d84f 84bd ee5b 8ebd
00000010: 4cdf 10be 2d3f bdbd 3d4f 953d fa17 2fbd
00000020: e7e9 e33c 7400 9e3c c831 cbbc 5771 063d
00000030: d56e cf3d 20e0 d33d 6460 81bc 7c00 19bd
00000040: 8534 263d 1e49 ad3c ec3b a2bd 0fb5 11be
00000050: d2b9 8f3c c518 1ebe a9d5 f93d 8114 e9bd
00000060: 2c7f c6bd 076c a73d a94a cc3d ae2c bd3b
00000070: 1f8b a9bd d04f 0d3d 0eac debd c288 9c3d
00000080: 0b5a d33c c5ac f9bd afa8 593b 9e62 743d
00000090: 241f 153d 9335 c1bd 8bad 93bc 3482 af3c
000000a0: aa11 4a3e 9220 21bc a9e4 cbbd 27c6 7bbd
000000b0: e85a cb3d 2f17 f2bd 351c a93d 1de9 1cbc
000000c0: 8bb5 be3d 50fd f7bc e4d2 413d 41fb 5ebb
000000d0: b4f1 98bd c981 ff3c b603 e4bd 8f9e e1bd
000000e0: af07 d83c 3a69 0dbd 8e51 bdbc f095 85bb
000000f0: ee90 c03c bd16 713d eb7d 963c 6713 483b
00000100: 4070 993d 8473 2bbd 5910 ea3d 87f2 54bd
00000110: d1ab c23b 530a b63c 0b7d fc3c 9bcf 9ebd
00000120: 7411 6dbd 005f 463d cebd 0cbc 7760 0ebd
00000130: ff4e 10bd bdeb 64bd 6ee3 ebbd 3280 c9bc
00000140: c358 07bb ea51 3ebd a2b7 2d3d bd93 09be
00000150: 6331 ab3d 1e97 11bd a351 083e 87f6 00be
00000160: dfe4 bebd 0a18 c73d e544 133e 5ccb 57b8
00000170: e8af 533d 6885 da3d 0c4f 23be 9580 033e
00000180: 5b9f c2bd ec7b 5fba 6e8b af3d 01de 363c
00000190: 5497 d5bd 5446 923d 132c 92bd 3eaf 91bd
000001a0: a6ef 7abc 91ae 7cbd 566d 573d 66f0 683d
000001b0: e1a0 8c3d 650d 763d 6362 503c 777e 53bc
000001c0: c033 133d 5a2b 77bd 7682 61bc 8306 ea3c
000001d0: 659b 183e 6791 063d 900c ff3c 250d b23d
000001e0: cb72 f93b ea57 4dbd 85ac c23d 8ad7 083e
000001f0: 3e8f 143c 78c6 ee3c ed23 8ebd 7d40 273c
00000200: 5672 47bc 003f b93b 787e b0bc f7d5 3d3d
00000210: 1836 adbc c48a 343d 1dac a63d 4f23 91bd
00000220: 6c22 e5bd a1ed bb3d 562e d13d f0f9 e0bd
00000230: a5a7 af3d 9ebc 92bd c316 583d a166 0dbd
00000240: 4c69 923d dbf6 c0bd 2416 97bd 3067 7c3d
00000250: b676 d73d d213 1e3d 41fa a23d d039 e0bd
00000260: 288f 543e ee80 cbbd 5322 59bc 0da4 aa3d
00000270: 3843 ccbd 385b 6fbd 6851 9b3d 7930 ec3d
00000280: 396b 22bd 2ff3 4abd 76c9 c6bd 1b27 e7bd
00000290: 2cd6 633d 93bf 9dbd 983b 923d c09b f2bd
000002a0: 5856 3ebd 7ae6 98bd da1a 8d3c 32f5 f4bc
000002b0: fbed e2bd 7cb3 803c 054d a8bd efc2 09bc
000002c0: c9fa 283c e1e8 bc3d a6c4 afbd 44b7 f2bd
000002d0: c35d f03d d179 273d 4e52 99bd 1eeb 8e3d
000002e0: 0d26 383c 9012 d83d 7418 11bd 421c 473d
000002f0: 0289 5a3d c75e dd3d c057 283e 5542 e0bd
00000300: 9f94 62be c09a 59bb f615 c2bc b4af 00be
00000310: 1da1 85bc d413 c5bd 32be 02bc 2aec 14bd
00000320: 180e 09bd a548 dabd 1df7 293c cedd 823d
00000330: 647c 31bd fdae 39bd 1756 14be e90a 7dbd
00000340: 1adc a7bd b628 1d3c d81c 8cbd 71a8 fd3d
00000350: d24f 90ba e8e6 c5bd 5393 c1bd 819e a93d
00000360: 0361 9c3d 46bd a03d 5edf 0f3c 0b09 adbd
00000370: 4cd3 22bd 20be d53b 87a0 c33d 8f9e b23d
00000380: 21b8 a9bb c3f8 eabd b56b 9b3d e57e ae3d
00000390: 54b0 48bd d2ce 4e3d df1f 48bd 2c4b f13d
000003a0: 8eda f43d ab15 96bc c013 c33d 0f58 89bd
000003b0: 0567 d53d 8491 3dbd c155 82bc f7de 0ebd
000003c0: c5b5 14bc 9736 cbbc 49a6 a93c d808 9cbd
000003d0: 2e45 52bd 3870 57bd 88ad c5bc 1cfc b4bd
000003e0: 0367 06bd 1b34 f93d 043e a43d 038e 02be
000003f0: 4132 b13d ff69 2d3d 58df 153e 1113 c23d

net.4.bias f4 [25]
0.07302607 0.11786788 -0.042381108 0.094286695 0.15026236 -0.027704945 -0.068148814 -0.027856315
-0.053766195 0.0615718 -0.0045959842 -0.09387879 -0.0122985765 0.08670518 0.13025498 0.07570324
0.22600864 -0.026215546 0.13158186 0.10981911 0.11560076 0.05896101 0.022329291 0.19131798
-0.084222384
00000000: b18e 953d b764 f13d d097 2dbd 6219 c13d
00000010: 60de 193e 7bf5 e2bc 9b91 8bbd ed32 e4bc
00000020: f139 5cbd b632 7c3d e999 96bb 8643 c0bd
00000030: f87f 49bc 7c92 b13d 9061 053e 4d0a 9b3d
00000040: cf6e 673e fcc1 d6bc 65bd 063e d7e8 e03d
00000050: 17c0 ec3d 1a81 713d ebeb b63c dce8 433e
00000060: c97c acbd
