meta_ode_solver.pt (torch, 27701 bytes, 6 tensors)

net.0.weight f4 [64, 4]
00000000: 7baa 703e 6cc3 06bf 8a91 96be bc72 d5be
00000010: c985 b6be 716b d13e 8783 d53e 03b1 523e
00000020: 6c20 a4bd 8155 cfbe 2289 26be 5d94 263e
00000030: d10b be3e 3776 d0bd dc25 4bbd ef70 2c3e
00000040: 9769 483e 7c89 6cbe 5570 cebe 5c01 c7be
00000050: 106d afbe 6297 943e aa3e e83c 6a1e 2ebd
00000060: c3c7 b33d 40dd 9b3d a42d 28be 3551 d9be
00000070: a93b 063f abbe c7bd c2ce f23e 70f7 a63e
00000080: 1e4c 3b3e b84e b13e 49f5 80be e4a3 aebe
00000090: 8f42 e1be c07a ca3e 5ee6 f83e 1799 3abe
000000a0: c489 c8be b41f b1bd d8ea 8a3c 6937 b5bc
000000b0: 17d1 90be 5259 babe f79a 32be c8f4 c93d
000000c0: 1326 f8be c1a7 26bc db3b d03e 304c b5be
000000d0: 4789 51bd d775 083f 913c 59bc b21f 963e
000000e0: d1f6 8f3e 4064 d4be 2bc0 eabd 8eb9 a83e
000000f0: 9fd9 db3e 94f6 8f3d 21eb 05be 5ff2 c83e
00000100: 06d0 753e 7f97 b4be 0ff2 f33e 0199 c2be
00000110: a1bf f4be 680b 53be e839 473e 0351 c53e
00000120: e42d 08be 9741 883e d12b b03e 1745 d7be
00000130: 7522 e43e 335a edbd 5024 ba3e dd61 de3e
00000140: 2509 46be 1fb4 e2be 445f 6e3e e13f c4be
00000150: 4b52 a5be 5ab6 02bf 61a1 ddbc df50 7cbe
00000160: da8e fcbd aebe d13e 7160 f33e 85cd 73be
00000170: e1cc 233e 6c5d 53bd a709 273c 4846 e2be
00000180: 3430 0ebc c7a2 c13e fcf0 67be 9948 a23e
00000190: 035c 073f e48b 873e 82e2 b73e f142 39bd
000001a0: 7697 9ebe bd61 553d 823a b4bd 59d7 be3d
000001b0: b10f 143d 9078 adbe b5c6 403e 106d e0bc
000001c0: b6c5 8cbe f577 b7bd 1d93 30bd 6507 a43e
000001d0: 842b 683e 390a 2fbe 0da3 dbbe 7793 89bd
000001e0: 355d d93e 1edc 5ebe 7d64 22be 8381 943d
000001f0: 1064 373d 32c4 67be 488e 7a3e 8d91 e1be
00000200: ab3d b6be 863c 12bd bb7f 033f 26b0 48be
00000210: 74e1 c93d c194 e83e 737c b53e b21a 9f3e
00000220: 035f d53e 1984 debc 5613 ec3e 4ee7 343d
00000230: 128c 833d 2220 5e3d 8155 913e b721 e43e
00000240: 2406 e0be 9478 013e 6941 c0bd 4405 013f
00000250: 4a18 14bd 40f4 b33e 8107 afbe 1b09 ccbe
00000260: 6d2a dc3e a8e0 d2bd f153 00bf f707 d63e
00000270: a69e e8be cb47 323c 190e 90be f9d1 923d
00000280: 8c22 36be ca7d ee3e 7f6b 073e 3c5b 8f3e
00000290: 465d 64bc f68d e43c ea40 fc3d 9ceb 8e3e
000002a0: 214e b3be 8bab d9be 9ff0 af3e d134 c5be
000002b0: 254f 14bf 2d1a 1a3f 6a75 83be 2313 c53e
000002c0: e70d b03d 565b 083e 9bad 9dbe 851b ac3c
000002d0: bf8b 38bd 781e 033e a9b8 78be f912 903e
000002e0: b07e 623e 658d 5cbd a515 bdbe bba5 f43e
000002f0: 7ec0 bbbe 92ed c53e eefc adbd 6bd6 5b3e
00000300: 7681 d13e 5b87 80be 16e3 ce3e 891d a43e
00000310: 5d3a 813e ccbd e9be ffc7 443e 3316 90be
00000320: ee03 823e e8de 58bd 458a c9be 629e c8be
00000330: 7641 d13e 71f1 59be affd 783e cdf8 85be
00000340: 3da3 3dbe 0767 703e a1f9 03bf 5e63 bf3e
00000350: 7162 45be 4b20 e43d 5591 ddbb 0f08 583e
00000360: 3100 aebe 4fc9 97be 5f9c 073f caa8 1f3e
00000370: 4ee6 51be 2945 01be 30f7 afbe 4a12 d03e
00000380: e1d9 0ebf 2222 f53e 276a b8be f00b 8bbe
00000390: 43d2 d2be fd21 bd3e 4a61 b6be 8a2c 373e
000003a0: 42ba cfbe b622 323e c4d4 d33e 0488 f9bc
000003b0: c207 df3e 0462 a0be b228 90be 7aff b03d
000003c0: 2b59 d9be 1737 03bf 3174 89bd ada2 9abe
000003d0: 7a87 5f3e 0a74 13be 189e 96be 3cf2 58be
000003e0: e1da 7ebd 3cff 913e 0b0a 4fbe 26db edbe
000003f0: e3b8 b33e 06ce 053e e867 ef3e f41a eabe
0.23502533 -0.5264194 -0.29407912 -0.41689098 -0.35648945 0.40902284 0.4170191 0.20575337
-0.080139965 -0.40494922 -0.1626325 0.16267534 0.3711839 -0.10178798 -0.049596652 0.16839956
0.1957153 -0.23099321 -0.40320078 -0.38868225 -0.34262896 0.29021746 0.028350193 -0.042509474
0.08778336 0.076105595 -0.1642366 -0.4244477 0.52434784 -0.09753164 0.4742337 0.32610655
0.18290755 0.3463037 -0.25187138 -0.34109414 -0.43996093 0.39546776 0.48613256 -0.18222462
-0.39167607 -0.08648625 0.016957685 -0.022121148 -0.28284523 -0.3639627 -0.17441927 0.098611414
-0.48466548 -0.010171832 0.40670666 -0.3540969 -0.05115631 0.5330481 -0.013259069 0.29321057
0.28117993 -0.41482735 -0.114624344 0.32954067 0.4293947 0.07029453 -0.13077976 0.39247414
0.24005136 -0.35271832 0.47645614 -0.38007358 -0.4780245 -0.2060982 0.19455683 0.3853837
-0.13298756 0.2661254 0.3440843 -0.420449 0.4455754 -0.1158947 0.3635583 0.4343404
-0.19339426 -0.44278046 0.23278528 -0.38329986 -0.32289347 -0.51059496 -0.02705449 -0.24640225
-0.12331934 0.4096579 0.47534516 -0.23808868 0.15996124 -0.051602766 0.010195172 -0.44194245
-0.008678485 0.37819502 -0.22650522 0.31696013 0.52874774 0.26473916 0.35915 -0.045229856
-0.3097493 0.052095164 -0.08800222 0.09318418 0.036147777 -0.33881044 0.188258 -0.027395755
-0.2749459 -0.08958427 -0.04310905 0.32036892 0.2267285 -0.17093743 -0.42897835 -0.0671758
0.42453924 -0.21763656 -0.15858646 0.07251265 0.04477316 -0.22633436 0.24468338 -0.4405636
-0.35593924 -0.03570225 0.51366776 -0.19598445 0.09857455 0.4542599 0.3544651 0.31075054
0.4167405 -0.027162598 0.46108502 0.0441659 0.06423201 0.054229863 0.28385547 0.44556972
-0.43754685 0.12643653 -0.09387476 0.5039866 -0.036155976 0.35147285 -0.34185413 -0.39850697
0.43001118 -0.10296756 -0.50128084 0.41802952 -0.4543354 0.010881375 -0.28135756 0.07168955
-0.17786616 0.46580344 0.132246 0.27999294 -0.013938254 0.027899724 0.12317069 0.2791413
-0.35020545 -0.4251369 0.34363267 -0.38516858 -0.57933265 0.6019619 -0.25675517 0.38491163
0.08596402 0.13316092 -0.30796513 0.021009216 -0.045055147 0.12804592 -0.24289192 0.28139475
0.2211864 -0.05384578 -0.36930576 0.47782692 -0.36670297 0.38657814 -0.08495508 0.21468513
0.40919083 -0.25103268 0.40407628 0.32053784 0.2523984 -0.45652616 0.19216917 -0.28141937
0.25393623 -0.052946955 -0.39363304 -0.39183336 0.40870255 -0.21283509 0.24315523 -0.26166382
-0.18519302 0.23476802 -0.5155278 0.373805 -0.19275834 0.11138972 -0.0067617097 0.21096824
-0.3398452 -0.29645774 0.5297298 0.15591732 -0.2049801 -0.12624039 -0.34368277 0.40638953
-0.55801207 0.47877604 -0.36018488 -0.27157545 -0.41176042 0.36939994 -0.356211 0.17888084
-0.4057179 0.17396054 0.41373265 -0.030460365 0.43560606 -0.3132478 -0.28156048 0.08642478
-0.42450842 -0.51255935 -0.06711615 -0.30202237 0.21829024 -0.14399734 -0.2941749 -0.21186155
-0.062220458 0.2851504 -0.20218675 -0.4645626 0.35101995 0.13066873 0.46758962 -0.4572369

net.0.bias f4 [64]
00000000: 140e f2bd fa16 d1be 4fe1 103f 4c48 d83e
00000010: 0a41 e83e f9c7 bebe 1ae0 aa3e c5db 93be
00000020: e875 a3be 7398 b1be 5129 fe3e 790a 873e
00000030: 7a36 dd3e 537d bc3e 840d 1ebe 3fac 983e
00000040: 55b7 f2be e12e dc3e fc97 95be 113a 713e
00000050: 4573 073f 59b6 e6bc 8310 663e e807 033f
00000060: b77c 083f 21ba acbc e085 9ebe c733 3dbc
00000070: b765 233e b63c 3d3e 5acb b23e ab08 3c3d
00000080: d33b 903c 1d60 cb3d 219e eb3e e1a3 673e
00000090: a270 c73e 40a9 653e 0602 213f 0c1b 7e3d
000000a0: a945 d43e a5d9 00be aed8 9ebd a8f0 a53e
000000b0: b4d7 84be bfe1 9e3d c0dc 57be 704f ecbe
000000c0: df19 83be da25 3bbe 91fd eabe 8c4e ca3e
000000d0: 183f 283e 2d57 cd3e 1eb2 673e 268c 6fbe
000000e0: 92d9 19be bf48 063f 4991 a2be 9d8d 22bd
000000f0: a3cc 9abe 0dfa 053f 418a 013f 297c 7d3e
-0.118190914 -0.40837842 0.56593794 0.42242658 0.4536212 -0.37261942 0.333741 -0.28878608
-0.31925893 -0.34686622 0.49640897 0.26375178 0.43205625 0.36814365 -0.15434843 0.29818913
-0.47405496 0.43004516 -0.29217517 0.23557307 0.5291026 -0.028163122 0.22467236 0.5118394
0.533153 -0.021084847 -0.30961514 -0.011547989 0.1595677 0.1848019 0.3492077 0.045906704
0.017606651 0.099304415 0.4601908 0.22621109 0.3895312 0.22427845 0.6289371 0.062037513
0.41459396 -0.12583025 -0.07756172 0.3241017 -0.25945818 0.077579014 -0.21080303 -0.46154356
-0.25605676 -0.18276158 -0.4589658 0.39513052 0.16430318 0.40105572 0.2262654 -0.23393306
-0.15024403 0.5245475 -0.3175147 -0.039685834 -0.3023425 0.5233467 0.50601584 0.24754395

net.2.weight f4 [64, 64]
00000000: b027 043c 6f07 e8bd a948 e03d 6140 46bd
00000010: a2e7 77bc 41dd 90bd 850f 083e 4f91 8fb9
00000020: 7787 023e f6a7 8d3d a1e7 4dbd e2d3 d8bc
00000030: 2811 963a 5b77 9fbd 888b ecbc 2853 273b
00000040: 4156 42bc 97e7 82bd 1c4e ca3d 8661 abbd
00000050: 77d0 9c3d a04d ffbc 5627 1dbd d935 0c3e
00000060: a36d f73d 2f71 fa39 28f9 bf3d 8f9a c4bd
00000070: caf6 483d 9898 e73d c600 553b c6b7 6f3d
00000080: 7015 413d 739b b8bd a66d aebd f612 e93b
00000090: e955 8abc b5f4 a7bd 2222 b23d 6653 0e3d
000000a0: a6c2 67bd 17f9 603d c977 7cbd 353a 60bd
000000b0: 48d6 f63d 37a1 d4bd af58 2c3d 8cb2 8d3d
000000c0: fcf8 c93d b669 913d c81b 1f3d d672 a63c
000000d0: ec4a 0c3e f391 1fbd 737c 7fbd 9dca 0c3d
000000e0: 15d7 313e 4810 f53c 47f1 5dbd d420 76bc
000000f0: ef55 8fbb 51f9 5b3d 5d7d 6e3c 3d26 a3bd
00000100: 0b99 1a3d 7985 bf3d 994c 12bd e7b9 35bd
00000110: d239 23bb e60b 853d e8d8 943d 0d4c ef3d
00000120: a221 ffbd bb6b f73d 7f31 2abd 5709 5e3d
00000130: a033 f53d 141c afbd 5b30 17bd 7c39 173d
00000140: 6998 513d a0c6 45ba 9059 2a3b 161d aebd
00000150: 074e b03d ba5f 9a3c 5df5 f93d 4ad2 0f3e
00000160: fdbc c1bd 37c9 05be 65cd b03c 9860 6d3d
00000170: ee80 34bd 10cc 413c 5c87 dc3d 6896 aa3d
00000180: a422 c2bd 0292 c33d a267 d13b a712 a63d
00000190: ad7b d7bb fa79 cb3d 673b d03d 340e 09be
000001a0: 0a32 e33d 3324 e73d deec 5d3d 5ddb d4bc
000001b0: 9e4d 9fbc 1c10 fabd 950e ecbd 0070 17be
000001c0: f41c 35bd b0ac c43d 3e38 903d 13e2 5cbc
000001d0: f1d4 ed3c d65a ab3d 47c2 dfbb e473 00be
000001e0: 43ec a0bd 669f e23c f4ce 90bd 7a99 7fbd
000001f0: 43d3 d6bd 6191 6d3d ccd2 b1bd b00f 133e
00000200: c7b9 783d fad0 c43d 10b1 1dbb f09a 4ebd
00000210: 86bb 2e3d 6c02 1cbc 86fe b23d bc7f b13d
00000220: 3b20 1dbd 60c9 e1bd 22cf 063e 9d67 7ebc
00000230: 0268 ab3d 501f b13d 94c7 5c3d fa20 19bd
00000240: c15e ff3d d567 42bd 0986 6339 961f c0bc
00000250: 98b6 0c3e 05f3 84bd 76c2 16bd c013 ccbc
00000260: bce6 dabc 514a b73d 0798 03be ee3d 56bd
00000270: 5c6a ea3c 27e1 f13d 743c 063d 08b3 413c
00000280: 17af 59bd d406 e9bc 8355 66bd a7c9 16bc
00000290: 24b0 c13d 6bf9 4e3d b7f6 d93d 82ff dc3d
000002a0: 683a d53d 10e5 29bd f1e0 99bd 2ec7 7e3d
000002b0: bf9e 44bd bbe6 cabd 5e10 2ebd 05a9 3f3d
000002c0: 9555 8ebd 69ed b6bd a466 1abd 020d 073d
000002d0: ab4d 713d 8072 b73d ba23 653c 50a9 993b
000002e0: 5647 fb3c 0a66 a6bd a3fa 4d3d db75 a73c
000002f0: 49c7 923d a412 ee3b 9d7e acbd 9c01 9bbd
00000300: 170d 06be ef7f b83d 5d3b babd 0cb2 7cbd
00000310: 6d25 c93d ac9f 62bd 1605 6b3a 1cc3 fbbd
00000320: 4f43 723d 8475 973c 33b0 193d 6fb9 9bbd
00000330: 45e3 ea3d 3bf8 8abd 5478 663c 632a d7bd
00000340: 26db 01be 6887 6f3d 751e 6f3d d569 13bd
00000350: dcdd e5bc c2e4 02be 4b6b b039 d095 2f3d
00000360: c5ea da3d 9a3f d4bc 0d67 943d 38b4 3fbe
00000370: 4b23 813c 853f 0f3e 0583 913c 0d75 dcbd
00000380: 4757 103d a68f 8b3d de63 293c 24e1 b03d
00000390: 8b52 14bc 96af 743d 19bd d83a 9831 103e
000003a0: 0a93 333e db3c 2c3d 6148 a4bc 0229 97bc
000003b0: 9b59 e73d a717 9e3a f43e 553d d1d6 94bd
000003c0: 24a5 01bd 1939 883d b71a c6bc ecde d2bd
000003d0: 350e aa3d 9136 64bc c9c8 233a f9f4 9abd
000003e0: acbf ce3d 9f31 3f3e 3455 0bbd 89fc 33bd
000003f0: ffd8 593c 716b 4dbd c2fc 0e3e c0cf b53d
0.008066103 -0.11329543 0.10951359 -0.04840124 -0.015130909 -0.07073451 0.1328717 -0.0002738335
0.12746988 0.06916802 -0.050269727 -0.026468221 0.0011449205 -0.07786437 -0.028875127 0.0025531743
-0.011861385 -0.063918285 0.098781794 -0.083682105 0.07656949 -0.031164944 -0.03836759 0.13692416
0.120814584 0.00047768044 0.09373695 -0.09599792 0.04906348 0.11308402 0.0032501682 0.05852487
0.047139585 -0.090140246 -0.085170075 0.007112856 -0.016886668 -0.08200971 0.086979166 0.034747504
-0.056582116 0.05492505 -0.061637674 -0.05474301 0.1205259 -0.10382312 0.042076763 0.06918821
0.09861943 0.07100241 0.038844854 0.02031843 0.13700455 -0.038957547 -0.062374543 0.034372915
0.17367204 0.02991499 -0.054185178 -0.015022475 -0.0043742578 0.053704564 0.014556256 -0.07966278
0.03774361 0.0935163 -0.03571758 -0.044366743 -0.002490629 0.0649641 0.07267934 0.116844274
-0.12457587 0.12081095 -0.04155111 0.054208126 0.11972737 -0.08550277 -0.03691135 0.036920056
0.05117074 -0.0007544551 0.0025993325 -0.085016415 0.086086325 0.018844474 0.122050025 0.14045063
-0.09459875 -0.13065039 0.021582315 0.057953447 -0.04406827 0.011828437 0.10768005 0.08329469
-0.094792634 0.09549333 0.006390528 0.081090264 -0.0065760226 0.099353746 0.1016758 -0.13384324
0.110935286 0.11286201 0.054180972 -0.025983507 -0.01944619 -0.12210104 -0.11526219 -0.14788818
-0.044217065 0.0960325 0.07041977 -0.013481635 0.029032202 0.08366935 -0.0068285796 -0.12544209
-0.07857563 0.027663898 -0.07070723 -0.062402226 -0.10489514 0.057999972 -0.086827844 0.14361453
0.060724046 0.096101716 -0.0024061836 -0.05044073 0.042659305 -0.009522062 0.08739953 0.086669415
-0.038360815 -0.11024737 0.13164952 -0.015527633 0.08369447 0.086485505 0.05390127 -0.037384965
0.12469245 -0.047462303 0.00021698339 -0.023452561 0.13741529 -0.06491665 -0.036806546 -0.024911761
-0.02672135 0.089497216 -0.12850963 -0.052305155 0.02861517 0.118105225 0.032772496 0.0118224695
-0.053145494 -0.028445639 -0.056233894 -0.009203351 0.09457424 0.050530832 0.1064276 0.10790922
0.10411531 -0.041478217 -0.07513607 0.06220167 -0.048002955 -0.099072896 -0.042496078 0.04679205
-0.06949917 -0.08932001 -0.037695542 0.03297139 0.05891196 0.08957386 0.013985569 0.004689373
0.030673664 -0.08124931 0.050287854 0.02044194 0.07166917 0.0072654057 -0.08422587 -0.07568666
-0.13090931 0.090087764 -0.09093354 -0.061693236 0.098215915 -0.055328056 0.00089652964 -0.122930735
0.05914622 0.018488653 0.037521552 -0.07603728 0.114691295 -0.067856275 0.014066774 -0.105061315
-0.12681255 0.058478743 0.058378655 -0.0359896 -0.028059892 -0.12782577 0.00033649275 0.04286748
0.1068931 -0.025909234 0.07246218 -0.18721092 0.0157639 0.13989075 0.01776267 -0.10764513
0.035239484 0.06814508 0.010338752 0.08636692 -0.009052883 0.059737764 0.0016535848 0.14081419
0.1753656 0.042050224 -0.020054044 -0.018452171 0.11296388 0.0012061492 0.05206199 -0.072675355
-0.03165163 0.066515155 -0.02418266 -0.10296425 0.08303491 -0.013929025 0.0006247876 -0.07566256
0.10095152 0.18671273 -0.034016803 -0.04394201 0.013296365 -0.050151292 0.13963607 0.08877516

net.2.bias f4 [64]
00000000: de58 3a3e 3d09 213d dbfa c8bd 2f5f bd3d
00000010: 9ac5 643d 6894 d9bd 433b 74bc 5bb9 553e
00000020: bda3 663d ff4c 0b3e 464f 93bd 1772 6f3d
00000030: 220b 55bc 6d1e 763d e56f 273e 2b04 45be
00000040: 2130 043e 6bda 99bd b803 2c3d fd55 f3bd
00000050: 03e9 703d f03f 4fbd b553 ac3d cc88 ed3d
00000060: 0ea9 523e 2aac 4d3d 24ca 88bc d61b 04be
00000070: 7e6d 36be 0698 afbd a771 8bbd 044f 4cbd
00000080: 8c24 5fbd 9cc4 dd3d 9d7d 3b3e 9e0f 0e3e
00000090: a6d9 15be 46bc e5ba 691a 2c3d 9797 033e
000000a0: 275c 553d fb32 b23c 1a05 65bd 229b fb3d
000000b0: f8e7 b03d bc25 1abd 7fca aa3d 8254 a6bc
000000c0: 58e9 11bd 798c 013e 122f 25bd bccf 273e
000000d0: 83da ac3d 0e77 d0bc 30af e93d 7822 b5b9
000000e0: 6ecd 853d c1e3 55bb 9840 b2bd cd94 7a3e
000000f0: 9076 82bd 696c 4e3e a8fd 593d 0ef6 673d
0.18197963 0.03931545 -0.09813472 0.092466705 0.05585251 -0.10624009 -0.014906707 0.20871489
0.056308497 0.1360359 -0.071928546 0.058458414 -0.013003143 0.06008761 0.16351278 -0.19239871
0.12908985 -0.07512363 0.041995734 -0.11881635 0.058815967 -0.050598085 0.08414403 0.115983576
0.20572302 0.050213017 -0.01669795 -0.12901244 -0.17815205 -0.08573918 -0.06808787 -0.049880043
-0.054478213 0.10828516 0.18309636 0.13873145 -0.14633808 -0.0017527423 0.042017374 0.12850796
0.052089836 0.021752825 -0.05591307 0.122854486 0.086379945 -0.037633643 0.08339404 -0.020303968
-0.035622925 0.12651242 -0.040328093 0.16387838 0.08440115 -0.025447395 0.114103675 -0.00034548691
0.06533323 -0.0032636973 -0.087037265 0.24470825 -0.0637027 0.20158543 0.05322042 0.05663114

net.4.weight f4 [25, 64]
00000000: c1fc a0bd 04e0 abbc 65d5 bd3d 1ca1 0c3d
00000010: 9dc9 20bd 0b08 1abc d039 e2bd cd2f 283d
00000020: d9b2 b33d a9b8 7d3c 82d3 b8bc cd0a 443d
00000030: 3b8e 06be a200 03be 82ab b8bd 6c96 6bbd
00000040: 20e4 4d3d 5429 d53d 3de4 d33c 3b4e 48bd
00000050: 7e17 c33c ca1a 9bbb 5cdf 323c 50e5 763d
00000060: 55dc 9e3d 10f6 9a3d 65da 963d a3c3 013d
00000070: 3480 17be debb ecbd 8366 aabd b168 f13d
00000080: c8d6 923d c272 4f3b 8607 b03d 317f 25bd
00000090: 4e29 aabd e777 d6bd 65d8 3b37 9601 61bd
000000a0: 3e43 933c 6dd2 ef3d 3f0d 89bd 1e0d a8bd
000000b0: e48b e13c 00be a13d a50e d9bb 15f3 6cbd
000000c0: 528c e9bd de2a d8bd 1ffc 033e a647 443c
000000d0: 8192 e03d ad59 193d b99d d43d f147 d63b
000000e0: dae6 783c 76fc 45bc c49e c6bd 0d66 c8bd
000000f0: a20c fc3d 2aca 913d 83c9 22be 96ae 803d
00000100: 71c4 2a3c 48d9 1ebd 09e1 e03c d06d 24bc
00000110: 9dc7 7a3d 898f 8b3c 36a9 babd 45ff 063e
00000120: 4103 ca3d 59f9 dabd 0f28 493d aaa3 bdbd
00000130: 0cf9 033e 960b 173d da74 03be 8e51 6cbd
00000140: bad8 0ebd 1fea e23c 13c2 e83d 8175 b33c
00000150: 47ec d4bc 3223 4b3d 87bb 223d 80ed 9abb
00000160: 50a4 643d 9fe3 9fbd 4be0 cd3a ae79 233d
00000170: 63a4 ce3b d0cd af3d b607 03bd 70c3 e0bd
00000180: 74ad 39bd 1501 08bc ea6a 2a3d 32c5 0bbd
00000190: 1e2a 2f3c efe3 3b3c d2d8 c03d f45c debd
000001a0: 4fa7 c5bd 20c8 b5bd eb46 613d b70b d8bc
000001b0: 8140 bbbd 9ae1 d5bc 3eea 0bbd c5e0 cdbd
000001c0: db3b 833d b0f3 f03c 5929 8e3c b7ac b33d
000001d0: 2ac7 db3d 8e5d 88bd 5a39 a33d 98cf 9fbd
000001e0: fc53 0fbd ed7d 863d 808b b73b 4501 8fbc
000001f0: f0ed 9c3c 1136 8b3d 768d b73d 2b54 093e
00000200: 8999 ed3d 5640 4e3d 7847 813d e835 163d
00000210: fde4 84ba 74b8 49bd 0871 753d d1ba f03c
00000220: 96c3 f0bd d0d3 a1bd d44c be3c c482 e23d
00000230: 5931 783d a98d 933c 500e 19bd 6824 c23c
00000240: 7020 cf3d 0278 c1bd 1322 adbd 6a98 8b3a
00000250: 6d20 6ebc 4354 a73b 5de0 9abd 84a7 1d3d
00000260: a55c ecbc afe4 02bd 88a0 863d cb54 6b3d
00000270: 59e1 2e3d 7646 d3bd 210d 493d de52 d0bd
00000280: 9477 9bbd 52cf 913d 0f3b 8f3d c86d ba3d
00000290: 625a d3bd 2e30 b53d de62 fc3d 3479 c9bd
000002a0: 41cf 1d3b f8c3 e3bd d96e 96bd 891f a93d
000002b0: 9cc3 f63d a6fa 04be 2622 ed3d 0d96 cbbd
000002c0: 4e7f 7bbc a206 20bc 23c8 91bc e9fe 403d
000002d0: 36f7 013d db86 dd3d c523 3b3b f448 cb3d
000002e0: fb9e 5e3d a144 3e3d da6e aebd 3b21 89bd
000002f0: b85c 6c3d 5e63 bf3d ced9 6c3d ca03 11bd
00000300: 96cd 003d 53cf c6bd 7908 1abd d9dd 063e
00000310: 69e4 d73d e097 303d 7a2f d1bd 87a1 b9bd
00000320: e44b 80bc 9b0e 833d a9f7 a5bd 1b55 c1bd
00000330: 887c 163e b3e3 d33c b23b ed3c 2164 0f3d
00000340: 5b01 933a 1273 fe3b cf12 c43d ae6f 733d
00000350: 1f51 f43d fdd0 563d 5279 e33c a028 d33d
00000360: 57e4 3f3e ab75 4c3d 5a54 fb3d 499a b6bd
00000370: f4d5 613c 3ea9 21be 8d52 b4bd 34ae cf3d
00000380: 2e05 c73d 283c 7f3d 1ce4 85bc 443c 77bc
00000390: 79c4 a7bd b888 f63d 7918 edbc 6746 cfbd
000003a0: 006b 53bd 1281 a9bd 497a d1bd 2465 663d
000003b0: bd57 5dbd 185e 93bd d1f5 dc3c 2e85 3fba
000003c0: fc99 d5bd 729e eebc e77d 193e 9742 f5bd
000003d0: 2e90 73bb 7673 b73d ecd0 d5bb d696 e83d
000003e0: 15f0 d73d 99d7 c73c 110e 9abd 209e 153d
000003f0: 2462 e03d 9dd1 9bbd d696 a03d aa14 b5bd
-0.07860709 -0.020980842 0.092692174 0.034333333 -0.039254773 -0.009401332 -0.11046183 0.04106121
0.08774347 0.015485921 -0.022561792 0.047861863 -0.13140194 -0.1279321 -0.090170875 -0.0575165
0.050266385 0.10408273 0.025865668 -0.04890273 0.023814913 -0.004733418 0.010917511 0.060277283
0.07756869 0.07566464 0.07365874 0.031680714 -0.14795 -0.1155927 -0.08320334 0.117875464
0.071698725 0.0031654094 0.08595185 -0.040404502 -0.083086595 -0.10472088 1.1196452e-05 -0.054933153
0.0179764 0.117100574 -0.066919796 -0.08205627 0.027532525 0.07897568 -0.00662406 -0.05784901
-0.11403717 -0.10555051 0.12889145 0.011979973 0.109654434 0.037439037 0.10381646 0.006539338
0.015191758 -0.012084117 -0.09698251 -0.0978509 0.12307097 0.07118638 -0.15897183 0.062832996
0.010422812 -0.038781434 0.027451055 -0.010035947 0.061225522 0.017036216 -0.09114306 0.13183315
0.09863902 -0.106920905 0.04911047 -0.09259732 0.12887973 0.036876284 -0.12837544 -0.057694964
-0.034874655 0.027699528 0.11365142 0.021906616 -0.025991572 0.04959411 0.03972962 -0.0047280192
0.055820763 -0.07807087 0.0015707103 0.039910965 0.0063062175 0.085841775 -0.031989776 -0.10974777
-0.045331433 -0.008301039 0.041605867 -0.034123607 0.010691194 0.011467918 0.09416355 -0.10857573
-0.09651052 -0.088760614 0.054999273 -0.026372774 -0.091431625 -0.026108552 -0.034158938 -0.10052637
0.06407901 0.029413074 0.0173537 0.08773177 0.10731347 -0.06658469 0.07969923 -0.07803267
-0.034992203 0.06566987 0.0056013465 -0.01745666 0.019156426 0.06797422 0.089625284 0.13411014
0.1160155 0.050354324 0.0631246 0.036672503 -0.0010139045 -0.049248174 0.059922248 0.029385956
-0.11756055 -0.07901728 0.023229994 0.11060098 0.060593937 0.018011885 -0.037367165 0.023699
0.10113609 -0.09446718 -0.08453765 0.0010650281 -0.014534098 0.0051064803 -0.07562325 0.038489833
-0.02885277 -0.03195637 0.06573588 0.05745391 0.042695377 -0.10316174 0.049084786 -0.10172056
-0.07591167 0.07119621 0.069936864 0.0910297 -0.103199735 0.0884708 0.12323545 -0.09837571
0.0024079832 -0.111213624 -0.07345361 0.08257968 0.12049028 -0.1298624 0.11578779 -0.09940729
-0.015350176 -0.009767206 -0.017795628 0.0471181 0.0317299 0.10816737 0.0028555256 0.09926024
0.054350834 0.04645217 -0.08517237 -0.06695791 0.05770561 0.09345125 0.057824902 -0.035404004
0.031446062 -0.09707513 -0.037605736 0.13170566 0.10541613 0.04311359 -0.102141336 -0.09064012
-0.015661187 0.0639927 -0.08103878 -0.09440061 0.14695942 0.025865411 0.028959129 0.0350076
0.0011215614 0.0077651823 0.095739 0.059432678 0.11929535 0.0524454 0.027767811 0.10310483
0.18739448 0.049916904 0.12271948 -0.08916146 0.013783921 -0.15787217 -0.08804808 0.101406485
0.09717785 0.06231323 -0.016344123 -0.015090052 -0.08191771 0.12037796 -0.028942334 -0.1012085
-0.051615715 -0.08276571 -0.10228402 0.0562488 -0.054038752 -0.07195681 0.026972683 -0.0007305917
-0.10429761 -0.029128287 0.14989434 -0.11975592 -0.0037164795 0.08957569 -0.0065251496 0.11356895
0.10543839 0.024394797 -0.07522214 0.036527753 0.10956219 -0.0760834 0.0784127 -0.08841832

net.4.bias f4 [25]
00000000: 0274 cabc 03ba c6bd 30f1 9f3d 2420 27bc
00000010: 7d0c ed3d 176d 993d 910e 043b 4e29 eb3c
00000020: 9efb 4f3d 411c da3d 46ce 193e 77f3 dd3d
00000030: 99e9 5bbc 2630 013e b225 f8bc 8107 d63d
00000040: c466 a53d 1b8c 0dbe 3648 a03d 0d53 4d3e
00000050: 8ca8 09be 3437 1dbb 22e0 623c c224 adbd
00000060: a184 df3c
-0.02471352 -0.09703448 0.07809675 -0.010200534 0.115746476 0.0749151 0.0020150284 0.028706219
0.05077707 0.1064992 0.15020093 0.10837453 -0.013422393 0.12616023 -0.030291412 0.1045065
0.080762416 -0.13822977 0.07826273 0.20051213 -0.13443202 -0.0023989202 0.013847383 -0.084542766
0.027284922
