meta_ode_solver.pt (torch, 27701 bytes, 6 tensors)

net.0.weight f4 [64, 4]
0	0xbe390c7c	-0.18071169
1	0xbecb5b7c	-0.39718235
2	0x3d97dc21	0.07415033
3	0x3ce347bd	0.027744168
4	0x3d803f9f	0.06262135
5	0x3edd62bb	0.43239388
6	0xbec396f4	-0.38201106
7	0x3e8a0c09	0.26962307
8	0x3e97a7a8	0.296201
9	0xbce65bdd	-0.028119976
10	0x3e601553	0.21883135
11	0x3eabc519	0.3354881
12	0x3eb4e15f	0.35328194
13	0xbe63925b	-0.22223799
14	0x3ed0f238	0.40809798
15	0x3e4bbf4d	0.19897194
16	0xbea2c661	-0.31791976
17	0xbebc7b9a	-0.3681305
18	0xbdd7adf0	-0.10531223
19	0x3c37ead2	0.011225419
20	0x3e976acb	0.29573664
21	0x3eeccd61	0.46250442
22	0xbeb80733	-0.35942993
23	0xbedf43a3	-0.4360629
24	0x3dc15504	0.094400436
25	0xbe5c24d1	-0.2149842
26	0xbe74d36a	-0.23908773
27	0x3d3da322	0.046298154
28	0x3ee4159a	0.4454773
29	0x3db5a065	0.088684835
30	0x3ea793af	0.3272986
31	0x3de53886	0.111924216
32	0xbe9a0a5a	-0.30086023
33	0x3ec839f9	0.3910673
34	0x3ecb224f	0.39674613
35	0xbf01a630	-0.50644207
36	0x3edf39be	0.4359874
37	0xbe59d799	-0.2127365
38	0x3d8e4b7f	0.069479935
39	0xbef32391	-0.47488073
40	0xbe857b73	-0.26070747
41	0xbe9aebdc	-0.3025807
42	0xbe127423	-0.14302115
43	0xbd901b09	-0.070364065
44	0xbe66952b	-0.2251784
45	0x3ebe4679	0.3716314
46	0x3e8ecc5e	0.27890295
47	0x3c8976ed	0.016780341
48	0x3dddecca	0.108361796
49	0x3bb61016	0.005556117
50	0xbe2b5191	-0.16730334
51	0x3e427ad4	0.18992168
52	0xbebb7a40	-0.36616707
53	0xbe9a1f3c	-0.30101955
54	0xbeb2e5dc	-0.34940994
55	0x3eba8a85	0.36433807
56	0x3d8e6e2b	0.069546066
57	0xbe9f0cf0	-0.31064558
58	0x3eef78e7	0.4677193
59	0xbe5761bc	-0.21033376
60	0x3e399d78	0.18126476
61	0x3e987726	0.29778403
62	0xbde03de2	-0.10949303
63	0x3e9540a0	0.29150867
64	0x3e9ef0c6	0.3104307
65	0xbb1f35e3	-0.0024293594
66	0x3cc1573e	0.02360117
67	0x3e0e002c	0.13867253
68	0x3efd41ba	0.49464208
69	0x3defe181	0.11712933
70	0x3ec6a6f4	0.3879925
71	0xbe9e93ff	-0.30972287
72	0x3e4cce5a	0.20000592
73	0xbe91994f	-0.28437278
74	0x3df02acb	0.11726912
75	0xbd2804df	-0.04102027
76	0x3e092e10	0.13396478
77	0xbe885860	-0.26629925
78	0xbec5bbae	-0.3861975
79	0x3e821c63	0.25412282
80	0x3ebd2ddc	0.3694905
81	0x3e833b64	0.2563125
82	0x3de443f9	0.11145777
83	0x3e1d02ad	0.15333052
84	0xbe4d870b	-0.20071046
85	0xbeb4606a	-0.35229808
86	0x3e69c3ca	0.22828594
87	0x3e836fbe	0.2567119
88	0xbeaa8610	-0.33305407
89	0x3ec8913e	0.3917331
90	0xbe1ca791	-0.15298297
91	0x3e660a61	0.22464897
92	0x3ebeb90b	0.37250552
93	0x3ebfe77a	0.3748129
94	0x3e3e1992	0.18564442
95	0xbea7bb2f	-0.32759997
96	0xbedc96d6	-0.4308383
97	0xbeafb6f5	-0.34319273
98	0x3f079fd2	0.5297824
99	0xbea64ed5	-0.3248202
100	0xbd433aac	-0.047663376
101	0xbef1781c	-0.4716195
102	0x3e06dc35	0.1316994
103	0x3e1b664e	0.15175745
104	0x3dec0ec9	0.115262575
105	0x3d2c30b7	0.042038646
106	0xbef70e86	-0.48253268
107	0x3ed53f60	0.41649914
108	0xbd959257	-0.07303303
109	0xbd5ff811	-0.054679934
110	0xbea983da	-0.33108407
111	0xbe5f60ad	-0.21814223
112	0x3eba26f5	0.36357847
113	0xbe98beec	-0.29833162
114	0x3eece6dc	0.46269882
115	0xbec71835	-0.38885656
116	0x3ea51c3d	0.32248107
117	0x3e4bc024	0.19897515
118	0xbe1a6b77	-0.15080057
119	0xbdc9ffc9	-0.0986324
120	0x3ef6fc6f	0.48239467
121	0xbe406b75	-0.18790992
122	0xbe0fba57	-0.14035927
123	0x3ecc3a29	0.39888123
124	0xbc359322	-0.0110824425
125	0xbdf3a12d	-0.11895976
126	0x3e07fcf8	0.13280094
127	0x3eb6085e	0.3555326
128	0x3e8e5ee0	0.2780676
129	0x3de38be0	0.111106634
130	0xbe1e5539	-0.15462197
131	0xbe059eee	-0.13048908
132	0x3e29f60b	0.16597764
133	0xbed8b742	-0.42327315
134	0xbdec545f	-0.1153953
135	0x3ef2a6e5	0.47392955
136	0xbe3cbb71	-0.18430878
137	0x3ef176fd	0.47161093
138	0x3ea746e7	0.32671282
139	0x3e1fe2d6	0.15613875
140	0xbefa3d69	-0.48874977
141	0x3f03cc80	0.5148392
142	0x3dd8fcf0	0.10595119
143	0xbe70e9d0	-0.23526692
144	0x3ecafbd4	0.39645255
145	0xbdb146b9	-0.086560674
146	0x3ece5637	0.40300152
147	0x3ecac261	0.39601424
148	0x3e87a0e2	0.2648993
149	0x3db12cce	0.08651124
150	0x3e9004c5	0.2812864
151	0xbe77f4bc	-0.24214453
152	0xbf09e072	-0.538581
153	0xbee42324	-0.4455806
154	0x3e8d3690	0.2758069
155	0x3e36d62c	0.17855138
156	0xbeddd47c	-0.43326175
157	0xbe3a4d46	-0.1819354
158	0xbe98b3a2	-0.2982455
159	0x3e8d707b	0.27624878
160	0xbb26ba57	-0.0025440657
161	0xbebdc1be	-0.37061876
162	0x3ea423ab	0.32058463
163	0x3e9ef734	0.31047976
164	0x3e816d83	0.25278863
165	0xbe81d79b	-0.25359806
166	0xbe59c5a3	-0.21266799
167	0x3edead90	0.43491793
168	0x3ec4b53f	0.3841953
169	0xbd905cdd	-0.07048962
170	0xbe82ea61	-0.25569442
171	0xbe3061c4	-0.17224795
172	0xbed02de9	-0.40660027
173	0xbec41789	-0.38299206
174	0x3e66265e	0.22475573
175	0x3d189e24	0.03726019
176	0xbee9b069	-0.45642403
177	0xbeb41fb7	-0.35180447
178	0x3ebcdf7e	0.3688926
179	0x3eecb1a5	0.46229282
180	0x3e7e0f70	0.24810576
181	0x3eaa5578	0.33268332
182	0xbea32815	-0.31866518
183	0x3d850d70	0.064967036
184	0xbed0c9c5	-0.40778938
185	0xbd0f89a9	-0.035043392
186	0x3e8e11cb	0.2774795
187	0x3e34bf9b	0.17651217
188	0xbe9ede9b	-0.3102921
189	0x3e797712	0.24361828
190	0x3e69fcbd	0.22850318
191	0xbeeef7b1	-0.4667335
192	0xbedc269f	-0.42998216
193	0xbc472afa	-0.0121562425
194	0x3ef45c6a	0.47726756
195	0x3e129881	0.14315988
196	0xbed427d9	-0.4143665
197	0xbb87efa9	-0.0041484428
198	0x3e791d08	0.24327481
199	0x3e43bc46	0.1911479
200	0xbe940af6	-0.28914613
201	0x3e9cb493	0.30606517
202	0x3ebf2c4a	0.37338477
203	0xbebdc280	-0.37062454
204	0xbe59d7b4	-0.2127369
205	0xbe662da0	-0.22478342
206	0x3e2bb5f8	0.16768634
207	0x3e01f51a	0.12691155
208	0xbe5e97d1	-0.21737601
209	0x3e37445a	0.17897168
210	0xbe8b490d	-0.2720417
211	0x3ed623bf	0.41824147
212	0x3e121ba0	0.1426835
213	0xbe4c0095	-0.19922097
214	0xbdcc1676	-0.099652216
215	0x3dfac87c	0.122452706
216	0xbe2f26c3	-0.1710463
217	0x3ee685db	0.45024
218	0x3ebef9a5	0.3729984
219	0x3e21389b	0.1574425
220	0xbec18203	-0.37794504
221	0x3da5673c	0.08076331
222	0xbe2205cf	-0.15822528
223	0xbe9ccc24	-0.30624497
224	0xbe375e3c	-0.17907041
225	0xbeda3a3d	-0.42622557
226	0xbecd7482	-0.4012795
227	0xbe87e620	-0.2654276
228	0xbe417a58	-0.18894327
229	0xbe20f79f	-0.1571946
230	0xbdb67389	-0.08908755
231	0xbeaac81b	-0.33355793
232	0x3eb8d652	0.36101013
233	0xbebfd071	-0.37463716
234	0x3ec74c09	0.38925198
235	0xbe590f80	-0.21197319
236	0x3e480883	0.19534497
237	0x3d8a60b1	0.06756724
238	0xbe3889fe	-0.1802139
239	0xbe88f347	-0.26748106
240	0x3ee412f7	0.4454572
241	0x3ed1a7ac	0.40948236
242	0x3efb49e3	0.4907981
243	0xbe8ab184	-0.2708856
244	0x3e88adb5	0.26695028
245	0xbf01e0a7	-0.5073342
246	0xbd908fd9	-0.07058687
247	0x3d874f34	0.06606904
248	0x3ef67c77	0.48141834
249	0x3d18233f	0.03714299
250	0x3df46304	0.11932948
251	0xbea96b98	-0.330899
252	0xbef3884b	-0.4756492
253	0x3f1502f9	0.5820766
254	0xbe40e69c	-0.1883797
255	0xbe3be36e	-0.18348476

net.0.bias f4 [64]
0	0xbe8dca6b	-0.27693495
1	0xbeb070b3	-0.34460983
2	0x3f075375	0.5286172
3	0xbe56b326	-0.20966777
4	0x3da52611	0.08063901
5	0x3f14634d	0.5796402
6	0x3e8d5307	0.27602407
7	0x3eb14b8a	0.34627944
8	0x3dd77321	0.10520006
9	0xbdd204ed	-0.10254846
10	0xbe968386	-0.2939722
11	0xbe84c016	-0.259278
12	0x3f026c73	0.5094673
13	0xbebbd35c	-0.36684692
14	0x3d41735a	0.04722915
15	0x3f091811	0.5355235
16	0xbeb86d6c	-0.36020982
17	0x3e2d9f84	0.16955382
18	0xbe06bc7c	-0.13157839
19	0xbea1ae02	-0.3157807
20	0xbd0e75b3	-0.034780215
21	0xbf0f5e26	-0.56003034
22	0x3f050a36	0.51968706
23	0xbeb5845a	-0.3545254
24	0x3ddbf359	0.10739774
25	0xbe6d34fa	-0.2316474
26	0x3caebaea	0.021329362
27	0x3e4fc58b	0.202902
28	0xbdab0e87	-0.0835238
29	0xbd9c6e78	-0.07638258
30	0xbe3ca35e	-0.18421695
31	0xbdd3c758	-0.10340756
32	0x3f1472b7	0.5798754
33	0xbd906072	-0.070496455
34	0x3ecdaea3	0.401723
35	0x3ebdcb99	0.37069395
36	0xbd36609c	-0.044525728
37	0x3d29cc04	0.04145433
38	0x3eaa943c	0.3331622
39	0xbe9e58e6	-0.309272
40	0x3d208e1b	0.039198022
41	0xbd3464df	-0.04404151
42	0x37821c85	1.5510488e-05
43	0x3ec0e320	0.37673283
44	0xbe8ac4f3	-0.27103385
45	0xbc98a395	-0.01863269
46	0x3dd78731	0.105238326
47	0x3efb42df	0.49074456
48	0x3da40669	0.08009035
49	0x3dfdb35c	0.12387726
50	0xbee706fa	-0.4512251
51	0x3eb89a30	0.36055136
52	0x3efa68de	0.48908132
53	0x3f258a32	0.64663994
54	0xbe60aaf4	-0.21940213
55	0x3b831104	0.003999831
56	0x3e9a8fa9	0.3018773
57	0xbe8aa8c4	-0.27081883
58	0x3c5ec3f5	0.0135965245
59	0x3d996121	0.07489229
60	0x3e7bc10d	0.24585362
61	0x3d2ac9f2	0.041696496
62	0xbce99973	-0.028515553
63	0xbe154f15	-0.14580949

net.2.weight f4 [64, 64]
0	0x3d0cb890	0.0343557
1	0x3d4c7261	0.049913768
2	0x3e00c781	0.12576105
3	0xbdf307f7	-0.118667535
4	0x3d05f3ce	0.032703213
5	0x3e0efe7d	0.13964267
6	0xbcb1dfa8	-0.021713093
7	0x3d055a11	0.032556597
8	0x3d0cdf12	0.034392424
9	0x3b581fc3	0.0032977916
10	0xbe021a13	-0.12705259
11	0x3c2e7e65	0.010650252
12	0x3d79e2ac	0.061007187
13	0xbd661bb9	-0.056178782
14	0xbc7e626d	-0.015526396
15	0x3a83034f	0.0009995493
16	0xbdca0946	-0.0986505
17	0x3d1e6e4e	0.038679413
18	0xbdbcf323	-0.09226062
19	0x3d1ba8e6	0.03800287
20	0x3daf40dd	0.085572936
21	0xbdde9cd9	-0.1086976
22	0x3e1ab39f	0.15107583
23	0xbc0c8a5a	-0.008577907
24	0xbd6432c0	-0.05571246
25	0xbd8bbfa7	-0.06823664
26	0xbc210706	-0.009828335
27	0xbdb64054	-0.08898988
28	0x3dae2ac5	0.085042514
29	0x3cf3b1b2	0.029747818
30	0xbd955cea	-0.072931126
31	0xbddca1f8	-0.107730806
32	0x3dcfa05c	0.10138008
33	0x3d5adcd2	0.053433247
34	0x3dc78a94	0.097432286
35	0xbc262c5a	-0.01014241
36	0xbd347b21	-0.044062737
37	0x3d009fd7	0.031402435
38	0x3e0665bf	0.1312475
39	0xbc620302	-0.013794662
40	0xbe0f9262	-0.14020684
41	0xbcbbf093	-0.022941863
42	0x3df8afde	0.12142919
43	0x3d12e14a	0.035859384
44	0xbd970c70	-0.07375419
45	0xbd316eb7	-0.043318477
46	0xbcf5d8c8	-0.030010596
47	0xbd23d6c8	-0.039999753
48	0x3ce8d528	0.028421953
49	0x3da3b37f	0.079932205
50	0x3c87a2c6	0.016557109
51	0xbd77e245	-0.06051852
52	0x3d73e3fd	0.0595436
53	0x3d709396	0.0587345
54	0x3d04e474	0.032444432
55	0xbbbbe62c	-0.0057342257
56	0xbab91f1d	-0.0014123652
57	0xbd88d476	-0.06681149
58	0xbd7bb838	-0.06145498
59	0x3db68965	0.08912925
60	0x3cb0f9ac	0.021603428
61	0xbdb5c37a	-0.08875175
62	0xbc6b9227	-0.014378107
63	0x3dab4dc4	0.08364442
64	0xbdad2ef0	-0.08456218
65	0xbcbddf7e	-0.023177858
66	0x3d8ca51d	0.0686743
67	0x3ca29fba	0.019851554
68	0xbd406545	-0.04697158
69	0xbde43e75	-0.11144725
70	0xbdcf0012	-0.10107435
71	0xbd19f2d4	-0.037585095
72	0x3aede1db	0.0018148975
73	0x3dd23123	0.10263278
74	0xbd541b22	-0.05178369
75	0xbd60b34d	-0.054858495
76	0xbdb02a06	-0.08601765
77	0x3d142c7e	0.036175244
78	0xbd81497d	-0.06312845
79	0x3dd5bd47	0.104364924
80	0xbdc32623	-0.095287584
81	0x3daf48aa	0.085587814
82	0x3d44adc9	0.048017297
83	0xbaac8b65	-0.0013164101
84	0xbcc4056e	-0.02392837
85	0xbd9c3030	-0.076263785
86	0x3df3a45c	0.118965834
87	0x3ddcecc5	0.10787348
88	0x3c6503a4	0.013977919
89	0x3d2448fd	0.04010867
90	0x3e092a52	0.1339505
91	0x3d430ce1	0.047619704
92	0x3d3a2e22	0.045454152
93	0x3d23d081	0.039993767
94	0xbb8d8dab	-0.0043198667
95	0x3d936d82	0.07198621
96	0xbd98ff6a	-0.07470591
97	0xbd7605f1	-0.06006426
98	0x3c4b8724	0.012422357
99	0xbbad0999	-0.005280685
100	0xbc95abd3	-0.018270409
101	0xbcf8ca31	-0.03036985
102	0x3dcc06aa	0.099622086
103	0xbd79b624	-0.06096472
104	0x3dbbb819	0.09165973
105	0xbdaa4e38	-0.083157
106	0x3bd7d0ac	0.006586155
107	0xbd9c8ba6	-0.07643823
108	0xbcd54a12	-0.026036296
109	0xbd826597	-0.06367033
110	0x3bb4445e	0.005501314
111	0xbd298a10	-0.041391432
112	0x3dfd0fa8	0.12356502
113	0x3dd337a7	0.10313349
114	0x3ddeab9d	0.108725764
115	0xbd556601	-0.05209923
116	0x3ce38ed8	0.027778074
117	0x3d60743f	0.05479836
118	0x3cb1e0d2	0.021713648
119	0x3d2a2044	0.041534677
120	0x3cb046c2	0.021518115
121	0x3ce9586d	0.028484548
122	0xbdc2d41e	-0.095131144
123	0xbdbde9c4	-0.09273103
124	0x3de86fbf	0.11349439
125	0xbe1ac163	-0.15112834
126	0xbded3bc1	-0.11583663
127	0xbd956e89	-0.072964735
128	0xbe45a81a	-0.19302407
129	0xbc8338d9	-0.016018318
130	0x3dc82ef0	0.097745776
131	0x3980b09f	0.00024545655
132	0xbd6f0f32	-0.0583641
133	0xbc30019c	-0.010742571
134	0x3bd9df01	0.0066488986
135	0x3dbb0e7d	0.09133623
136	0xbda7c79d	-0.0819237
137	0x3d29ed31	0.04148597
138	0x3d3ac308	0.045596153
139	0x3dbcde71	0.09222115
140	0xbd0ac29f	-0.03387701
141	0xbd4854bf	-0.048908945
142	0xbe06a301	-0.13148119
143	0x3db93386	0.090430304
144	0xba5bd48d	-0.00083858595
145	0x3cb24c10	0.021764785
146	0x3bbdc0f6	0.005790825
147	0x3d4419bf	0.047876116
148	0xbd59d624	-0.053182736
149	0xbd4652e7	-0.048418906
150	0x3ccdba0e	0.025113132
151	0xbb84fbfe	-0.00405836
152	0x3cd96e78	0.026541933
153	0x3d8fe973	0.07026949
154	0xbce14b5c	-0.027501754
155	0xbb90068b	-0.004395311
156	0x3d953240	0.07284975
157	0x3e0334c2	0.12813094
158	0xbd3bda38	-0.045862406
159	0x3e01c7f1	0.12673928
160	0xbd5b3261	-0.053514842
161	0xbdd039dc	-0.10167286
162	0x3df23033	0.118255995
163	0xbd311326	-0.043231152
164	0x3ddbb34f	0.1072756
165	0x3cef4f30	0.029212564
166	0xbdca7db6	-0.09887259
167	0xbe031623	-0.12801413
168	0xbd532e2c	-0.051557705
169	0xbdcb7f32	-0.0993637
170	0xbd4c6d6c	-0.04990904
171	0xbd84753d	-0.06467674
172	0x3da836f7	0.08213609
173	0x3e150817	0.14553867
174	0x3db17491	0.086648114
175	0x3dd7108f	0.10501205
176	0xbcddd1be	-0.027077552
177	0xbdb2d9cc	-0.08732948
178	0x3de16fd2	0.11007656
179	0xbdf2ef40	-0.118620396
180	0xbc9be3c0	-0.019029498
181	0x3cbe0ee8	0.023200467
182	0xbc04cfa7	-0.008106149
183	0x3d0d955c	0.03456627
184	0xbd83a335	-0.06427614
185	0xbb9735f0	-0.004614584
186	0xbd813e47	-0.063107066
187	0x3d62ad18	0.055340856
188	0x3d50b637	0.050955024
189	0xbcc1c053	-0.023651278
190	0x3d6a08bc	0.057137236
191	0xbd9fc748	-0.07801682
192	0x3d7297da	0.05922685
193	0x3d77b2b6	0.060473166
194	0x3dff048d	0.1245204
195	0x3d531182	0.05153037
196	0x3de90581	0.11378003
197	0x3d7af344	0.061267152
198	0xbdb49afe	-0.08818625
199	0x3e235a8d	0.15952511
200	0x3bd7c61c	0.006584896
201	0x3dbc2bf6	0.091880724
202	0x3d222941	0.039590124
203	0x3de529c0	0.11189604
204	0xbd45ae0a	-0.04826168
205	0x3dd7f095	0.10543934
206	0xbcb46743	-0.022021895
207	0xbd022078	-0.031769246
208	0x3c742680	0.014901757
209	0xbd9019a0	-0.070361376
210	0xbd60dc38	-0.054897517
211	0x3c82c4b9	0.015962945
212	0x3d364086	0.044495128
213	0x3c841f97	0.016128344
214	0xbc15fa0a	-0.009153852
215	0xbaae7332	-0.0013309477
216	0x3dae0bdb	0.08498355
217	0xbcec806a	-0.028869826
218	0xbd953768	-0.072859585
219	0x3dc299bf	0.09501981
220	0xbab6f34a	-0.0013958004
221	0x3d1a8c4f	0.037731465
222	0xbd3beecb	-0.045882028
223	0x3c23ab0f	0.009989514
224	0xb91c4511	-0.00014903049
225	0x3de3a9e8	0.111163914
226	0x3d2df378	0.042468518
227	0x3d9a60ab	0.07537969
228	0xbcd22153	-0.025650656
229	0x3de8a003	0.11358645
230	0x3d1e3713	0.03862674
231	0xbdb5edf3	-0.08883276
232	0x3d84be4b	0.06481608
233	0x3e04d362	0.12971261
234	0xbdc9453a	-0.09827657
235	0x3e0d04ce	0.13771364
236	0xbafdbe63	-0.0019359108
237	0xbd80be8a	-0.062863424
238	0x3ded0361	0.1157291
239	0x3cf1299c	0.029438786
240	0xbda7dc00	-0.081962585
241	0xbdc622dc	-0.09674618
242	0x3d226395	0.03964575
243	0xbd700203	-0.05859567
244	0xbd0b0287	-0.033937957
245	0x3e270cb2	0.16313437
246	0x391b43b2	0.0001480717
247	0x3ca3ca63	0.019993966
248	0xbdea348b	-0.11435803
249	0xbc5b715b	-0.013393725
250	0xbdd57dc9	-0.10424382
251	0xbc0fa0a6	-0.008766329
252	0x3dab5249	0.08365304
253	0xbc03fbdd	-0.008055654
254	0x3d8670d2	0.065644875
255	0xbe2cb647	-0.16866408

net.2.bias f4 [64]
0	0x3e42300a	0.18963638
1	0x3bb986af	0.0056618075
2	0x3e1f9a46	0.15586194
3	0xba9f54a8	-0.0012155967
4	0x3de28d22	0.11062075
5	0x3c61dd82	0.013785722
6	0x3cf21349	0.029550212
7	0xbd84f559	-0.06492109
8	0x3ccfdad2	0.025372896
9	0xbd000e08	-0.03126338
10	0xbdc1f866	-0.09471206
11	0xbd52e6ed	-0.05148976
12	0x3d544ec7	0.05183294
13	0x3dbbae65	0.091641225
14	0x3d86533b	0.06558844
15	0x3d81f978	0.063464105
16	0xbe0bd5fa	-0.13655844
17	0xbbfc30c2	-0.007696242
18	0x3ca043ec	0.019563638
19	0xbd41e9ce	-0.047342114
20	0xbe26687c	-0.16250795
21	0x3d737bb5	0.059444148
22	0x3e5b3eeb	0.2141072
23	0xbd769c84	-0.06020786
24	0x3db6762a	0.08909257
25	0x3d97418c	0.07385549
26	0x3d00f496	0.031483255
27	0x3c067ee3	0.008208963
28	0xbd83af5f	-0.06429934
29	0x3db5bac6	0.08873515
30	0xbc656cad	-0.014002961
31	0x3e37d21a	0.17951241
32	0x3df4a8e4	0.11946276
33	0x3e30bb23	0.17258887
34	0x3d93b27d	0.07211778
35	0x3c27d961	0.010244698
36	0xbdbc7d7c	-0.09203622
37	0x3e20709b	0.15667956
38	0x3c1f7171	0.009731636
39	0xbc3b9590	-0.011449233
40	0x3c0b79d5	0.008512934
41	0x3dc1664e	0.09443341
42	0x3e053b78	0.13010967
43	0xbdcf2867	-0.10115128
44	0x3e2d1c23	0.16905265
45	0xbdc92106	-0.09820752
46	0x3e21b962	0.15793374
47	0x3e34befb	0.17650978
48	0x3d6ec31b	0.058291536
49	0xbdf16150	-0.11786139
50	0xbcef45d2	-0.029208098
51	0x3d9aebb9	0.07564492
52	0x3e049e77	0.12951075
53	0x3d57d594	0.05269392
54	0x3e1d4e81	0.15361978
55	0x3e4a94e9	0.19783367
56	0x3e0cf521	0.13765384
57	0xbdbda0f2	-0.092592135
58	0x3e19d497	0.15022503
59	0xbcae47a5	-0.021274397
60	0xbdc45a4a	-0.09587534
61	0x3d50dc6a	0.050991453
62	0xbd440e14	-0.04786499
63	0x3d718955	0.05896886

net.4.weight f4 [25, 64]
0	0x3d1cfe7b	0.03832863
1	0xbd94a442	-0.07257892
2	0x3d779a63	0.06044997
3	0xbddbceea	-0.10732825
4	0x3d0b5605	0.03401758
5	0x3b95938b	0.0045647076
6	0x3ca4f1c2	0.02013481
7	0xbc0451d7	-0.008076153
8	0x3d255235	0.0403616
9	0x3cae33d8	0.021264955
10	0x3dcba7e2	0.099441305
11	0x3dafc148	0.08581787
12	0xbdcce5e8	-0.10004789
13	0xbd92f690	-0.07175934
14	0x3d5b4eed	0.053542066
15	0x3d16402f	0.036682304
16	0xbc2a9657	-0.01041182
17	0x3c8a43d6	0.01687805
18	0x3d2cbf74	0.04217477
19	0x3d1e481c	0.038642988
20	0x3da4892b	0.08033975
21	0x3dffff02	0.12499811
22	0x3d2360f7	0.039887395
23	0xbda869f6	-0.082233354
24	0x3de20084	0.110352546
25	0x3d2698a5	0.040672917
26	0xbdcf2121	-0.10113741
27	0x3df816be	0.12113713
28	0x3d63e021	0.055633668
29	0x3d9befed	0.076141216
30	0xbde60cfc	-0.11232945
31	0xbdac2c64	-0.08406904
32	0xbcc074a9	-0.023493128
33	0x3c8d7e6c	0.017272197
34	0x3d2bdcc5	0.04195859
35	0x3da2382f	0.079208724
36	0xbd949d40	-0.072565556
37	0xbd780c2f	-0.060558494
38	0xbd415467	-0.047199633
39	0xbbd6b88d	-0.006552762
40	0x3dd95e77	0.10613721
41	0x3d950718	0.07276744
42	0xbdd626b1	-0.104565986
43	0x39e873b9	0.00044336708
44	0xbd36f56c	-0.044667646
45	0xbdc78682	-0.09742452
46	0xbd7b240d	-0.061313678
47	0xbdf43c69	-0.11925585
48	0xbc822b3e	-0.01588976
49	0x3d2add52	0.041714974
50	0xbd90ee78	-0.07076734
51	0x3dc20323	0.094732545
52	0x3ddcbacd	0.10777817
53	0xbd4e6a69	-0.05039445
54	0xbd416070	-0.04721111
55	0x3d2e2b48	0.042521745
56	0x3d9cec12	0.07662214
57	0xbe2bf7e3	-0.1679378
58	0xbdb9a770	-0.09065139
59	0xbbb2d1e0	-0.005457148
60	0xbb17c6d5	-0.0023159285
61	0xbdccbca8	-0.09996921
62	0x3d8f4404	0.06995395
63	0x3cc7d744	0.024394639
64	0x3e06d54e	0.13167307
65	0x3e0b9678	0.13631618
66	0x3d3e17ca	0.046409406
67	0x3d74c353	0.05975659
68	0xbe30eb01	-0.17277147
69	0x3d202373	0.039096307
70	0xbd7e528b	-0.062090438
71	0xbda34668	-0.07972413
72	0x3d91cfa2	0.07119681
73	0xbdd34005	-0.10314945
74	0x3cd6dc2f	0.026228039
75	0x3dbb3e35	0.091427244
76	0xbdd907bd	-0.10597179
77	0x3dee2d66	0.11629753
78	0x3c96bcf3	0.018400645
79	0xbd73e8de	-0.05954825
80	0xbce5cbfb	-0.028051367
81	0xbdce5e8c	-0.10076627
82	0xbca39710	-0.019969493
83	0x3be3d85a	0.0069532814
84	0xbe39f748	-0.18160737
85	0xbdc9adcb	-0.098476015
86	0x3d607f6a	0.05480901
87	0x3d9206af	0.07130181
88	0x3d35722a	0.04429833
89	0x3cc091de	0.023507055
90	0x3d7041d7	0.05865654
91	0x3dc14aa7	0.09438067
92	0xbe0b5cbf	-0.13609599
93	0xbda55eae	-0.08074699
94	0x3c14f885	0.009092455
95	0xbd511308	-0.05104354
96	0xbcc7f04a	-0.024406571
97	0x3dfad183	0.122469924
98	0x3dc98b8f	0.09841072
99	0xbdb963b7	-0.09052222
100	0xbd7ad91d	-0.06124221
101	0xbae30d2b	-0.001732265
102	0xbd9e7b35	-0.077383436
103	0xbdf8103f	-0.12112474
104	0xbdb21ae3	-0.086965345
105	0xbdcf35fb	-0.10117718
106	0x3b5548ae	0.0032544541
107	0x3bcf9d03	0.006335856
108	0xbc8d73f3	-0.017267203
109	0xbdab2c46	-0.08358054
110	0xbd65c43c	-0.056095347
111	0x3d2c1958	0.042016357
112	0x3d4c1969	0.04982892
113	0xbc9a56f2	-0.018840287
114	0x3df1eaa9	0.11812336
115	0x3d316aa8	0.043314606
116	0x3de2eee0	0.11080718
117	0xbe0b04fe	-0.13576123
118	0x3d858c75	0.06520931
119	0xbd6aff5a	-0.05737243
120	0xbe20b722	-0.1569486
121	0x3d1ce313	0.038302492
122	0x3d2c00c4	0.041992918
123	0xbc9d1834	-0.01917658
124	0x3da76de8	0.0817526
125	0x3d4c40ac	0.049866363
126	0x3dfce434	0.12348214
127	0x3d6dc6c1	0.058050875
128	0x3d0b37e9	0.033988867
129	0xbe05e876	-0.13076958
130	0x3e38c170	0.1804254
131	0x3b3f7658	0.0029214825
132	0x3d2485f4	0.04016681
133	0xbd894124	-0.06701878
134	0xbd5244ce	-0.05133515
135	0xbe09e4e6	-0.13466224
136	0xbc674fb1	-0.014118121
137	0x3d671ca6	0.056423806
138	0x3b8eec5b	0.004361672
139	0x3b9480b9	0.0045319465
140	0x3d68e89d	0.056862462
141	0x3dfadb1a	0.122488216
142	0x3de9c771	0.114149936
143	0xbde3a3d6	-0.111152336
144	0xbda4af90	-0.080412984
145	0xbdcb404d	-0.09924374
146	0xbdb69d0a	-0.089166716
147	0xbdfb44ab	-0.12268957
148	0x3d46fd89	0.048581634
149	0xbc19ee8b	-0.009395252
150	0x3dcedeb7	0.10101073
151	0xbc895c7f	-0.016767738
152	0x3e563d94	0.20921928
153	0xbe1dbb90	-0.1540358
154	0xbe0f05e8	-0.13967097
155	0x3c8716b4	0.016490318
156	0xbda406ef	-0.08009135
157	0xbccb7808	-0.024837509
158	0xbd3f0838	-0.046638697
159	0xbdb3c683	-0.087780975
160	0xbdd76026	-0.10516386
161	0xbd28ceb5	-0.041212756
162	0x3c75b258	0.014996134
163	0x3dbc7219	0.0920145
164	0xbe0181f5	-0.12647231
165	0x3acd54e8	0.0015665563
166	0x3c27b22a	0.010235349
167	0x3cc7e9f6	0.024403553
168	0x3d0f6736	0.03501054
169	0x3d2ba96a	0.041909613
170	0x3e5d356f	0.21602415
171	0xbdf9daaa	-0.1219991
172	0xbd9ea1a5	-0.07745675
173	0x3d8c41c4	0.06848481
174	0x3d03d476	0.03218504
175	0x3dbc3813	0.09190383
176	0x3d928411	0.07154096
177	0xbd6669e6	-0.056253336
178	0x3db57da4	0.08861855
179	0x3d6bf205	0.057603855
180	0x3d86829d	0.06567881
181	0x3d4c6eb8	0.049910277
182	0xbccb59d0	-0.0248231
183	0xbdb100c3	-0.086427234
184	0xbadaae6d	-0.0016684063
185	0xbcb48c3b	-0.022039523
186	0x3ddcf9bb	0.1078982
187	0x3e06be10	0.1315844
188	0xbe00b71a	-0.12569848
189	0xbe328db5	-0.1743687
190	0xbd621ee8	-0.055205256
191	0xbd27ca37	-0.04096433
192	0x3e106a6c	0.14103097
193	0xbd6f398d	-0.058404494
194	0x3d4b27b3	0.049598407
195	0x3bf3668b	0.0074279956
196	0x3dd79504	0.10526469
197	0xbd9a50bb	-0.07534929
198	0xbd9ece1c	-0.07754156
199	0xbdf28347	-0.118414454
200	0x3dede06d	0.116150714
201	0x3d270e11	0.0407849
202	0x3c5671d0	0.013088658
203	0xbe0d5388	-0.13801396
204	0x3e09d392	0.13459614
205	0x3be33250	0.006933488
206	0x3be3afc1	0.0069484417
207	0xbd03aa70	-0.032144964
208	0xbd23d009	-0.03999332
209	0xbdac9f02	-0.08428766
210	0xbdbda18d	-0.09259329
211	0xbd30a873	-0.043129396
212	0x3dabf44f	0.083962075
213	0x3d1f7cd9	0.038937423
214	0x3e5500c4	0.20801073
215	0x3ddb3672	0.10703744
216	0x3c974f39	0.018470393
217	0x3df9997d	0.12187479
218	0x3c8ae037	0.016952617
219	0xbdb8c511	-0.090219624
220	0xbd4b9146	-0.04969909
221	0xbca5ec4a	-0.020254273
222	0x3db06959	0.086138435
223	0x3d044472	0.032291837
224	0xbdb59ea3	-0.08868148
225	0xbcdef423	-0.027216023
226	0xbcba37d7	-0.022731705
227	0x3d266b70	0.040629804
228	0x3d62639e	0.055270784
229	0x3c7f296d	0.0155738415
230	0x3d9e6857	0.07734745
231	0x3d94bdbd	0.07262752
232	0x3da3beff	0.07995414
233	0x3dc73ca4	0.09728363
234	0x3d8fa36b	0.070135914
235	0xbdae2775	-0.085036196
236	0x3d8edd39	0.069757886
237	0x3dfbd236	0.12295954
238	0x3de84daf	0.11342942
239	0x3dd7b1e5	0.105319776
240	0x3d7aa00f	0.0611878
241	0x3b0c4f30	0.0021409504
242	0xbd833f35	-0.0640854
243	0x3cf89f11	0.030349286
244	0x3beb7012	0.0071849907
245	0x3de9a3dd	0.114082076
246	0x3dca04c8	0.09864193
247	0x3c2b94f4	0.010472525
248	0x3d85ba10	0.06529629
249	0x3d6e8496	0.058231913
250	0xbd3f05de	-0.046636455
251	0xbd235e58	-0.039884895
252	0xbd9c7ac3	-0.076406024
253	0x3d6c823c	0.05774139
254	0x3d96cbc0	0.07363081
255	0x3df24c0d	0.11830912

net.4.bias f4 [25]
0	0xbd40d661	-0.047079448
1	0xbd75a46d	-0.05997126
2	0x3c909b54	0.017652191
3	0x3dedf1eb	0.11618408
4	0xbc872ce9	-0.016500907
5	0xbce64655	-0.028109709
6	0xbd42e5fa	-0.047582604
7	0x3e02a35d	0.1275763
8	0xbdc97325	-0.09836415
9	0xbd5b0824	-0.05347456
10	0x3dbe3c33	0.09288826
11	0xbc9c4677	-0.019076569
12	0xbc5b2c58	-0.013377272
13	0x3acc4ddd	0.001558717
14	0x3e014c6f	0.12626813
15	0x3c1752da	0.009236062
16	0xbdcc814a	-0.099855974
17	0x3eb5873d	0.3545474
18	0x3bfb43ac	0.007667979
19	0xbd60039a	-0.054690935
20	0x3c9344ba	0.017977107
21	0x3b91463e	0.0044334223
22	0xbd00ea81	-0.03147364
23	0xbdc64559	-0.09681196
24	0xbe0dfff7	-0.13867174
